best_model.pth (torch, 20326 bytes, 5 tensors)

layer1.weight f4 [64, 35]
0	0x3d84d889	0.06486613
1	0xbd81df6e	-0.06341444
2	0xbd0a1ef6	-0.033720933
3	0x3d5481f7	0.051881757
4	0x3df0afa5	0.117522515
5	0xbde39789	-0.111128874
6	0xbdd8b37e	-0.105811104
7	0x3e026a57	0.12735878
8	0x3dffc2fa	0.12488361
9	0xbd90fe93	-0.07079806
10	0xbd9688e9	-0.07350332
11	0x3e0d1bc1	0.13780119
12	0xbd480ff1	-0.048843328
13	0x3e154159	0.1457571
14	0x3df0cf1a	0.117582515
15	0xbd727c6d	-0.059200693
16	0x3e0bff77	0.13671671
17	0xbcc1ef71	-0.023673745
18	0xbe370b09	-0.17875303
19	0x3df8e88c	0.1215373
20	0xbd8eb066	-0.06967239
21	0x3c4d8a79	0.0125452215
22	0xbdfd2e23	-0.123623155
23	0x3df65f91	0.120299466
24	0xbcd9941d	-0.026559884
25	0xbd253cbf	-0.040341135
26	0xbe0a6ac9	-0.13517298
27	0x3db4fb7f	0.088370316
28	0xbdc5b891	-0.09654344
29	0xbd8570fa	-0.06515689
30	0xbd7cfbe0	-0.061763644
31	0x3daaf56a	0.0834759
32	0xbdd726a9	-0.10505421
33	0xbd709886	-0.058739208
34	0xbd34771f	-0.044058915
35	0xbd914f11	-0.07095159
36	0x3e01e78d	0.12685986
37	0xbc49cd5a	-0.012317026
38	0x3e2e453e	0.17018601
39	0xbdcf5897	-0.10124319
40	0xbd567458	-0.052357048
41	0xbe5926af	-0.21206163
42	0x3e980dec	0.29698122
43	0x3e395c8d	0.18101712
44	0x3d8acb27	0.067770295
45	0x3ded39ab	0.11583265
46	0x3dd368c5	0.103227176
47	0x3d112723	0.035437714
48	0xbe10826a	-0.14112249
49	0x3d590f4f	0.052993115
50	0x3d7991b6	0.060929976
51	0x3d9b0b9d	0.075705744
52	0x3ca3375f	0.019923864
53	0xbe0d7dee	-0.1381757
54	0x3dbb132f	0.09134518
55	0x3e22eda8	0.15910971
56	0x3cf5b9dd	0.029995853
57	0x3e1dfcbd	0.15428443
58	0xbd176ac9	-0.036967073
59	0x3e89f9ab	0.26948294
60	0x3e37939a	0.179274
61	0xbd844fa1	-0.064605005
62	0xbd882516	-0.066476986
63	0xbd88122a	-0.066440895
64	0x3e64e5fb	0.22353356
65	0xbdb1b98f	-0.086779706
66	0xbda2979e	-0.07939075
67	0xbdbae495	-0.0912563
68	0x3dced709	0.100996085
69	0xbe94d9c6	-0.29072398
70	0xbe388153	-0.18018083
71	0x3e1e2cf3	0.15446834
72	0xbe19705a	-0.14984265
73	0x3d20c26b	0.03924791
74	0xbd167eaf	-0.03674191
75	0xbd54d252	-0.05195839
76	0xbdd509a8	-0.104022324
77	0x3eb0a0f1	0.3449779
78	0x3d90a3b4	0.07062474
79	0x3d084f6c	0.033278868
80	0x3e45851e	0.19289061
81	0xbd35a57b	-0.044347268
82	0x3c2201a0	0.009888083
83	0x3d53daac	0.051722214
84	0x3e25f496	0.16206583
85	0x3e010a30	0.12601542
86	0x3ccb5496	0.024820607
87	0xbdfe0771	-0.12403763
88	0xbe3a5f29	-0.18200363
89	0xbd43131d	-0.04762565
90	0x3e1408e8	0.14456522
91	0xbdcba53d	-0.09943626
92	0xbdabc7a8	-0.08387691
93	0x3e0c581c	0.13705486
94	0x3d803c3f	0.06261491
95	0x3d6e884c	0.05823545
96	0xbd5c0c16	-0.053722464
97	0xbd9883c8	-0.0744701
98	0x3e54332c	0.20722646
99	0x3df89f43	0.12139752
100	0xbe9dd538	-0.30826735
101	0x3e135f04	0.14391714
102	0xbcb3d3f9	-0.021951662
103	0xbe151513	-0.1455882
104	0xbe3b0254	-0.18262607
105	0xbe940015	-0.28906313
106	0x3c3c9391	0.011509792
107	0x3df14d12	0.11782278
108	0xbb2933a5	-0.0025818136
109	0x3dfad35e	0.12247346
110	0x3d6e156c	0.0581259
111	0x3d2d3be5	0.042293448
112	0x3e884886	0.2661783
113	0xbca8916e	-0.020577159
114	0x3dd50ede	0.10403226
115	0x3e4a636e	0.19764492
116	0x3e5187ff	0.20462035
117	0x3e2173fc	0.15766901
118	0x3d692887	0.056923416
119	0x3d904c41	0.07045794
120	0x3d9c2361	0.076239355
121	0xbe28c50b	-0.16481416
122	0xbd1ea44e	-0.038730912
123	0xbe8a13b7	-0.26968166
124	0x3e1908f8	0.14944828
125	0xbcd5b039	-0.026085006
126	0xbd4ac83d	-0.04950737
127	0xbd9381ff	-0.07202529
128	0x3cc386cb	0.023867985
129	0x3deaf375	0.11472217
130	0xbd85776f	-0.06516921
131	0x3d67196b	0.056420725
132	0xbd01b3a3	-0.031665456
133	0x3d9b8666	0.07593994
134	0x3e5fc28c	0.21851557
135	0xbe718e96	-0.23589548
136	0x3da42217	0.080143146
137	0xbd8a79a4	-0.06761482
138	0xbcfbbc0b	-0.030729314
139	0xbe6106e2	-0.21975282
140	0xbd8e94b6	-0.06961958
141	0xbe05d1ec	-0.1306836
142	0xbd81b6c6	-0.063336894
143	0xbd837406	-0.06418614
144	0x3dadbb18	0.08482951
145	0x3ddd56de	0.10807584
146	0x3d627779	0.05528972
147	0x3e477eae	0.19481918
148	0x3d4d81a1	0.050172452
149	0x3c962949	0.018330233
150	0x3cf9033a	0.030397046
151	0x3e1f0794	0.15530235
152	0xbd6d5415	-0.057941515
153	0x3e24957f	0.16072653
154	0x3e0f002c	0.1396491
155	0x3d5a4b0c	0.053294227
156	0x3c91c00e	0.017791774
157	0xbd904f03	-0.0704632
158	0xbdf9d71d	-0.12199233
159	0x3df05876	0.117356226
160	0x3dc84641	0.09779025
161	0xbe231a01	-0.15927888
162	0x3cfbb8e2	0.030727807
163	0x3e731a75	0.23740561
164	0x3e5d3eac	0.21605939
165	0x3bd735e9	0.006567706
166	0x3e04df58	0.12975824
167	0x3e27931b	0.1636471
168	0xbd0e0205	-0.034669895
169	0x3e1f4398	0.15553129
170	0xbe345064	-0.17608792
171	0x3da48ec6	0.08035044
172	0x3db4ec1a	0.08834095
173	0xbe388d2b	-0.18022601
174	0xbe818859	-0.25299338
175	0x3ebabede	0.36473745
176	0xbdd22b04	-0.10262111
177	0x3e2b7751	0.16744734
178	0xbd40fd84	-0.04711677
179	0x3c986904	0.018604763
180	0x3e210f36	0.15728459
181	0x3d121852	0.035667725
182	0xbd0c9caf	-0.034329113
183	0xbb8cbd1b	-0.004295004
184	0xbc78e5fa	-0.015191549
185	0x3d2b51ef	0.041826185
186	0x3d3e1d3b	0.046414595
187	0xbd68ef49	-0.056868825
188	0x3e064645	0.13112743
189	0x3e31e9b6	0.1737431
190	0xbdc43c6f	-0.09581839
191	0x3c0ccc17	0.008593581
192	0x3dbbb95b	0.09166213
193	0x3e8c7877	0.27435657
194	0x3dc7e62e	0.097607
195	0x3e2055da	0.1565775
196	0x3dceee05	0.101039924
197	0xbd192fb7	-0.03739902
198	0x3c37ff28	0.011230268
199	0xbd852333	-0.06500854
200	0x3dad699c	0.08467409
201	0xbd790fac	-0.06080596
202	0x3cc8d8f1	0.024517508
203	0x3e0545c8	0.130149
204	0x3dd91793	0.106001996
205	0x3e3cdcc6	0.18443593
206	0xbc94966f	-0.018138139
207	0x3cd139bf	0.02554023
208	0x3e36537c	0.17805284
209	0x3edf1089	0.43567303
210	0xbe96f07a	-0.29480344
211	0x3c453077	0.012035481
212	0xbdf1fe7b	-0.118161164
213	0x3dd6d559	0.104899116
214	0x3e1a72e0	0.15082884
215	0xbda5827b	-0.08081528
216	0x3d564e68	0.052320868
217	0x3e90bf25	0.28270832
218	0x3ceaaf7f	0.028648136
219	0xbd83613b	-0.064150296
220	0x3cb31ab0	0.021863312
221	0x3e6dc123	0.23218207
222	0x3e418441	0.18898107
223	0x3dcec555	0.10096232
224	0x3e2d40be	0.16919228
225	0xbd36a4cd	-0.04459076
226	0xbdd00bb7	-0.101584844
227	0xbdd90b6c	-0.10597882
228	0xbd34ebbb	-0.044170123
229	0x3e11fa9f	0.1425576
230	0xbda9eecd	-0.08297501
231	0xbc5eb904	-0.013593916
232	0xbd84bbd1	-0.06481136
233	0xbd244e90	-0.040113986
234	0x3d46fecf	0.04858285
235	0x3c0def96	0.008663079
236	0xbddfc4f9	-0.109262414
237	0xbdcdb59b	-0.10044404
238	0xbdc47fe4	-0.09594706
239	0xbb5499bc	-0.0032440266
240	0xbe3cd6fb	-0.18441384
241	0x3e5d53c2	0.21613982
242	0x3e263b57	0.16233574
243	0xbd9cbb8d	-0.0765296
244	0xbdea3f1d	-0.11437819
245	0xbc49ad01	-0.012309314
246	0x3d5df91e	0.054192655
247	0x3d06a540	0.03287244
248	0x3d51145f	0.051044818
249	0xbdfd69da	-0.12373705
250	0x3d7c67ea	0.061622538
251	0x3cdfd7e4	0.027324624
252	0x3e4d288e	0.20035002
253	0x3e3aab68	0.18229449
254	0x3d7a5e1b	0.061124902
255	0x3e0b7154	0.1361745

layer1.bias f4 [64]
0	0xbde66996	-0.11250608
1	0x3e3e7f82	0.18603328
2	0x3e3b887a	0.1831378
3	0xbd912c89	-0.070885725
4	0x3e1ad0b7	0.15118681
5	0x3dc1a426	0.09455137
6	0x3e22fd36	0.15916905
7	0xbdb1f0d4	-0.086885124
8	0xbd1cd0f6	-0.03828522
9	0x3e20201f	0.15637253
10	0x3d4352d4	0.047686413
11	0x3d378ee6	0.044814013
12	0x3c939805	0.018016824
13	0x3c8c5dc6	0.017134558
14	0x3dacd518	0.08439082
15	0x3e01c7e5	0.1267391
16	0x3d979a2a	0.07402451
17	0xbd8001ab	-0.06250318
18	0x3e2cb37c	0.16865343
19	0xbe117e18	-0.14208257
20	0x3dacecb1	0.08443583
21	0xbd877f13	-0.06616034
22	0x3deb3434	0.11484566
23	0x3e47748b	0.19478051
24	0x3dde5d2a	0.108576134
25	0xbd9aaf0c	-0.07552919
26	0x3e02ed1e	0.12785766
27	0x3b5767e3	0.0032868318
28	0x3d8971cd	0.06711159
29	0xbe278cca	-0.163623
30	0x3d505867	0.050865557
31	0x3d2c8b66	0.04212513
32	0x3d9cd336	0.07657473
33	0x3dae89ed	0.08522401
34	0xbd8a2792	-0.06745829
35	0x3e0852f7	0.13312899
36	0x3dab5520	0.08365846
37	0xbe253a14	-0.16135436
38	0x3da7646c	0.08173451
39	0xbd01c300	-0.031680107
40	0xbe133608	-0.1437608
41	0xbd2190e1	-0.039444808
42	0xbd02dff3	-0.031951856
43	0x3dac5c60	0.08416057
44	0x3e4be3cb	0.19911115
45	0x3d80a8ea	0.06282218
46	0x3e05ef0f	0.13079475
47	0xbc7de8e0	-0.015497416
48	0x3e54a118	0.20764577
49	0x3da4d2aa	0.080479935
50	0x3ca8c1bb	0.02060019
51	0xbcf32029	-0.029678421
52	0x3d197ad1	0.037470642
53	0xbdc16da4	-0.094447404
54	0xbd56d1af	-0.052446064
55	0x3da18429	0.07886536
56	0xbcf92ed2	-0.030417833
57	0xbe1d467e	-0.15358922
58	0x3dc2bc92	0.09508623
59	0x3dc6474f	0.0968157
60	0x3d0e0796	0.034675203
61	0xbd31873d	-0.043341864
62	0x3d8216a9	0.06351978
63	0x3e301e0e	0.17198965

layer2.weight f4 [32, 64]
0	0x3c5dbaba	0.013533289
1	0xbc9eb131	-0.0193716
2	0xbe3d8bac	-0.18510312
3	0x3c7d2cb9	0.015452557
4	0x3c0c78ad	0.008573693
5	0x3e259683	0.16170697
6	0xbd6709c1	-0.056405786
7	0x3db2e409	0.087349005
8	0xbd8a3407	-0.06748205
9	0xbd8c3e82	-0.0684786
10	0xbddadbb0	-0.10686433
11	0xbd54caaf	-0.051951107
12	0xbc2e4c05	-0.010638242
13	0x3d3ce0e5	0.046112914
14	0x3da42f98	0.0801689
15	0xbd74b070	-0.059738576
16	0x3c1a8801	0.00943184
17	0xbdc7b505	-0.097513236
18	0x3d5881ef	0.05285829
19	0x3d9a0a66	0.075215146
20	0xbe08ccc6	-0.13359365
21	0x3c6a1693	0.014287609
22	0xbdaaa7f6	-0.08332817
23	0x3cbb87f8	0.022891983
24	0xbc151534	-0.0090992935
25	0x3db8153a	0.08988424
26	0xbdd6c5cc	-0.104869455
27	0x3d322ddb	0.043500762
28	0x3c8db3f0	0.017297715
29	0x3cd3ae6c	0.025840007
30	0x3d0a2d7f	0.033734795
31	0x3cdd1164	0.026985832
32	0xbd80a22b	-0.06280931
33	0xbdb1bd35	-0.086786665
34	0xbb35f487	-0.0027764158
35	0x3da27cf8	0.07933992
36	0xbcf1e532	-0.029528234
37	0x3de357f8	0.11100763
38	0x3dda36e0	0.10654998
39	0xbd62ba0c	-0.05535321
40	0x3d1edcae	0.038784675
41	0x3daff445	0.085915126
42	0x3d822cee	0.06356226
43	0xbd4907a8	-0.049079567
44	0xbdc79a86	-0.0974627
45	0x3cacb196	0.021080773
46	0xbd859bb4	-0.06523839
47	0xbd03c314	-0.032168463
48	0xbdb67648	-0.08909279
49	0xbcf389cd	-0.029728794
50	0x3dbc5e3f	0.091976635
51	0x3ceec42b	0.029146275
52	0xbdb11f90	-0.08648598
53	0x3dc4c97d	0.09608743
54	0xbd98ef37	-0.074675016
55	0xbd8f036e	-0.06983076
56	0x3c742b4c	0.014902901
57	0xbd2be1a8	-0.04196325
58	0x3d75f1f6	0.060045205
59	0x3d992c93	0.07479205
60	0x3d8716e4	0.06596163
61	0xbd70bb64	-0.05877246
62	0xbcec83b4	-0.028871395
63	0xbd94975b	-0.07255431
64	0x3d3dbeda	0.04632459
65	0xbdff2664	-0.12458494
66	0xbde71c6b	-0.11284717
67	0xbdf4993d	-0.119432904
68	0x3c245b0e	0.010031475
69	0x3de03438	0.1094746
70	0x3d5939b2	0.05303354
71	0x3da092ea	0.07840522
72	0xbdc5c2de	-0.096563086
73	0x3d92bd07	0.0716496
74	0xbdcc15bc	-0.09965083
75	0x3d09045b	0.03345142
76	0x3c85c10b	0.016327402
77	0xbd2cf374	-0.042224362
78	0xbdf5a698	-0.11994666
79	0x3dd01d4d	0.10161839
80	0x3d501b7a	0.050807454
81	0x3dce2ed4	0.100675255
82	0x3d1f11f9	0.0388355
83	0xbdc4e2f0	-0.096135974
84	0xbc998e9d	-0.018744761
85	0x3d50c240	0.0509665
86	0xbd4c2c08	-0.04984668
87	0xbd8ae5e0	-0.067821264
88	0xbda9d9bb	-0.08293482
89	0xbd4ee290	-0.050509036
90	0xbd1bf627	-0.038076546
91	0xbda2273f	-0.07917642
92	0xbd87c67c	-0.06629655
93	0xbd51b140	-0.05119443
94	0xbdc8cd86	-0.098048255
95	0xbd682bc6	-0.05668237
96	0x3db15ca0	0.08660245
97	0xbd345c32	-0.044033237
98	0xbdd1a76c	-0.10237011
99	0xbd1914b7	-0.03737327
100	0x3d09e176	0.033662282
101	0xbdab303c	-0.08358809
102	0x3cd2ffe8	0.025756791
103	0xbcc775b0	-0.02434811
104	0x3ddc0961	0.107439764
105	0xbd074c4c	-0.033031747
106	0xbd0d28a3	-0.034462582
107	0xbdea656a	-0.114451244
108	0xbe04d917	-0.12973438
109	0xbdc02450	-0.09381926
110	0xbd953210	-0.07284939
111	0xbda67c76	-0.08129208
112	0x3cba5028	0.0227433
113	0x3c0522d5	0.00812598
114	0x3d0afc03	0.033931743
115	0xbd9f93f0	-0.07791889
116	0x3d310a64	0.0432228
117	0x3dd6ce66	0.10488586
118	0x3d941ea9	0.072324105
119	0x3dc3d5f6	0.09562294
120	0x3da2d8ca	0.079515055
121	0x3d977f24	0.07397297
122	0x3dc10f26	0.094267175
123	0x3dbc6f7d	0.09200952
124	0x3ddd23da	0.10797854
125	0xbddd4c33	-0.108055495
126	0x3df94c62	0.12172772
127	0x3adfc380	0.0017071813
128	0x3d5dd7b8	0.054160804
129	0x3e0f558f	0.13997482
130	0x3e1493bb	0.1450948
131	0x3e443d22	0.19163945
132	0xbc121d7d	-0.008918163
133	0xbd858b57	-0.065207176
134	0x3d0bdb8a	0.034144916
135	0xbda0aba6	-0.07845239
136	0x3ea72ff6	0.3265378
137	0x3ddd9615	0.108196415
138	0xbc21b9d1	-0.009870962
139	0x3dcb50c3	0.099275135
140	0x3e8fcfeb	0.28088316
141	0xb9059aea	-0.00012741578
142	0xbcd32de0	-0.02577871
143	0x3e9882bd	0.29787245
144	0xbc9f99b8	-0.019482478
145	0x3e7c8f05	0.24663933
146	0x3e465c5f	0.19371174
147	0xbde32856	-0.11091678
148	0x3e3d0a83	0.18461041
149	0xbda3b05b	-0.079926215
150	0x3d9636c6	0.07334666
151	0x3eee0320	0.4648676
152	0x3e547d27	0.20750867
153	0x3d9542dc	0.07288143
154	0x3dbe7ac9	0.09300763
155	0xbb88ec28	-0.0041785426
156	0xbd3c3647	-0.0459502
157	0xbcd17fe8	-0.025573686
158	0x3e0a8dd7	0.1353067
159	0x3e51cbfc	0.2048797
160	0xbd0c3c54	-0.03423722
161	0x3ceb3dca	0.028715987
162	0xbd102749	-0.035193715
163	0x3d945d1d	0.072443224
164	0x3e04ed6a	0.12981191
165	0xbc6d8f40	-0.0144994855
166	0x3e3fd743	0.1873446
167	0xbd5425d8	-0.051793903
168	0x3e06e211	0.13172175
169	0xbd37aee4	-0.044844523
170	0x3e33e2d9	0.17567004
171	0x3e89e796	0.269345
172	0x3e91f0b3	0.2850395
173	0xbe8a6e64	-0.27037346
174	0x3df5b3c7	0.119971804
175	0x3d642f80	0.055709362
176	0x3e8c47b0	0.27398443
177	0x3d034fda	0.032058574
178	0x3d20164a	0.039083757
179	0x3e8be7c2	0.27325255
180	0x3dc47909	0.09593398
181	0xbc5a4216	-0.01332142
182	0x3d6b26fc	0.057410225
183	0x3d58dcf6	0.0529451
184	0x3d2223a0	0.039584756
185	0x3de2d414	0.11075607
186	0x3ed17c63	0.40915212
187	0x3d9df01a	0.07711811
188	0x3e0df801	0.13864137
189	0x3dc2a183	0.09503462
190	0x3cd82465	0.026384542
191	0x3e92413c	0.28565395
192	0x3c11e0e0	0.008903712
193	0x3ce73eca	0.028228182
194	0xbd083acc	-0.033259198
195	0xbd2f135f	-0.042743083
196	0xbd34372a	-0.04399792
197	0x3da5a755	0.08088557
198	0xbb072bda	-0.0020625503
199	0xbe092a75	-0.13395102
200	0x3cdf3d8a	0.027251024
201	0x3d9bae32	0.076015845
202	0xbdf1534b	-0.11783465
203	0xbde5be94	-0.112179905
204	0x3d0cce35	0.03437634
205	0x3d1fbd07	0.03899863
206	0xbd1a41f0	-0.03766054
207	0xbdca3612	-0.09873594
208	0x3d9b7411	0.07590497
209	0x3da1f85c	0.07908699
210	0x3dc4c876	0.096085474
211	0xbd861990	-0.065478444
212	0xbd1bed0d	-0.038067866
213	0xbd9d8c9c	-0.07692835
214	0xbd8014dc	-0.062539786
215	0xbd920fc2	-0.07131912
216	0x3d948e21	0.072536714
217	0x3c6c8df0	0.014438137
218	0xbccb28b9	-0.024799692
219	0x3d4d958f	0.05019146
220	0xbd300794	-0.042975977
221	0x3ceb8b90	0.028753072
222	0x3ca4c948	0.02011551
223	0x3d8c7d7b	0.06859871
224	0xbe0a3c74	-0.13499624
225	0x3d2afa6a	0.04174272
226	0xbc0945b0	-0.008378431
227	0x3dd1b323	0.10239246
228	0xbd99f0c3	-0.07516625
229	0xbd80664a	-0.0626951
230	0xbda749f2	-0.08168401
231	0x3dd27028	0.10275298
232	0xbdba6eec	-0.09103188
233	0x3c564780	0.01307857
234	0x3ccac836	0.024753671
235	0xbd88cad5	-0.06679312
236	0xbd7e8af8	-0.06214425
237	0xbdfbd63c	-0.12296721
238	0xbd20cf7c	-0.039260373
239	0x3d05c9b4	0.032663062
240	0x3d8fdc90	0.07024491
241	0xbc6473a8	-0.01394359
242	0xbcde979d	-0.027171904
243	0x3db61a23	0.08891704
244	0xbd0116dc	-0.03151594
245	0x3c0651f9	0.008198255
246	0x3af81e44	0.0018929918
247	0xbd8fe876	-0.0702676
248	0x3ccf0c88	0.02527453
249	0x3c046a90	0.008082047
250	0xbdcadfb1	-0.09905947
251	0xbd93da8d	-0.0721942
252	0x3d80a629	0.062816925
253	0x3d271586	0.04079201
254	0x3cd39dc8	0.025832072
255	0x3dc9b822	0.09849574

layer2.bias f4 [32]
0	0x3daa2bb3	0.08309116
1	0xbd6722e9	-0.056429777
2	0x3d033a21	0.032037858
3	0xbd57584a	-0.052574433
4	0x3de669de	0.11250661
5	0xbd1e7804	-0.038688675
6	0xbd3990d5	-0.04530414
7	0xbd903698	-0.07041663
8	0x3d84b5b7	0.06479972
9	0xbdec085a	-0.115250304
10	0xbdb28995	-0.08717648
11	0x3d909cf4	0.070611864
12	0x3de61a80	0.11235523
13	0x3de89aeb	0.11357673
14	0xbcba0045	-0.022705207
15	0x3e199295	0.14997323
16	0xbe03a673	-0.12856464
17	0x3e08d42d	0.13362189
18	0xbccca449	-0.024980681
19	0x3ce252d2	0.027627382
20	0x3db0a08d	0.08624373
21	0xbddfa015	-0.10919205
22	0x3e52f39b	0.2060074
23	0x3dc2b26d	0.09506688
24	0xbd4ab450	-0.049488366
25	0x3def519d	0.116854884
26	0x3dc00500	0.09375954
27	0xbd452e18	-0.04813966
28	0xbdecfdae	-0.11571823
29	0x3de27617	0.1105768
30	0x3d96e857	0.07368534
31	0x3df93f6e	0.121703014

layer3.weight f4 [1, 32]
0	0x3e0371fa	0.12836447
1	0x3d8f9a04	0.07011798
2	0xbe83ebe8	-0.2576592
3	0x3dcf6dc1	0.10128356
4	0xbe9b1085	-0.3028604
5	0x3e19c11a	0.15015069
6	0xbe6e39f3	-0.23264293
7	0x3dc13e4d	0.09435711
8	0xbdb4c53e	-0.088266835
9	0xbc0e5330	-0.008686826
10	0x3e0f84f7	0.14015566
11	0x3ddbfede	0.107419714
12	0x3cecfb50	0.028928429
13	0xbe807552	-0.25089508
14	0x3ce5df31	0.028060528
15	0xbe9bc193	-0.30421123
16	0x3e153861	0.14572288
17	0xbe7d5cab	-0.24742381
18	0xbe6a6d14	-0.22893173
19	0x3de9dbd8	0.11418885
20	0xbeb47a68	-0.3524964
21	0xbde7dfb9	-0.113219686
22	0x3eb6efcb	0.35729823
23	0xbe31225e	-0.17298266
24	0x3d94e734	0.07270661
25	0xbe4e031f	-0.20118378
26	0x3ec02d6d	0.37534657
27	0x3e04b64c	0.12960166
28	0xbd9bc73e	-0.07606362
29	0xbe52dce3	-0.20592074
30	0xbe9167cc	-0.28399503
31	0xbe87c19c	-0.265149
