best_model.pth (torch, 186724 bytes, 7 tensors)

layers.0.weight f4 [256, 17]
00000000: 4223 323e 9906 bb3d 5858 c53c 1287 12bc
00000010: 2507 28bd 8f26 4c3e ee50 3b3e 4c82 3b3e
00000020: 4d77 1fbe c674 5dbe cdaf 643e 9812 10be
00000030: d02e ff3d 3ae7 31bb 4115 063d 1e7e 0c3e
00000040: 6a26 c53d 0ac4 003e bd62 1b3e 8deb 7e3d
00000050: 9f6d 953e 4b78 1abe d0e4 f43d 8f46 513d
00000060: 1d94 fd3d dbff 3b3e d35d 4e3e 6cc9 ba3b
00000070: 9ffb da3c f053 9b3d 0cf2 27be ad2c 33be
00000080: 5cb6 43be 936b 86bd 75c6 463d 78cd 0abd
00000090: 21cf 1dbe bd0d 163e 4141 153e 9918 ea3d
000000a0: 2b05 14be 706c 9f3d 7eb1 53be eca1 923d
000000b0: 81a2 0b3e b00b d4bd c168 283e f4a8 ccbd
000000c0: ba08 1ebd 0032 1abb 40f7 943e 51e5 18be
000000d0: 37a7 71be 24d9 f0bd cc12 8b3e f585 7dbd
000000e0: b30c a73d 510e dc3d 1f37 073e 0595 d2bd
000000f0: 2b3e 1dbe a40f 023e bec7 fcbd 15e3 cbbc
00000100: 3d99 d03d dcfa 55bc 57be c13c 9a1a 9e3e
00000110: 7b2d 053e 4929 85bd 6270 d53d 938d 873d
00000120: e734 203e 11a5 0ebe de77 7f3e 0daa 6c3e
00000130: a395 7c3d 163c 25be 319f 80bd c34c 27be
00000140: d8f3 233e 3422 e43d 255f e2bd 54c3 03be
00000150: b53b 2cbf ecb7 10be ece1 733e 7542 20be
00000160: 61a6 c0bd b40f 82bd 6013 803e 2b2d 2b3e
00000170: cd56 163e 6650 993d 62dd 563d af40 b6bd
00000180: 975e 9abc f502 fc3d 2562 5ebe 3e1e 083e
00000190: 54ad 1ebe 5045 c9bd d859 033d 56f3 6fbe
000001a0: ee42 543e 2ca0 643e f01f 44bd 806a 80bb
000001b0: f8cf 7f3d 7a09 4b3e 5232 193e c69c 563e
000001c0: 1c43 de3d 526a 123e 40ec f6bc 343d e6bd
000001d0: d853 1bbe e10a 3abe 08a5 ffbc c4d4 2bbd
000001e0: 82b5 5e3e fc32 0abd b1d0 433e b2de febd
000001f0: c4a8 1fbe 9430 213e 9681 123e bcc5 373d
00000200: dbe1 463e 9d96 7b3d 4543 66bd 8156 28be
00000210: 6a76 753c 9233 f13d 76c0 4f3e 2218 5fbe
00000220: e410 cebd 3b8b 5fbd 8d69 123e bc08 44be
00000230: 154a da3d 739c a53d 446c 00be 7f85 78be
00000240: 0cbc 743e b325 f23d 26d0 f23d c601 63be
00000250: 5c37 a03d d74b 393a 2a7c 0b3e 4d9f 553e
00000260: 43ae 953d 50fa 0a3d 50be dabc 340a d8bd
00000270: f0ff 33bc 14cc cfbd 9250 a2bd 3cec 77bd
00000280: 8031 4c3d 9c68 c53d 185f 28bd 7ed5 613e
00000290: b35d 14be 9ee7 bdbd 38b2 13bd 348a 253e
000002a0: 185d c3bc 7fbe 43be f0f9 f9bc 906a 34bc
000002b0: a59b 76be d071 81bc ec3b 44bd 2066 c6bb
000002c0: 10cf 363d f0ff 17be 9e0f 0cbe f4a5 5abe
000002d0: a842 80bc e05b 243d b8a7 1c3d d5b2 03be
000002e0: 48ae 5d3d 1072 e5bc 9c54 08be 3740 133c
000002f0: 254c 153e f468 84bd c9d3 9c3d c28a 8d3e
00000300: 2562 033e 27b3 09bd aabc ba3d 1ae5 d6bd
00000310: 2658 d7bd ce71 4ebe 907f a3bd 68d3 55be
00000320: 697c 883d 7a43 f6bd 3bb3 1c3e cf1f b03e
00000330: 2ee7 863e a7f3 2d3c 5829 063e 8bd9 1bbe
00000340: 1313 d5bc b205 81bd 6154 623e b623 29be
00000350: 88d1 053e 7c8e bb3d 7f24 56be b853 503e
00000360: 4dd8 5cbe 2ecc 2abe 2bbd 153e c4cc 503d
00000370: ad47 4d3e 5076 2f3c 30a2 463e 8c78 59bc
00000380: 266c 193e cb54 a03d 7e3d 083c e815 36be
00000390: bdd2 25be 65dc 7f3e c8fa 08be 5985 6d3e
000003a0: 2464 80be 1840 c93c edb9 c73c 3583 66be
000003b0: d651 e1bd d480 943e 1d40 cdbd bea7 62be
000003c0: 9cf9 e73d d958 58be 08ac c33d 60c2 323e
000003d0: ab4f 20be 73fa 1cbd f77d 48bd 75be d53d
000003e0: 659f dcbc 85dc de3d 7dd2 873d 9544 4abe
000003f0: c691 d4bc 27ec 37be 472c 193e 8c93 153e
0.17396262 0.09132118 0.024089977 -0.008943336 -0.04102244 0.19936584 0.18292591 0.18311423
-0.15572853 -0.21626577 0.22332688 -0.14069593 0.12460101 -0.0027145878 0.032735113 0.13719985
0.096264675 0.12574783 0.15174384 0.062236357 0.29185197 -0.1508495 0.11957705 0.05109268
0.12381766 0.1835932 0.20152979 0.005700281 0.02673131 0.07584369 -0.16400927 -0.17497511
-0.19112533 -0.06563487 0.048529107 -0.033887357 -0.15411045 0.14653678 0.14575674 0.11430473
-0.14455096 0.07784355 -0.20673177 0.071597904 0.13636209 -0.10353792 0.1644621 -0.09993163
-0.03858254 -0.0023528337 0.29094887 -0.14931227 -0.23598944 -0.11760166 0.27162778 -0.06189533
0.08156719 0.10744918 0.13204621 -0.102823295 -0.15355746 0.12701279 -0.12342785 -0.024888555
0.10185478 -0.013060298 0.023650331 0.3087967 0.1300563 -0.06502015 0.10421826 0.066188
0.1564518 -0.13930155 0.2494807 0.23111744 0.061666142 -0.16136202 -0.06280363 -0.16337876
0.16010988 0.11139336 -0.11053304 -0.1286748 -0.67278606 -0.1413266 0.23816651 -0.15650351
-0.09406734 -0.063506514 0.25014782 0.16716449 0.1468155 0.07486038 0.05245722 -0.08899056
-0.018843932 0.123052515 -0.21717127 0.13292786 -0.15495807 -0.098276734 0.032068104 -0.23432669
0.20728657 0.22326726 -0.04788202 -0.003918946 0.062454194 0.19827834 0.14960602 0.20958242
0.10852644 0.1429837 -0.03014195 -0.11242142 -0.15168703 -0.18168212 -0.031206623 -0.041950956
0.21748927 -0.03374003 0.19122578 -0.124448195 -0.15591723 0.15741187 0.14307246 0.04486631
0.19422095 0.061422933 -0.056216497 -0.16439249 0.014981845 0.117774144 0.20288262 -0.2178655
-0.100618154 -0.05457614 0.14298077 -0.19143957 0.10658661 0.08086481 -0.125413 -0.24269675
0.23899859 0.11823597 0.118561074 -0.22168645 0.07823059 0.0007068491 0.13621584 0.2086155
0.073086284 0.033930123 -0.026702076 -0.10548821 -0.010986313 -0.10146347 -0.07925524 -0.060528025
0.049851894 0.09639093 -0.041106313 0.22054097 -0.14488868 -0.09272693 -0.036058635 0.16166002
-0.023848101 -0.19115637 -0.030514687 -0.011011735 -0.24082811 -0.01580134 -0.04790871 -0.0060546547
0.044631064 -0.14843726 -0.13677832 -0.21352369 -0.015656784 0.04012668 0.038245887 -0.12861188
0.054121286 -0.02800849 -0.13313526 0.008987478 0.14579828 -0.06465331 0.07657582 0.27644926
0.12830408 -0.03361812 0.09118016 -0.104929164 -0.1051486 -0.201606 -0.07983315 -0.20881426
0.06664354 -0.12024589 0.15302746 0.34399268 0.2634825 0.010617173 0.13101709 -0.15219705
-0.026010072 -0.062999144 0.221025 -0.16517529 0.13068211 0.09158036 -0.2091236 0.20344436
-0.21566887 -0.16679451 0.14622943 0.05097653 0.20046873 0.01070936 0.19397807 -0.0132733695
0.14982662 0.07828673 0.008315442 -0.17781794 -0.16193672 0.24986418 -0.13376915 0.231954
-0.250764 0.024566695 0.024380649 -0.22510989 -0.11001937 0.29004538 -0.10021994 -0.22134301
0.11326906 -0.21127643 0.09554297 0.1745696 -0.15655391 -0.038324784 -0.048948254 0.104367174
-0.026931474 0.108819045 0.06631944 -0.19752724 -0.025948416 -0.17961179 0.14958297 0.14607066

layers.0.bias f4 [256]
00000000: f062 1fbd ab67 a33d 598c f13d 61c9 9f3c
00000010: 0569 b73d 37f9 f6bd 0d36 42be 79cc 553e
00000020: f91a 31be 68d2 f7bd 6821 d1bd 0b88 bd3d
00000030: 66ac 5ebd f558 9fbc 4e81 243e 09f5 1a3e
00000040: a0f4 0f3c f581 623e abec 6e3d d9ec 42be
00000050: b074 c4bd 0770 46bd 1237 dbbd ceeb 0fbe
00000060: 21f8 21be 0c78 183e 8254 1d3d f959 5d3e
00000070: ea00 1b3e 902e 0ebd f3ff 2a3e fe6a 993d
00000080: 3c25 573e e54f 743e 7ed7 b2bb e89c ba3d
00000090: bbbd 3fbe d599 dc3c c0ba 6a3d 4405 44be
000000a0: 07d6 6fbe 2bdb 1cbd 4a6c 53be fbbe 2b3e
000000b0: 9a61 b93d cd45 203e 2a37 a53d 422a 77bd
000000c0: 3f4b 5c3b 89ba 76bb dec2 92bd 3262 d93d
000000d0: f69d d63d 9866 1dbd a500 2a3e 16d7 2e3e
000000e0: 9e98 e83c 3049 b6bd ceea 5fbe 6890 e0bc
000000f0: 1a06 6bbd 489b 063e f54c 72be 7d43 553e
00000100: bd5e 03bb 18aa 5e3d 0efe 28be d5b5 9ebd
00000110: 0a7e 1f3e e43d 53be b539 353e 098e 5039
00000120: ca86 48be a308 58be 523b ebbd 0816 553e
00000130: 1d62 3f3e a8e6 aebd 6a6d 6fbe 32df 8f3d
00000140: 68b9 463c 5844 0ebe be17 74bd 0113 1a3e
00000150: 15a8 b93d 88cf ef3d 4f2a cb3d 732f 793e
00000160: 0ce0 72bd aa66 29be 6956 023d 62bd 10be
00000170: fec4 633e d4bd 12ba 8bad 283e 872f 813d
00000180: 7dbd 9cbd a672 463e d794 8bbd fd63 023e
00000190: fe38 123e bc5b 0bbe c05a 3fbe 696d ac3d
000001a0: f42f 083e 43d6 04be ecd4 663e 95e7 38be
000001b0: 7649 683e 82b8 073e 1428 05be 8527 6dbb
000001c0: 496d 28be 16af 8eb9 4ba4 bdbb 171c 18be
000001d0: 3952 c93c 8259 8fbc c3e2 5dbe 1b38 fd3c
000001e0: 1f77 913d 1c09 2fbe e5d2 64be 4a78 603e
000001f0: 9dbf 2cbe 03aa e3bd 8824 49be 3579 563e
00000200: f998 22be 7c8a 81bd b63d 69be a1a5 dd3c
00000210: bafe b93d 7820 73be 00e0 3f3d 8523 923c
00000220: 951a 39be f741 ba3d efdf 1cbd 2aaf f53d
00000230: cdb0 523e c269 c1bb e1bd eebd da3d 6dbe
00000240: 28d3 35be 103c 4fbd 3152 3abe f9ba 05bd
00000250: f115 05be f0a1 2abe f46e 3b3d b34c 523d
00000260: 0008 633e 7ae1 093e 67b6 d93d b36e dbbc
00000270: 3946 493e 7a12 54be e26a c2bd 609e a93d
00000280: 485a 5bbe 5a68 acbc dc3c 7a3d 4a4f 49be
00000290: 6913 12be 2955 703e a3ea 67be cdd6 f93d
000002a0: c4f0 13be c28a 443e 438c 0ebc f86f d5bd
000002b0: 78a0 f7bc 1eb9 36be a011 aebb 323f 0a3d
000002c0: f96c 6fbe e41e 773e 1421 6bbe 3401 913d
000002d0: ad2b d33d 507a 54be e852 12bb 0231 083e
000002e0: a02a 2fbe 2df4 1dbe ef31 f5bd 81f8 3abe
000002f0: 0ae0 42bd 4d03 3ebe 33cb 743e a4d5 63be
00000300: 5a18 573e 9966 13be 2124 20be 4bb7 ae3d
00000310: 5000 07be c474 193e 4116 01be 4560 8fbd
00000320: aa97 9ebd f6f9 2a3d 820a e0bc 26b6 793c
00000330: 4b36 3abe 2485 033e f027 803e c602 54be
00000340: bff4 723e 1962 dc3d ed6f 573e af53 a5bd
00000350: c945 8abd 6aae fc3d 7eec e8bd f5d7 1abe
00000360: 3b94 433e c60c 3abe 7030 be3d 6659 a8bd
00000370: 4dc5 afbc 7828 a73d 7ee7 63be 7ecc fc3d
00000380: a94d e9bd 27b4 29be 7d89 71be 2237 3dbe
00000390: 8367 053d 3fb5 65be 6d8b 033e 47f4 683e
000003a0: f588 99bd f3ac edbd 37b6 bc3d faf3 00bd
000003b0: 1fb9 853d 2577 16be 96ab 9cba 16eb f63d
000003c0: 5a96 eabc 4657 b03c 9c72 843c 09f7 fdbb
000003d0: f86a 023c ff72 e0bd 88b8 b33c 7211 cbbd
000003e0: ce6b f93d 8ce6 353e 89be 323e 3324 63be
000003f0: ceb6 3fbe e33e 6b3e a236 2cbe c2f8 a2bb
-0.038912714 0.079787575 0.11794347 0.019505205 0.08955578 -0.12059253 -0.18965931 0.20878781
-0.17295446 -0.12100679 -0.1021145 0.09254464 -0.05436363 -0.019451598 0.16064951 0.15132536
0.0087863505 0.22119887 0.058331173 -0.19035663 -0.09592569 -0.04844668 -0.10703863 -0.14054796
-0.1581731 0.14889544 0.03841067 0.21616353 0.15137067 -0.034712374 0.166992 0.0749111
0.21010298 0.23858602 -0.0054578176 0.09111959 -0.1872472 0.026928822 0.057307005 -0.19142634
-0.23421489 -0.038294952 -0.20646778 0.16772072 0.09051819 0.15651627 0.08067162 -0.060343035
0.0033614186 -0.0037647805 -0.07166074 0.106144324 0.104793474 -0.03842792 0.16601808 0.17074236
0.028393086 -0.08900678 -0.21866915 -0.027412608 -0.057378866 0.13145173 -0.2366217 0.20826526
-0.0020045482 0.054361433 -0.16503164 -0.077495255 0.15575424 -0.20629078 0.17697795 0.00019889338
-0.19582668 -0.21097045 -0.11485924 0.20809186 0.18689771 -0.08540088 -0.23381582 0.07024993
0.012129165 -0.13893259 -0.059592955 0.15046312 0.09065262 0.11709505 0.09920179 0.24334507
-0.0592957 -0.1654307 0.03182069 -0.14134744 0.22243115 -0.00055977446 0.16472451 0.06307893
-0.076533295 0.19379672 -0.06815498 0.12733455 0.14279553 -0.13609213 -0.18686962 0.08419306
0.13299543 -0.1297236 0.22542161 -0.18057092 0.22684273 0.13253978 -0.1300357 -0.0036186886
-0.16447939 -0.000272148 -0.0057874075 -0.14854465 0.02457534 -0.017498735 -0.21668534 0.030910542
0.07102799 -0.17093319 -0.22346075 0.21920887 -0.1686997 -0.111164115 -0.19642842 0.20944674
-0.15878667 -0.06325242 -0.22777447 0.027056517 0.09081788 -0.23742855 0.046844482 0.017839203
-0.18076546 0.09094613 -0.038299497 0.119963005 0.20575257 -0.0059025 -0.1165731 -0.23168126
-0.17756331 -0.05059439 -0.18195416 -0.032649014 -0.12996651 -0.16663337 0.04576011 0.051342677
0.2217102 0.13464919 0.106304936 -0.026786184 0.19655694 -0.20710173 -0.094930425 0.08282161
-0.21421158 -0.021045852 0.061093196 -0.19659153 -0.14265217 0.23469986 -0.226481 0.12199173
-0.14447314 0.19193557 -0.008700433 -0.10421747 -0.030227885 -0.17844054 -0.0053121597 0.033751674
-0.23381414 0.24132878 -0.22961837 0.070803076 0.10311065 -0.20749784 -0.0022327248 0.13299945
-0.17106104 -0.15425177 -0.11972415 -0.18258859 -0.04757694 -0.18555947 0.2390564 -0.22249466
0.21005383 -0.14394607 -0.15638782 0.08531054 -0.13183713 0.14985949 -0.12606145 -0.07000784
-0.077437714 0.041742288 -0.02734876 0.0152411815 -0.18184774 0.12843758 0.2503047 -0.20704183
0.23726176 0.10760898 0.2103879 -0.08072602 -0.06751592 0.12337954 -0.11373232 -0.15121444
0.19099514 -0.18168935 0.092865825 -0.082201764 -0.021456385 0.08162016 -0.22256276 0.12343691
-0.113917656 -0.16572629 -0.23587604 -0.18478063 0.03256942 -0.22432421 0.12846155 0.22749434
-0.074968256 -0.11605253 0.09214442 -0.031482674 0.0652945 -0.14693888 -0.0011952992 0.12056558
-0.028636146 0.02152599 0.016167931 -0.007750396 0.007960074 -0.10959434 0.021938577 -0.09915437
0.12178765 0.17763728 0.17455496 -0.22181778 -0.18722078 0.22973208 -0.16817716 -0.004973502

layers.2.weight f4 [128, 256]
00000000: 8026 9cbc 603b c73b 930b 4d3d d4ba 04bd
00000010: f0f2 863c e081 063d 74e1 fd3c f9bb 35bc
00000020: 97e4 adbc 7efe 713d 589b 653c 00b5 2f3c
00000030: 7414 543c 10d4 58bc f466 30bd d534 cbbb
00000040: 2cb8 113d ace3 b2bc 008c c43c 70f7 7dbd
00000050: 928e 393d 8133 7a3d 74c2 39bd 4693 32bd
00000060: 30ed 8ebc b245 bd3c 3f05 d23c 0614 4d3d
00000070: 7b1d 34bd 8058 16bb d00f f9ba dc45 a03c
00000080: 2540 1b3c b4ac 84bc 982b 2abd a43f 7cbd
00000090: 3f22 e3bc 684f bb3c ee1d 76bc 0cc1 ee3c
000000a0: 5b82 a6bc cc65 94bc 8e61 313d 509a 72bc
000000b0: cf43 f1bc 72be c4bc 7870 523d a40f 86bc
000000c0: 6851 3c3c 94f0 803c 9a38 123d 6064 263b
000000d0: 3921 3c39 fa0c f5bc b336 4dbc 8a06 3cbd
000000e0: 2a87 9e3c c0b5 763b 70b4 c6bb 6e35 17bd
000000f0: fe4f 9e3c 1c00 bc3b 6f0c f13c 52f2 b23c
00000100: 820f 80bc d0ae dc3b 0021 b13a c0da 0d3c
00000110: c81b 2bbd 603c eb3c dc53 223d 8809 543d
00000120: 054d 45bd b8ee 1f3c b270 15bd 92c1 f9ba
00000130: 32b7 793c 38a1 11bd e68f cbbc aeda 463d
00000140: 2e2a f03b 6856 48bd 7cde d2bc 12e3 ff3c
00000150: 8925 113d f0e4 6abc e765 fdbc 7631 68bd
00000160: b983 cb3c c01c 5c3d 0114 023d 747f 64bd
00000170: 6887 5bbd c151 5dbd acb6 db3c 1870 2f3b
00000180: 5499 d63c 94b9 17bc 0485 d8bc 5222 6abd
00000190: 9e0f 8cbc dcc8 8b3c b47d 2a3d 4629 3cbd
000001a0: cdc7 773c 32e8 33bd ee00 9ebc 13e0 19bc
000001b0: fce1 9e3c e49d 88bc dad2 6d3d 3dc8 73bb
000001c0: ec8f 8b3c 8ff6 8f3c 3318 42bc fea3 63bc
000001d0: 4f8d 5b3d 184a 5d3d f278 7bbd 228e 5f3d
000001e0: 7ed7 4dbd b49a 0fbc 169c 41bc f964 333d
000001f0: e16e 683d c412 b73c 6ef9 04bd d6c2 033d
00000200: 9419 4ebd c097 f93b a0d3 bebc e86b 6d3d
00000210: 5e95 14bc 458f 63bc ea2c 40bd 7ff1 24bd
00000220: 4a07 38bd c58f 68bd af6e 213a f642 9abc
00000230: 89c5 71bd db12 ca3c 9889 533d 501e 533d
00000240: c2fa 79bd f290 5c3d b8d1 203c 6af9 553d
00000250: aa01 56bd 30af f4bb 84a3 613d eb3c f8bb
00000260: 5652 1a3d 5216 0d3d 04ff 703d b4ed a9bc
00000270: 30ff 42bd 04ce 4ebd 80d9 a4bc 4cf7 6d3d
00000280: 4004 473d 8835 c23c 51ef 67bc 7024 5b3d
00000290: 3011 2fbc 282b 15bc 1423 51bd 1a10 59bd
000002a0: e67c 62bd 2b93 72bd acf0 9b3c 8149 e5bc
000002b0: f25f 5fbd a09b bf3c 10b5 de3c 7f06 77bc
000002c0: 2c68 e1bc 30dd 663d 1e1c 2cbd 7c2a 003d
000002d0: d512 6fbd 9829 d63c b0ab 673d 5004 573d
000002e0: b0c7 9ebc 7db1 5abc 8c78 1d3d ddb9 3abd
000002f0: 6807 833c 8aa4 2ebd c959 bf3c 744d 573d
00000300: 2a2b 7d3d 1bdc 9fbb 76f1 13bd 00fa 8cba
00000310: 56ac 2e3d 9a80 11bc 80af 073a 0df1 7d3d
00000320: e6d7 04bd 68eb 753c 252e 8fbb 3279 09bc
00000330: d4be 233d 6671 3cbd 60df 80bd 5863 17bd
00000340: 8786 403c 58a5 1f3c 704c 08bc a2e4 44bd
00000350: 67b9 b33c 58e0 dc3c 307c 183d ee34 49bd
00000360: f092 debc c0b4 31bd 36da 0f3d 5072 d43b
00000370: 90fe 9b3b 3a25 41bd f4c8 43bd 387b 39bd
00000380: b892 17bc 0d4e ff3a acfb 34bd b0c8 f03b
00000390: b6c9 43bd d8cf 5ebd 7ec2 4d3d 257c 1bbd
000003a0: 55e1 813c 5139 023d eb32 65bc 06b1 66bd
000003b0: afbb 45bd 2acd 76bd 3a99 3a3c a0c7 07bb
000003c0: 74ec 543b f464 3b3d 7e12 2bbd 80a2 7a3a
000003d0: 026b 3c3c e00a fb3c 892b 4bbd e344 8a3c
000003e0: fd67 bebc 09d3 103d b3b1 dcbc e89e b23c
000003f0: 80e9 db3b e4b6 053d 06cf 073d 9f05 253d
-0.019061327 0.006080076 0.050059866 -0.032404736 0.016473264 0.032838702 0.030991293 -0.011092179
-0.021227164 0.059080593 0.014014088 0.010724306 0.0129443295 -0.013234153 -0.043066934 -0.0062013664
0.03557603 -0.021837078 0.023992538 -0.062003553 0.04530198 0.061084274 -0.04535146 -0.043597482
-0.017447084 0.023104522 0.025637267 0.050067924 -0.043973427 -0.0022940934 -0.0019001905 0.019564562
0.0094757425 -0.016195633 -0.04154548 -0.06158413 -0.02772629 0.022865012 -0.015021784 0.029144786
-0.02032583 -0.018114947 0.043305926 -0.014807299 -0.029451279 -0.024016593 0.05137679 -0.01636488
0.011494018 0.015739717 0.03569851 0.0025389418 0.00017941454 -0.029913414 -0.012525248 -0.045904674
0.01935156 0.0037644953 -0.0060639903 -0.03691619 0.019325253 0.0057373177 0.029424874 0.021844063
-0.015632395 0.0067347065 0.0013513863 0.008658111 -0.04177454 0.028715312 0.039630756 0.051766902
-0.048169155 0.009761505 -0.036484428 -0.0019054881 0.015241431 -0.03555414 -0.02484889 0.048548393
0.007329247 -0.04891053 -0.025740854 0.031236205 0.035436187 -0.0143368095 -0.03093238 -0.056687795
0.024843084 0.053738356 0.03175736 -0.05578561 -0.05359593 -0.054033045 0.026820503 0.0026769694
0.02619616 -0.009260554 -0.026430614 -0.057161637 -0.01709729 0.01706355 0.041623786 -0.0459378
0.01512332 -0.04392261 -0.019287553 -0.009391802 0.019394867 -0.01667685 0.05806241 -0.0037198209
0.0170364 0.017573623 -0.01184659 -0.013894079 0.05360156 0.05402574 -0.06139464 0.054578908
-0.050254337 -0.008764911 -0.011816999 0.043797467 0.056746367 0.022347815 -0.032464437 0.032168232
-0.050317362 0.007616967 -0.02329427 0.057964236 -0.009068815 -0.013889139 -0.046917833 -0.04026937
-0.044928826 -0.056777734 0.0006158156 -0.018830758 -0.059026275 0.024667194 0.05164489 0.05154258
-0.061030157 0.053849168 0.009815626 0.052239813 -0.05224768 -0.007467173 0.05508758 -0.0075756214
0.037676178 0.034445114 0.05883695 -0.020743228 -0.047606647 -0.05048944 -0.020123243 0.05809717
0.048588037 0.023707166 -0.014156179 0.053501546 -0.01068525 -0.0091045275 -0.051058844 -0.05299387
-0.055294894 -0.05922238 0.01903566 -0.027989151 -0.05453486 0.023389637 0.027185947 -0.015077232
-0.027515493 0.056363285 -0.042019002 0.031290516 -0.05836757 0.02614288 0.05656022 0.052494347
-0.019382328 -0.013347981 0.03844504 -0.04558741 0.015994743 -0.042637385 0.023358243 0.0525641
0.061808743 -0.0048785335 -0.036118947 -0.0010755658 0.04264482 -0.008880759 0.0005175993 0.061997462
-0.03243246 0.0150097385 -0.0043695145 -0.008390712 0.03997691 -0.046006583 -0.062926054 -0.036959976
0.011750824 0.009744011 -0.008319005 -0.048069604 0.021938993 0.026962444 0.03722781 -0.049122743
-0.027169675 -0.043385267 0.03512021 0.0064833537 0.004760571 -0.047154643 -0.047799066 -0.045283526
-0.009251289 0.0019478217 -0.044185326 0.0073481426 -0.04779979 -0.054397434 0.05023431 -0.03796019
0.015854517 0.031792942 -0.013989191 -0.056321166 -0.048274692 -0.060254253 0.011389071 -0.002071835
0.003248957 0.045750573 -0.041765682 0.00095609576 0.011500122 0.030644834 -0.049602065 0.01687855
-0.023242945 0.03535751 -0.026940202 0.021804288 0.006711185 0.03264512 0.033156417 0.040288564

layers.2.bias f4 [128]
00000000: cec6 9fbb f6ad 43bd 0330 64bd 939b 773c
00000010: 4fe9 d93b 7fce 38bd 1262 393d b452 04bd
00000020: 1f20 323d c76d 71bd 46bd 163d 4026 d9bc
00000030: 2b51 8c3c efb0 1a3c 92f3 d5bc 6faf b43c
00000040: a19d 1dbc 5a70 ce3c 1383 6ebd 379c 71bd
00000050: 54ab 8f3d 43b6 bb3c 3e3b c23c 75f4 563d
00000060: f89c 3e3c b563 e33b 4e54 e13c 6cd4 2b3c
00000070: d8cc c2bc a919 5f3d 036d 3e3b f0ae 2cbc
00000080: 9ad4 a93c 66cb a9bb 219b 7f3d 8c9b 513d
00000090: d837 02bd be9a 683c 106b 7f3c c9a0 5b3b
000000a0: 2904 93bc bbfd 66bd 9d84 423d c0a6 5a3d
000000b0: 2243 763d 0a03 61bd d482 353d e830 c53b
000000c0: fa45 9fbc ae4f 393c 3955 55bd 6fbe 923c
000000d0: 34b3 a8bc c264 1e3d dbe1 2fbd ac6f 223d
000000e0: 9e0e ab3c 96dd dbbc 2e24 323d e911 6dbd
000000f0: 6ef1 74bc fe9d 6c3c 4f39 30bd 184b 1d3c
00000100: 5f03 6b3d a407 f33c 9083 3f3c d428 653d
00000110: e41e 32bd 1c92 1d3d be45 88bb 1a38 59bd
00000120: 3251 8d3d e9f5 2bbd 0e73 cf3d b266 693d
00000130: 83ca 04bd bee7 033d ec31 55bd d302 f1bb
00000140: 60bc 49bd 51aa b73c 38e7 3fbd 1017 a0bc
00000150: e737 c23d 101c 9b3c e8f0 313d 38e7 e3bc
00000160: 8c35 5fbc b204 873c 906c 39bd f9f5 37bc
00000170: e587 a0bd 566c a63c 26d6 eabc 581c 2cbd
00000180: 2610 39bd 0c4c dbbc ba52 793c 2f5e a13b
00000190: 31d2 74bd 27f9 15bc 8fe0 693d e74f eab9
000001a0: 2a3f 71bd c9ab 63bd 5136 423c ca65 093d
000001b0: 94e4 09bd 35a2 d3bc afa7 04bc 9066 d4bc
000001c0: 3f77 95bc b393 38bd 79cb 12bb dfc5 aebb
000001d0: 052f 8dbc 73f3 0f3d 58de 29bd 1259 d63c
000001e0: 9f46 593d d7d9 c5bc 45eb 27bd a573 673d
000001f0: 706a 7f3d e1e1 17bc d713 333c 2f69 67bd
-0.0048759943 -0.047773324 -0.05570985 0.015112775 0.006650127 -0.045118805 0.045259543 -0.032305434
0.043487664 -0.058942582 0.0368016 -0.026507497 0.017128548 0.009441598 -0.02611712 0.02205631
-0.009620101 0.025200058 -0.05823047 -0.05898687 0.070151 0.022914058 0.02370989 0.052479226
0.011634104 0.0069393762 0.02750602 0.010487657 -0.023779318 0.05446783 0.0029056675 -0.010539755
0.02073126 -0.0051817177 0.0624038 0.05117373 -0.031791538 0.01419705 0.0155894905 0.0033512583
-0.01794632 -0.05639432 0.04748975 0.05338168 0.060122617 -0.05493454 0.04431422 0.006017793
-0.019442547 0.011310501 -0.052083228 0.017913071 -0.020593263 0.03867031 -0.042940002 0.03965728
0.020880993 -0.026839059 0.043491535 -0.05787841 -0.014950139 0.014441965 -0.043023404 0.009600423
0.05737626 0.02966673 0.011689082 0.05594714 -0.04348649 0.03846942 -0.0041587045 -0.05303202
0.069002524 -0.041982565 0.10129367 0.056982704 -0.032419693 0.03220343 -0.052049562 -0.007355073
-0.049251914 0.02242008 -0.046851367 -0.019542247 0.09483319 0.01893428 0.043442637 -0.027820215
-0.013623606 0.016481731 -0.04526955 -0.011228078 -0.0783842 0.02031533 -0.028666567 -0.04201922
-0.045181416 -0.02676966 0.015217477 0.0049245576 -0.059770767 -0.009153641 0.05709892 -0.0004469149
-0.05889813 -0.05558375 0.01185377 0.03354434 -0.033665255 -0.025834182 -0.0080966195 -0.025927812
-0.018245338 -0.045062732 -0.0022399111 -0.0053336467 -0.017234335 0.03514428 -0.04147181 0.026165519
0.053045865 -0.024151726 -0.040995855 0.05650677 0.062357366 -0.009270162 0.010930023 -0.056496795

layers.4.weight f4 [64, 128]
00000000: 57f2 a83d 4058 a9ba aed6 c2bc 74cf a93e
00000010: 3a69 f83d 2169 1f3e ad97 88be ff64 00bc
00000020: 6c9c 17bd e5ab 223d 92f4 443d 27a3 6d3d
00000030: e3e1 bb3e 682e 7f3e 89d7 d23d 08d5 03be
00000040: f605 7abb 6750 723d 1d6d 653e 4a6c 713e
00000050: 9bc4 a73d 6959 21bc 2f06 533d 2dd8 c63d
00000060: c02f 33bc 3b0e 8d3c 05f8 173e ad9b 97bd
00000070: 940c 023d aa8c e23d 504b 223d 387e 933d
00000080: 2c1e 393d 6a60 8d3e 4610 bbbb 4763 71bd
00000090: fec9 81bd 7400 a5bc 4e07 24be 3162 f6bd
000000a0: 621b f83d f369 113e 3e8c f6bc a7ad 2c3d
000000b0: b66f baba ca5d dabd 1970 f43b addf bb3d
000000c0: 1e6d 253e f252 67bf ba63 1abd c8e7 70bd
000000d0: f08a f93c a0f4 0a3e 0821 853d c420 f93c
000000e0: baa5 523e 8902 833b 9907 cc3c 04a5 713d
000000f0: 0aec acbd 5428 60bd 97f7 86bc e2c5 c03d
00000100: 5a72 693d 58f0 dfbd ea43 83bd eeab 4e3b
00000110: 9215 f7bd 0e18 3c3d 3685 02be 20c9 5ebb
00000120: 8aaf b53d d8c4 1e3d 3cfd 553d 26ee 393d
00000130: 86fb 953e 3331 49bf 82f0 153d 0d6b a73d
00000140: a2ca 563d 23e7 cdbc 5060 cbbc 5943 8c3d
00000150: 0c36 683d 81dc 963d a882 153e 9bed 60be
00000160: 901e adbd f438 7fbc 4c13 d53c 6698 32bd
00000170: d64c 82be 838b 34bf 9193 62bc 2ea7 89bd
00000180: e8c0 61bd 7561 22bf 6abd 113e e580 90be
00000190: 4d1b 2bbf 57e3 023d c28a 773e 49f3 913c
000001a0: 8db4 7ebf 4536 8bbc 1c9e 77bd 3a69 0a3e
000001b0: f877 2cbd 9421 f53d eacf 0bbd df67 c33e
000001c0: fa6d 3abe b284 e53d 7080 183e d4be 103d
000001d0: 59a3 763e 3fd7 2dbd a066 2abb 7fd5 973d
000001e0: 38b1 123e e269 36bd 4022 e4be d7ca f33c
000001f0: 0469 e03d 0c2f d73d e081 ffbc e282 563d
00000200: c2cc 193d 7b79 a83d be76 8dbd 8154 a63e
00000210: 0209 803d 2273 db3d 9063 97be 3a89 023b
00000220: c9ae 43bd 1705 edbd 5f2a a03d 2ddf cc3d
00000230: 119f 743e 2cf7 ec3d 3625 ab3d 72d7 9bbd
00000240: a672 88bc 83f8 9c3c b632 933e 9118 083e
00000250: 7076 833d bf8e 4fbd 2dd2 503e 72d9 c83d
00000260: 53b6 953d 4e82 adbd 718b f03d d510 08be
00000270: 6bcc 8f3d f48a 193e b604 b63b 9cc8 e03d
00000280: 927c 79bd 699f 623e d7fb 43bd bc72 693d
00000290: 1a66 6f3d ba2e 17bd 7a69 58be 7f38 f9bc
000002a0: 6d64 4b3e ec42 053e 0613 2abd d109 48bc
000002b0: 30f5 69bd 3c5a 313c fbc1 b23c ac05 1e3e
000002c0: 3dc9 323e d913 4bbf 12cd 873d 1794 8fbd
000002d0: 166f 723d 344a 433e d9a1 a3bc 3811 6dbd
000002e0: 99ce 1e3e bf09 b73c 8b9a 013e 98e4 833d
000002f0: 5ca6 623b c977 873d d74f 8ebd aedb e13d
00000300: 17da ad3d 101d c2bd 5c13 a4bd 4c77 cf3c
00000310: c700 0abe 8739 933d 19b1 203d 79bf ca3d
00000320: 0cf1 ac3d 6629 a5ba 2c8f dc3d 803d e83c
00000330: fd0c be3e a5cb 2ebf 2925 933d 7eaf b4bc
00000340: def3 063d 8ff8 5f3b 00db dd39 ac26 b0bc
00000350: 3ca5 a63c b6b1 79bd 2ce8 c73d 6045 b1be
00000360: 33d2 a5bd b9df a53d fc4b 5abd 67c4 a53d
00000370: c99a 9abe cfad 3bbf 79be 23bd 1054 e63b
00000380: 2c60 f33c 3e4b 29bf 3161 163e 8eb5 9cbe
00000390: bdbd 21bf eac7 003d e2f0 873e db8d 4fbd
000003a0: 7de1 71bf 056f 2d3c 7f59 073c 88ce 2a3d
000003b0: e1cc 31bd cd98 523e d046 83bd 58ab c33e
000003c0: d33c 51be 0ccf 9e3d 2ad9 e33d 59d6 ff3d
000003d0: 0e02 223e 246e c5bb 183e 723c 784b 563d
000003e0: ac35 053e 61f0 5fbd 534d 15bf c05d 063e
000003f0: 1ec8 043e 4c23 f43c a4c0 b33c d381 133e
0.08249348 -0.0012919977 -0.023784008 0.33166087 0.121294454 0.15567447 -0.2667822 -0.007836579
-0.03701441 0.039714713 0.048084803 0.058016922 0.36695775 0.24920046 0.10295016 -0.12874234
-0.0038150526 0.05915871 0.22404905 0.23576465 0.081917964 -0.009847977 0.05151957 0.09709201
-0.010936677 0.0172187 0.14840706 -0.0740274 0.031750277 0.11061986 0.039622605 0.07201809
0.04519479 0.2761262 -0.005708727 -0.05893257 -0.06337355 -0.020141818 -0.16018412 -0.12030447
0.12114598 0.14200573 -0.03009617 0.042157795 -0.0014223966 -0.1066242 0.007459652 0.09173522
0.16154906 -0.9036094 -0.037692763 -0.058814794 0.030461758 0.1356988 0.06500441 0.030411132
0.20571032 0.003998105 0.024905967 0.05899526 -0.084434584 -0.05472596 -0.016475482 0.09412743
0.05699382 -0.10934514 -0.06409438 0.0031535584 -0.12064661 0.045921378 -0.12746128 -0.0033994392
0.08871372 0.038761944 0.052243456 0.04539313 0.2929346 -0.785907 0.03660632 0.08174715
0.05243934 -0.025134629 -0.024826199 0.06848783 0.056692168 0.073662765 0.14600623 -0.2196564
-0.08453095 -0.0155775435 0.026010178 -0.04360237 -0.25449246 -0.7052538 -0.013829128 -0.0672134
-0.05511561 -0.6342996 0.14232412 -0.2822334 -0.6683853 0.03195509 0.24174026 0.017816203
-0.9949425 -0.016993651 -0.06045352 0.13516703 -0.0421066 0.11969295 -0.03413383 0.38165185
-0.18206015 0.1120695 0.14892745 0.035338238 0.2408575 -0.042441603 -0.002600111 0.07413768
0.14325416 -0.04453457 -0.4455738 0.029759808 0.1095753 0.1050702 -0.031189859 0.052370913
0.037548788 0.082262956 -0.06907414 0.32486346 0.06251718 0.10715319 -0.29568148 0.001991822
-0.04777411 -0.115732364 0.07820582 0.10003505 0.23888804 0.11570582 0.08356707 -0.07609452
-0.016656231 0.019161468 0.28749627 0.13290621 0.064190745 -0.050673243 0.20392676 0.098070994
0.07310166 -0.08472119 0.11745346 -0.13287671 0.070214115 0.14994413 0.005554761 0.10975763
-0.060909815 0.22131123 -0.047847595 0.056994185 0.05844698 -0.036909796 -0.21133986 -0.030422447
0.19862528 0.1301381 -0.04152205 -0.012209372 -0.057118595 0.010824736 0.021821013 0.15431851
0.17459579 -0.7932716 0.06630911 -0.07010668 0.05918797 0.19071275 -0.019974636 -0.05787775
0.15508498 0.022343514 0.1265661 0.06440085 0.0034584021 0.06614644 -0.06948822 0.11028229
0.08488863 -0.094781995 -0.08011505 0.02532544 -0.13476859 0.07188707 0.039231393 0.09899802
0.084444135 -0.0012600839 0.10769495 0.028349638 0.37119284 -0.68279487 0.07184822 -0.022056337
0.032947414 0.0034175252 0.00042315573 -0.021502815 0.020342462 -0.060960494 0.0976108 -0.3462324
-0.08096733 0.08099312 -0.05329512 0.080941014 -0.30196217 -0.73312086 -0.03997657 0.007029064
0.029708944 -0.66130435 0.14685513 -0.30607265 -0.6318014 0.031440653 0.26550967 -0.050672393
-0.9448469 0.010585551 0.008261084 0.04170087 -0.04340828 0.20566101 -0.06409991 0.38216662
-0.20433359 0.07754335 0.11125405 0.124920554 0.15821096 -0.0060250927 0.014785312 0.052318066
0.13008755 -0.054672603 -0.5832111 0.131217 0.12966964 0.029801987 0.021942444 0.14404993

layers.4.bias f4 [64]
00000000: a9fb fe3c d3f9 4cbd 1ba7 0b3d 691f 853d
00000010: 6c8f d63b ba31 463c 404b 25bc ba87 da3d
00000020: 441d d0bc 9158 88bb f6fb 30bd b05a 993d
00000030: 95ab 863d 4df0 5abc 481f 9e3c d963 e53c
00000040: e7f3 77bd 8192 603c b456 8fbd 6b36 70bd
00000050: b452 843d e9e6 113d 7b45 a83d 30e3 d53d
00000060: 82f2 bc3c 8255 1fbd 6c6a 89bd d99a b0bd
00000070: 5f3d 08bd d8df b93c e0e1 a63d 5be0 8bbd
00000080: daa7 28bd d557 9ebd f03b 15bd 40e0 a5ba
00000090: abaf 7bbd fef3 103c a5da 36bd 7c12 be3d
000000a0: ee30 09bd f0db 0a3c b1fe 903d 48f4 c83d
000000b0: 8983 943d 6827 a8bc a456 01bd f1fb 8ebd
000000c0: 421d f83c 21d5 973d 9d07 343d 3e07 573d
000000d0: 6829 cc3c 6671 8eba 9e1e 8c3a 88bb 37bc
000000e0: a917 e5bc 8305 c3bb e3d5 6a3d 43c6 e63d
000000f0: c01d 95bd 6f05 50bc 4900 643d e031 4d3d
0.03112586 -0.05004294 0.03409491 0.06500132 0.006547859 0.012096817 -0.010088742 0.10670419
-0.02540458 -0.0041609486 -0.04320904 0.074880004 0.065756954 -0.013362956 0.019302025 0.028001713
-0.060535338 0.013706804 -0.06998959 -0.058645647 0.06461087 0.035620604 0.08216377 0.10443723
0.023064855 -0.038899906 -0.067097515 -0.08623285 -0.033261653 0.022689745 0.08148551 -0.06829902
-0.0411757 -0.077315964 -0.036434114 -0.0012655333 -0.061446827 0.008847235 -0.04464211 0.09280869
-0.03349393 0.008475289 0.070798285 0.09812218 0.07251651 -0.020526603 -0.031576768 -0.06981648
0.030287389 0.07413698 0.043952573 0.05249714 0.024922088 -0.0010867536 0.0010690277 -0.0112141445
-0.027965384 -0.005951585 0.057332885 0.11268284 -0.07281065 -0.012696608 0.055664334 0.050096393

layers.6.weight f4 [1, 64]
00000000: b2f4 87be f2f5 9ebe 35ee 383e 5f5d 133e
00000010: 4ec0 70be 5cec 6dbe 7891 b5bd 1a25 84be
00000020: 409d 6bbd 04ac 3e3e de46 ccbd 9b24 403e
00000030: 3f1f a33d 279f 703e b04d cfbc bf7a 9dbe
00000040: 64b7 b83d c8df 653e 5f53 5f3e d9d2 2bbe
00000050: 58af 863e 66a7 70be 2097 b73e 969f 8fbe
00000060: be0d 90be 23f0 74be ad89 073e 9a37 be3d
00000070: 9445 863e 5554 6a3e 2569 2f3e d4e6 133d
00000080: cbc7 84be 3a90 96bc d9b9 65bd 003c 37bb
00000090: a550 9f3e 21cc 63bd e9d6 8a3e 7391 5abe
000000a0: 5f8d da3c f6b7 843e 7699 3b3e eb78 41be
000000b0: 7fc5 94be 7c67 f73d dff5 0f3e 8c3b 633e
000000c0: fec3 993e 3f5e 85be 3df7 603e 0e0c 853e
000000d0: 233b 5f3e 0e29 6e3e 7fe2 72be e4ad 9abe
000000e0: 8b28 2a3e 17d9 e3be 774a 263e 381d 6bbe
000000f0: 3015 223e ce0c 8e3e b10f 3cbe 95d0 863e
-0.26553875 -0.31047016 0.18059619 0.14391087 -0.23510858 -0.23234695 -0.088656366 -0.25809556
-0.057523012 0.18620306 -0.09974454 0.18763964 0.07964944 0.23498212 -0.025305599 -0.3075771
0.09019354 0.22448647 0.21809147 -0.16779651 0.26305652 -0.23501357 0.35857487 -0.28051442
-0.28135484 -0.2391973 0.13236113 0.09287949 0.2622496 0.22883733 0.17129953 0.036108807
-0.2593368 -0.01837932 -0.05608544 -0.0027959347 0.31116214 -0.055614594 0.27117088 -0.21344547
0.02667874 0.259216 0.1832026 -0.18893783 -0.29056928 0.12080285 0.14058636 0.22190684
0.30032343 -0.26048467 0.21969314 0.2598576 0.21799903 0.23257849 -0.23719214 -0.30210793
0.16617028 -0.44501564 0.16239344 -0.22960365 0.15828395 0.27744144 -0.18365361 0.2633101
