best_model.pth (torch, 186724 bytes, 7 tensors)

layers.0.weight f4 [256, 17]
00000000: 395e 2e3e 4354 bd3d 6031 c93c 8fd8 15bc
00000010: 9847 2fbd c014 4b3e aa75 3a3e c9d0 373e
00000020: 88b3 21be 0aff 5cbe b21c 643e e80d 12be
00000030: 3f5b f93d 74a1 16bb 1e3d f93c 6efb 083e
00000040: dae8 bc3d bfae ff3d f491 1b3e 4e04 893d
00000050: f999 943e 3f1b 1cbe 6639 f33d 3b68 4e3d
00000060: 140f 023e 85b0 3b3e a290 4b3e 1d0d 973b
00000070: 9356 d53c c5e0 973d b108 28be 2e96 32be
00000080: c790 44be a4db 8fbd 5c6e 4b3d 659c 08bd
00000090: 9945 20be a699 173e 93c1 173e bb1d e63d
000000a0: 69fd 14be 2e3b a13d 8140 54be fa4e 933d
000000b0: c8fb 0b3e 28f4 d1bd 2724 283e a6d0 cbbd
000000c0: 2544 1dbd abb3 44bb f8b7 963e 7bd9 1cbe
000000d0: 2fdd 72be 2bdc f1bd e3b0 8d3e 3318 67bd
000000e0: 69c7 a83d 06ea dc3d 409f 043e 156d d1bd
000000f0: a4aa 19be 2de4 033e 1626 00be d318 d9bc
00000100: e2de cf3d db28 7dbc 640f c73c f989 993e
00000110: 9015 043e 4622 88bd 5e59 d83d 8b8a 8c3d
00000120: 5860 213e 5d69 0dbe a023 803e 456d 6d3e
00000130: 67d6 803d 8401 28be c337 84bd 2e7d 27be
00000140: cd62 253e 5967 df3d 7d9f e3bd 9449 03be
00000150: cd98 2fbf 490c 14be 9e6e 743e e8b2 1cbe
00000160: 9656 acbd a9c8 83bd 5bae 813e cb33 2e3e
00000170: f476 183e 5297 973d 7060 573d 5ab4 b6bd
00000180: 2ad5 b2bc 1dd7 fa3d c44d 61be f971 073e
00000190: 01ae 1fbe 8a56 cfbd d859 033d 56f3 6fbe
000001a0: ee42 543e 2ca0 643e f01f 44bd 806a 80bb
000001b0: f8cf 7f3d 7a09 4b3e 5232 193e c69c 563e
000001c0: 1c43 de3d 526a 123e 40ec f6bc 343d e6bd
000001d0: d853 1bbe e10a 3abe 08a5 ffbc e4e9 37bd
000001e0: 3a7a 5e3e fa7a 13bd f436 403e da1e f6bd
000001f0: 0c9d 1ebe c3c5 203e 119f 123e d630 3a3d
00000200: 6b0d 463e d4ba 7a3d a638 6ebd 7d02 2abe
00000210: 221b 663c 8aa7 ed3d 39b8 4e3e dba1 64be
00000220: a6cb d3bd 364d 5ebd 8477 143e a4e8 44be
00000230: 150e d43d 8d55 a83d dcd5 febd e640 7abe
00000240: c0ad 743e b3ed f23d dcc7 f23d b30e 63be
00000250: 3092 a03d b087 793a e647 0b3e 27b7 563e
00000260: 22ce 953d 50fa 0a3d 50be dabc 340a d8bd
00000270: f0ff 33bc 14cc cfbd 9250 a2bd 3cec 77bd
00000280: 8031 4c3d 9c68 c53d 185f 28bd 7ed5 613e
00000290: b35d 14be 9ee7 bdbd 38b2 13bd 348a 253e
000002a0: 185d c3bc 7fbe 43be f0f9 f9bc 906a 34bc
000002b0: a59b 76be d071 81bc ec3b 44bd 2066 c6bb
000002c0: 10cf 363d f0ff 17be 9e0f 0cbe f4a5 5abe
000002d0: a842 80bc e05b 243d b8a7 1c3d d5b2 03be
000002e0: 48ae 5d3d 1072 e5bc 9c54 08be 6760 6d3c
000002f0: 8f55 173e 0ffb 80bd 92dc 9e3d ed22 8f3e
00000300: 6498 033e c1e3 09bd f450 b83d a884 d6bd
00000310: 2756 d2bd 5067 4dbe 021a 9fbd 6426 56be
00000320: 2c94 883d 85ba f6bd 6780 1c3e 493c b73e
00000330: 94a1 863e d6dc 283c f705 053e 3896 1bbe
00000340: 0edc fabc b814 83bd c3a3 633e 37a1 2abe
00000350: b131 063e 940f bc3d 2865 57be 7872 503e
00000360: ab77 5dbe f3fb 29be d888 153e fe7b 533d
00000370: 7d9d 573e 79bd 663c df45 463e 58a5 9ebc
00000380: 5ae9 183e f6c8 993d fd43 b23b 8b7d 37be
00000390: c33d 2bbe eb05 813e 48c4 06be 4ebd 6f3e
000003a0: 3244 83be c8e5 c93c 97b9 cd3c b7ee 61be
000003b0: 80c8 dbbd 42c7 913e 0b68 cebd cb96 63be
000003c0: 0aa2 e73d f37d 53be 7782 b43d 11d9 313e
000003d0: f1ea 20be aa19 1cbd f355 4bbd 61e7 d53d
000003e0: c7fc dbbc a3ba e13d ab2e 823d 9544 4abe
000003f0: f808 d8bc 602b 40be a831 233e 5ac8 163e
0.1702813 0.09244587 0.024559677 -0.00914587 -0.042792886 0.19832134 0.18208948 0.17950739
-0.15791142 -0.21581665 0.22276571 -0.14263117 0.12175607 -0.0022984417 0.03042465 0.13377163
0.092241004 0.12484502 0.15192395 0.06690274 0.29023722 -0.15244769 0.11876182 0.05039237
0.12701064 0.18329056 0.19879392 0.0046097175 0.026042258 0.07415918 -0.16409566 -0.17440102
-0.19195853 -0.07024315 0.049665794 -0.033352274 -0.1565155 0.14804706 0.14819936 0.112361394
-0.14549793 0.07872616 -0.20727731 0.07192798 0.13670266 -0.10251647 0.16420041 -0.09951906
-0.038395066 -0.0030014317 0.29437232 -0.15317337 -0.23717187 -0.11809572 0.27674016 -0.056419563
0.082411595 0.10786824 0.12951374 -0.10225884 -0.150065 0.12880011 -0.12514529 -0.026501095
0.101499334 -0.015451635 0.024299331 0.29988077 0.1289885 -0.06647162 0.105639204 0.068623625
0.15759408 -0.13809724 0.2502718 0.23186214 0.06290894 -0.16406828 -0.06455948 -0.16356346
0.16150971 0.10908384 -0.11114404 -0.12821037 -0.6859253 -0.14457811 0.23870322 -0.15302622
-0.084149525 -0.06434757 0.25328335 0.17011945 0.14889127 0.07401909 0.052582204 -0.08921118
-0.02183016 0.12248061 -0.22002321 0.13227071 -0.15593721 -0.10123928 0.032068104 -0.23432669
0.20728657 0.22326726 -0.04788202 -0.003918946 0.062454194 0.19827834 0.14960602 0.20958242
0.10852644 0.1429837 -0.03014195 -0.11242142 -0.15168703 -0.18168212 -0.031206623 -0.04490079
0.21726313 -0.03600595 0.18770963 -0.12017603 -0.15489596 0.1570044 0.14318492 0.04545673
0.19341056 0.06121333 -0.058159493 -0.16602512 0.014044555 0.11604221 0.20187463 -0.22327368
-0.10341577 -0.054272853 0.14498717 -0.1922937 0.103542484 0.082194425 -0.12443134 -0.2443882
0.23894405 0.11861744 0.118545264 -0.22173576 0.07840383 0.0009518815 0.13601646 0.20968305
0.07314707 0.033930123 -0.026702076 -0.10548821 -0.010986313 -0.10146347 -0.07925524 -0.060528025
0.049851894 0.09639093 -0.041106313 0.22054097 -0.14488868 -0.09272693 -0.036058635 0.16166002
-0.023848101 -0.19115637 -0.030514687 -0.011011735 -0.24082811 -0.01580134 -0.04790871 -0.0060546547
0.044631064 -0.14843726 -0.13677832 -0.21352369 -0.015656784 0.04012668 0.038245887 -0.12861188
0.054121286 -0.02800849 -0.13313526 0.014488316 0.14778732 -0.062978856 0.07756914 0.27956334
0.12851101 -0.03366447 0.089998156 -0.10474521 -0.102703385 -0.20058942 -0.077686325 -0.20913082
0.066688865 -0.120472945 0.15283357 0.3578818 0.2629515 0.010306558 0.12990557 -0.15194023
-0.030622508 -0.06400436 0.22230439 -0.16663061 0.13104893 0.09182659 -0.21034682 0.20356166
-0.21627681 -0.16600017 0.14602983 0.05163192 0.21056171 0.01408326 0.19362591 -0.019365951
0.14932767 0.075090334 0.0054402337 -0.17918985 -0.16722779 0.25199828 -0.13160813 0.23412058
-0.25637966 0.024645701 0.02511291 -0.22063719 -0.10731602 0.28472334 -0.10078438 -0.22225492
0.113102034 -0.20653515 0.08813947 0.1736796 -0.15714623 -0.038110413 -0.049642514 0.10444523
-0.026853932 0.11021926 0.063565575 -0.19752724 -0.026371464 -0.18766546 0.15936911 0.14724866

layers.0.bias f4 [256]
00000000: 9479 23bd cb03 a53d edf9 f13d 5b8d 993c
00000010: 2281 b63d 59d1 f5bd 0d36 42be dccd 543e
00000020: cb5b 31be 68d2 f7bd 6821 d1bd 2134 bd3d
00000030: 4fd2 5ebd 3110 96bc 470b 243e d3d2 193e
00000040: a0f4 0f3c 0c57 623e c100 713d c1a9 44be
00000050: b074 c4bd 25b1 43bd 4570 dabd ceeb 0fbe
00000060: 938a 23be 11af 193e 07f8 183d 54ad 5d3e
00000070: 4178 1b3e 902e 0ebd 5e5f 2a3e 3c6e 9a3d
00000080: c80e 573e 786d 753e 97a2 c6bb d9bd b83d
00000090: ec3c 40be 3fc8 dd3c b71f 663d 4405 44be
000000a0: f3ef 6fbe 5e8a 23bd 4a6c 53be 6bcd 2b3e
000000b0: b6e6 b73d 04c5 1f3e 2a37 a53d c32d 76bd
000000c0: 754c 113b efc2 4fbb 8935 92bd 98ed d93d
000000d0: f4b4 d73d 3a15 20bd 44ce 293e ad53 2e3e
000000e0: 2c26 e13c 3049 b6bd ea49 5fbe 85cd e0bc
000000f0: c5de 6cbd 1741 073e c106 73be 6d65 553e
00000100: 0b45 21bb 0e15 5e3d 0efe 28be 1f81 99bd
00000110: ea82 1f3e c98f 51be d549 343e 2153 daba
00000120: 2995 48be 70a0 55be aa85 eabd 6f10 553e
00000130: 2a22 3f3e a8e6 aebd c542 6fbe a76d 8f3d
00000140: ed7f 433c 5844 0ebe 87bf 72bd 2d90 1a3e
00000150: ef2b b93d 21b4 ee3d d438 cc3d 2d9f 793e
00000160: 3c7c 73bd aa66 29be fe39 033d 368d 10be
00000170: 8bb0 633e 9653 92ba 74b1 283e 0839 7d3d
00000180: c770 9dbd e6e8 463e d794 8bbd d176 013e
00000190: ef47 123e bc5b 0bbe 0b61 3ebe f9b7 ac3d
000001a0: 7160 073e 2500 05be 53d4 663e 756a 38be
000001b0: c010 673e 0c66 093e 8ba2 04be c05f 49bb
000001c0: 496d 28be d8a9 4cba 0b8f 0cbc ca0d 19be
000001d0: 03f5 be3c 2a4a 8ebc 11ee 5bbe e440 013d
000001e0: 3825 8b3d 08fc 2fbe 2dd9 65be c025 603e
000001f0: 3530 2dbe 13e6 e4bd 8824 49be df63 563e
00000200: 290b 20be 7c8a 81bd f97d 69be 0fb7 dc3c
00000210: 2411 ba3d eb47 73be f6e7 3d3d 7781 9a3c
00000220: ca9c 38be a4db b93d 4f71 1dbd 1482 f63d
00000230: b515 523e 08a8 b8bb 866e f0bd da3d 6dbe
00000240: b724 35be 103c 4fbd 8b76 3abe 7dd1 02bd
00000250: f115 05be f0a1 2abe 20ad 393d 40ea 513d
00000260: b63e 633e 7ae1 093e d715 da3d 3b53 c8bc
00000270: 0c21 493e 7a12 54be e26a c2bd c073 a73d
00000280: 485a 5bbe e913 b1bc 51e1 783d 4a4f 49be
00000290: 5a26 12be 964d 6f3e a3ea 67be c6f3 fa3d
000002a0: c4f0 13be 22e5 463e 6721 12bc c0a3 d4bd
000002b0: 8814 f3bc 8e73 37be c920 c2bb 4c0a 083d
000002c0: 0136 6fbe 3248 783e fa90 69be 7e68 8e3d
000002d0: 4c65 d33d b7f5 54be ad81 97ba b6de 073e
000002e0: 8f37 2fbe e002 1ebe bbb9 f4bd a6ff 3bbe
000002f0: 66b9 44bd 4d03 3ebe 1c45 753e a4d5 63be
00000300: 20f4 563e 4d3c 13be 2124 20be 51b3 af3d
00000310: 8719 08be ee22 193e b98b 02be da46 8fbd
00000320: 97fa 9dbd c13b 2c3d 236f edbc 59e1 7c3c
00000330: 701c 3bbe 612a 033e ed8a 803e c274 53be
00000340: bc3f 723e 8ffa db3d c20d 573e e85a a5bd
00000350: e379 8cbd dafb fc3d c7fd c3bd 34ba 1abe
00000360: f6e3 423e c60c 3abe 7030 be3d 6659 a8bd
00000370: 66eb 9ebc 7828 a73d 1626 64be 1ad9 fa3d
00000380: 05a4 e9bd d98a 2abe 7d89 71be d2c7 3ebe
00000390: 4044 053d 3fb5 65be 5401 043e e006 693e
000003a0: eae8 9abd e5ef edbd 617d ba3d ad02 07bd
000003b0: cfaa 863d 4edc 14be 4c2c 13bb 5a5e f63d
000003c0: 04e9 e7bc 27fa b53c bd97 853c 77e4 f8bb
000003d0: 077d 0a3c de45 e0bd 1426 a73c 56f9 cdbd
000003e0: 1599 f83d e95f 353e e140 333e 1157 64be
000003f0: 7d9f 3fbe 9594 6b3e 4432 2dbe 37cc d1bb
-0.039910868 0.08057364 0.11815248 0.018744161 0.08911349 -0.120028205 -0.18965931 0.20781654
-0.17320172 -0.12100679 -0.1021145 0.092384584 -0.054399785 -0.018318268 0.16019927 0.1502183
0.0087863505 0.22103518 0.05883861 -0.19205381 -0.09592569 -0.04777636 -0.10665945 -0.14054796
-0.1597083 0.15008189 0.037345912 0.2164815 0.15182592 -0.034712374 0.16637942 0.07540557
0.21001732 0.2396754 -0.0060618627 0.090205856 -0.1877324 0.027073024 0.05618259 -0.19142634
-0.23431377 -0.03992688 -0.20646778 0.1677758 0.089795515 0.15602499 0.08067162 -0.060102236
0.0022170816 -0.0031701883 -0.07139117 0.106410205 0.10532561 -0.039082743 0.1658259 0.17024107
0.027484022 -0.08900678 -0.2180554 -0.02744175 -0.057829637 0.13208424 -0.23733045 0.20839472
-0.0024607803 0.054219298 -0.16503164 -0.07495331 0.15577284 -0.20465006 0.1760629 -0.0016656854
-0.1958815 -0.20861983 -0.11451276 0.2080705 0.18665376 -0.08540088 -0.23365314 0.070033364
0.011932355 -0.13893259 -0.059264686 0.15094061 0.09041583 0.116554506 0.099717766 0.24377127
-0.05944465 -0.1654307 0.032037728 -0.14116368 0.22235315 -0.0011163827 0.16473943 0.061821967
-0.07687526 0.19424781 -0.06815498 0.12642981 0.14285253 -0.13609213 -0.18591706 0.084335275
0.13220383 -0.12988336 0.22541933 -0.1800936 0.22564983 0.13417834 -0.1295263 -0.0030727237
-0.16447939 -0.0007807291 -0.008579026 -0.14946666 0.02331019 -0.017369349 -0.21477534 0.031556025
0.06794208 -0.17185986 -0.22446127 0.218894 -0.16912921 -0.11176696 -0.19642842 0.20936535
-0.15629257 -0.06325242 -0.22801961 0.026942758 0.090853006 -0.23757903 0.046363793 0.018860562
-0.1802856 0.09075096 -0.038438138 0.12036529 0.20516093 -0.0056352653 -0.11739831 -0.23168126
-0.17689787 -0.05059439 -0.18209283 -0.031938065 -0.12996651 -0.16663337 0.04533112 0.05124879
0.22191891 0.13464919 0.10648697 -0.02445375 0.19641513 -0.20710173 -0.094930425 0.081763744
-0.21421158 -0.02161594 0.060761753 -0.19659153 -0.14272442 0.2336944 -0.226481 0.12253527
-0.14447314 0.19423345 -0.008919097 -0.10382795 -0.029672876 -0.17915174 -0.0059243185 0.033212945
-0.23360445 0.2424629 -0.2280921 0.06953524 0.10322055 -0.20796858 -0.0011559032 0.13268551
-0.17111038 -0.15430784 -0.11949488 -0.18359241 -0.048028372 -0.18555947 0.23952144 -0.22249466
0.20991564 -0.14378472 -0.15638782 0.08579124 -0.13290988 0.14954731 -0.12748612 -0.06995936
-0.07713812 0.042049173 -0.028983658 0.015434586 -0.18272567 0.12809135 0.25105992 -0.20650008
0.23657125 0.1074115 0.21001342 -0.080739796 -0.068591855 0.123527244 -0.095698886 -0.15110093
0.19032273 -0.18168935 0.092865825 -0.082201764 -0.019399356 0.08162016 -0.22280154 0.1224844
-0.11408237 -0.16654529 -0.23587604 -0.18630913 0.03253579 -0.22432421 0.12891132 0.22756529
-0.07563956 -0.11618022 0.091059454 -0.032961536 0.06575548 -0.14537165 -0.0022456823 0.12029715
-0.028309353 0.022214008 0.016307706 -0.0075955945 0.00845266 -0.10950826 0.0204039 -0.10057323
0.12138573 0.17712368 0.17505218 -0.22298838 -0.18713184 0.23005898 -0.16913706 -0.006402518

layers.2.weight f4 [128, 256]
00000000: 8026 9cbc 603b c73b 930b 4d3d d4ba 04bd
00000010: f0f2 863c e081 063d 74e1 fd3c f9bb 35bc
00000020: 97e4 adbc 7efe 713d 589b 653c 00b5 2f3c
00000030: 7414 543c 10d4 58bc f466 30bd d534 cbbb
00000040: 2cb8 113d ace3 b2bc 008c c43c 70f7 7dbd
00000050: 928e 393d 8133 7a3d 74c2 39bd 4693 32bd
00000060: 30ed 8ebc b245 bd3c 3f05 d23c 0614 4d3d
00000070: 7b1d 34bd 8058 16bb d00f f9ba dc45 a03c
00000080: 2540 1b3c b4ac 84bc 982b 2abd a43f 7cbd
00000090: 3f22 e3bc 684f bb3c ee1d 76bc 0cc1 ee3c
000000a0: 5b82 a6bc cc65 94bc 8e61 313d 509a 72bc
000000b0: cf43 f1bc 72be c4bc 7870 523d a40f 86bc
000000c0: 6851 3c3c 94f0 803c 9a38 123d 6064 263b
000000d0: 3921 3c39 fa0c f5bc b336 4dbc 8a06 3cbd
000000e0: 2a87 9e3c c0b5 763b 70b4 c6bb 6e35 17bd
000000f0: fe4f 9e3c 1c00 bc3b 6f0c f13c 52f2 b23c
00000100: 820f 80bc d0ae dc3b 0021 b13a c0da 0d3c
00000110: c81b 2bbd 603c eb3c dc53 223d 8809 543d
00000120: 054d 45bd b8ee 1f3c b270 15bd 92c1 f9ba
00000130: 32b7 793c 38a1 11bd e68f cbbc aeda 463d
00000140: 2e2a f03b 6856 48bd 7cde d2bc 12e3 ff3c
00000150: 8925 113d f0e4 6abc e765 fdbc 7631 68bd
00000160: b983 cb3c c01c 5c3d 0114 023d 747f 64bd
00000170: 6887 5bbd c151 5dbd acb6 db3c 1870 2f3b
00000180: 5499 d63c 94b9 17bc 0485 d8bc 5222 6abd
00000190: 9e0f 8cbc dcc8 8b3c b47d 2a3d 4629 3cbd
000001a0: cdc7 773c 32e8 33bd ee00 9ebc 13e0 19bc
000001b0: fce1 9e3c e49d 88bc dad2 6d3d 3dc8 73bb
000001c0: ec8f 8b3c 8ff6 8f3c 3318 42bc fea3 63bc
000001d0: 4f8d 5b3d 184a 5d3d f278 7bbd 228e 5f3d
000001e0: 7ed7 4dbd b49a 0fbc 169c 41bc f964 333d
000001f0: e16e 683d c412 b73c 6ef9 04bd d6c2 033d
00000200: 9419 4ebd c097 f93b a0d3 bebc e86b 6d3d
00000210: 5e95 14bc 458f 63bc ea2c 40bd 7ff1 24bd
00000220: 4a07 38bd c58f 68bd af6e 213a f642 9abc
00000230: 89c5 71bd db12 ca3c 9889 533d 501e 533d
00000240: c2fa 79bd f290 5c3d b8d1 203c 6af9 553d
00000250: aa01 56bd 30af f4bb 84a3 613d eb3c f8bb
00000260: 5652 1a3d 5216 0d3d 04ff 703d b4ed a9bc
00000270: 30ff 42bd 04ce 4ebd 80d9 a4bc 4cf7 6d3d
00000280: 4004 473d 8835 c23c 51ef 67bc 7024 5b3d
00000290: 3011 2fbc 282b 15bc 1423 51bd 1a10 59bd
000002a0: e67c 62bd 2b93 72bd acf0 9b3c 8149 e5bc
000002b0: f25f 5fbd a09b bf3c 10b5 de3c 7f06 77bc
000002c0: 2c68 e1bc 30dd 663d 1e1c 2cbd 7c2a 003d
000002d0: d512 6fbd 9829 d63c b0ab 673d 5004 573d
000002e0: b0c7 9ebc 7db1 5abc 8c78 1d3d ddb9 3abd
000002f0: 6807 833c 8aa4 2ebd c959 bf3c 744d 573d
00000300: 2a2b 7d3d 1bdc 9fbb 76f1 13bd 00fa 8cba
00000310: 56ac 2e3d 9a80 11bc 80af 073a 0df1 7d3d
00000320: e6d7 04bd 68eb 753c 252e 8fbb 3279 09bc
00000330: d4be 233d 6671 3cbd 60df 80bd 5863 17bd
00000340: 8786 403c 58a5 1f3c 704c 08bc a2e4 44bd
00000350: 67b9 b33c 58e0 dc3c 307c 183d ee34 49bd
00000360: f092 debc c0b4 31bd 36da 0f3d 5072 d43b
00000370: 90fe 9b3b 3a25 41bd f4c8 43bd 387b 39bd
00000380: b892 17bc 0d4e ff3a acfb 34bd b0c8 f03b
00000390: b6c9 43bd d8cf 5ebd 7ec2 4d3d 257c 1bbd
000003a0: 55e1 813c 5139 023d eb32 65bc 06b1 66bd
000003b0: afbb 45bd 2acd 76bd 3a99 3a3c a0c7 07bb
000003c0: 74ec 543b f464 3b3d 7e12 2bbd 80a2 7a3a
000003d0: 026b 3c3c e00a fb3c 892b 4bbd e344 8a3c
000003e0: fd67 bebc 09d3 103d b3b1 dcbc e89e b23c
000003f0: 80e9 db3b e4b6 053d 06cf 073d 9f05 253d
-0.019061327 0.006080076 0.050059866 -0.032404736 0.016473264 0.032838702 0.030991293 -0.011092179
-0.021227164 0.059080593 0.014014088 0.010724306 0.0129443295 -0.013234153 -0.043066934 -0.0062013664
0.03557603 -0.021837078 0.023992538 -0.062003553 0.04530198 0.061084274 -0.04535146 -0.043597482
-0.017447084 0.023104522 0.025637267 0.050067924 -0.043973427 -0.0022940934 -0.0019001905 0.019564562
0.0094757425 -0.016195633 -0.04154548 -0.06158413 -0.02772629 0.022865012 -0.015021784 0.029144786
-0.02032583 -0.018114947 0.043305926 -0.014807299 -0.029451279 -0.024016593 0.05137679 -0.01636488
0.011494018 0.015739717 0.03569851 0.0025389418 0.00017941454 -0.029913414 -0.012525248 -0.045904674
0.01935156 0.0037644953 -0.0060639903 -0.03691619 0.019325253 0.0057373177 0.029424874 0.021844063
-0.015632395 0.0067347065 0.0013513863 0.008658111 -0.04177454 0.028715312 0.039630756 0.051766902
-0.048169155 0.009761505 -0.036484428 -0.0019054881 0.015241431 -0.03555414 -0.02484889 0.048548393
0.007329247 -0.04891053 -0.025740854 0.031236205 0.035436187 -0.0143368095 -0.03093238 -0.056687795
0.024843084 0.053738356 0.03175736 -0.05578561 -0.05359593 -0.054033045 0.026820503 0.0026769694
0.02619616 -0.009260554 -0.026430614 -0.057161637 -0.01709729 0.01706355 0.041623786 -0.0459378
0.01512332 -0.04392261 -0.019287553 -0.009391802 0.019394867 -0.01667685 0.05806241 -0.0037198209
0.0170364 0.017573623 -0.01184659 -0.013894079 0.05360156 0.05402574 -0.06139464 0.054578908
-0.050254337 -0.008764911 -0.011816999 0.043797467 0.056746367 0.022347815 -0.032464437 0.032168232
-0.050317362 0.007616967 -0.02329427 0.057964236 -0.009068815 -0.013889139 -0.046917833 -0.04026937
-0.044928826 -0.056777734 0.0006158156 -0.018830758 -0.059026275 0.024667194 0.05164489 0.05154258
-0.061030157 0.053849168 0.009815626 0.052239813 -0.05224768 -0.007467173 0.05508758 -0.0075756214
0.037676178 0.034445114 0.05883695 -0.020743228 -0.047606647 -0.05048944 -0.020123243 0.05809717
0.048588037 0.023707166 -0.014156179 0.053501546 -0.01068525 -0.0091045275 -0.051058844 -0.05299387
-0.055294894 -0.05922238 0.01903566 -0.027989151 -0.05453486 0.023389637 0.027185947 -0.015077232
-0.027515493 0.056363285 -0.042019002 0.031290516 -0.05836757 0.02614288 0.05656022 0.052494347
-0.019382328 -0.013347981 0.03844504 -0.04558741 0.015994743 -0.042637385 0.023358243 0.0525641
0.061808743 -0.0048785335 -0.036118947 -0.0010755658 0.04264482 -0.008880759 0.0005175993 0.061997462
-0.03243246 0.0150097385 -0.0043695145 -0.008390712 0.03997691 -0.046006583 -0.062926054 -0.036959976
0.011750824 0.009744011 -0.008319005 -0.048069604 0.021938993 0.026962444 0.03722781 -0.049122743
-0.027169675 -0.043385267 0.03512021 0.0064833537 0.004760571 -0.047154643 -0.047799066 -0.045283526
-0.009251289 0.0019478217 -0.044185326 0.0073481426 -0.04779979 -0.054397434 0.05023431 -0.03796019
0.015854517 0.031792942 -0.013989191 -0.056321166 -0.048274692 -0.060254253 0.011389071 -0.002071835
0.003248957 0.045750573 -0.041765682 0.00095609576 0.011500122 0.030644834 -0.049602065 0.01687855
-0.023242945 0.03535751 -0.026940202 0.021804288 0.006711185 0.03264512 0.033156417 0.040288564

layers.2.bias f4 [128]
00000000: cec6 9fbb f6ad 43bd be13 65bd d301 833c
00000010: 0574 d43b 18f6 38bd 4841 353d 6062 03bd
00000020: 2edc 303d 5e5e 72bd 46bd 163d 1d31 d5bc
00000030: ec24 943c 8d25 203c 8e74 d0bc 8d03 b23c
00000040: c46e 22bc 8aeb ca3c 809e 6fbd 8117 73bd
00000050: 38f7 8e3d 0cac b63c 3c16 c93c 265c 563d
00000060: f89c 3e3c 6f52 cf3b fb8f e63c a357 2f3c
00000070: d8cc c2bc 9d0c 613d 036d 3e3b 06f2 2fbc
00000080: 9c42 a43c 11d2 9bbb 7f9c 7e3d 6368 513d
00000090: 1039 03bd c05d 5f3c b537 783c 84ca 4f3b
000000a0: 515b 91bc 538e 66bd 9d84 423d c0a6 5a3d
000000b0: 9d5c 753d 562e 62bd db60 353d cae4 d93b
000000c0: 76f2 99bc 036c 323c cd4c 56bd 6fbe 923c
000000d0: 34b3 a8bc fb28 203d dbe1 2fbd ac6f 223d
000000e0: 921c ad3c 2e83 ddbc 36ff 323d cb07 6ebd
000000f0: 6f71 78bc 7fa3 683c 5186 31bd 1a49 0d3c
00000100: a7b0 693d b7ce f03c 9083 3f3c 1807 643d
00000110: 5c18 34bd 547d 1c3d 9f1b 97bb f9fd 57bd
00000120: fd15 8d3d 4e38 28bd cac0 ce3d b266 693d
00000130: 4fb6 02bd 512f 033d ec31 55bd 3205 ffbb
00000140: 60bc 49bd 4acf b43c 38e7 3fbd 1017 a0bc
00000150: 011b c03d 101c 9b3c 12f5 373d 7ad0 e7bc
00000160: 8c35 5fbc b204 873c 906c 39bd f9f5 37bc
00000170: e0f8 a2bd 6f7a a63c a5ed ebbc 581c 2cbd
00000180: 2610 39bd 2965 ddbc 2e4d 753c 1eff b73b
00000190: 2d0e 77bd 27f9 15bc df61 6a3d b993 6aba
000001a0: 4830 74bd 50c1 64bd 942b 353c 61e4 093d
000001b0: 9f26 07bd 08ee d1bc 9b30 07bc c69d ccbc
000001c0: d5b1 9bbc 73e9 38bd 059f c2ba 7242 a8bb
000001d0: 6585 86bc 4f33 0f3d 58de 29bd 750c d93c
000001e0: 57c9 5b3d d7d9 c5bc 77ae 2abd 165a 653d
000001f0: bc6e 7f3d 5dae 15bc abe2 2e3c d7f2 66bd
-0.0048759943 -0.047773324 -0.05592703 0.01599208 0.006483557 -0.04515657 0.04425171 -0.03207624
0.04317873 -0.059172027 0.0368016 -0.026024396 0.018084012 0.009774578 -0.025446203 0.021730209
-0.009914104 0.024770517 -0.058500767 -0.059348587 0.06980747 0.022298835 0.024546735 0.052333973
0.011634104 0.0063269655 0.028144827 0.010702047 -0.023779318 0.05494367 0.0029056675 -0.010738855
0.020051293 -0.0047552665 0.062160965 0.05112494 -0.03203684 0.013633192 0.01515 0.0031706402
-0.017743738 -0.056288075 0.04748975 0.05338168 0.059902776 -0.05521997 0.04428182 0.0066495882
-0.018792372 0.01089001 -0.052319337 0.017913071 -0.020593263 0.039101582 -0.042940002 0.03965728
0.021131787 -0.02704009 0.04370042 -0.0581129 -0.015163763 0.014199137 -0.043340985 0.008623386
0.057053234 0.029395444 0.011689082 0.055670828 -0.043968543 0.03820546 -0.004611447 -0.05273244
0.068889596 -0.04106932 0.10095365 0.056982704 -0.031912144 0.032027546 -0.052049562 -0.0077826018
-0.049251914 0.0220715 -0.046851367 -0.019542247 0.093801506 0.01893428 0.04491145 -0.028297652
-0.013623606 0.016481731 -0.04526955 -0.011228078 -0.079576254 0.020322053 -0.028799841 -0.04201922
-0.045181416 -0.027025776 0.014972014 0.005615129 -0.060316253 -0.009153641 0.057222243 -0.0008948404
-0.059616357 -0.05584842 0.011057753 0.033665065 -0.032995816 -0.025626197 -0.008251335 -0.024977576
-0.019005695 -0.04514451 -0.0014848417 -0.005134874 -0.01642103 0.03496104 -0.04147181 0.026495198
0.05365881 -0.024151726 -0.04167029 0.055994116 0.062361464 -0.00913581 0.010674159 -0.056383934

layers.4.weight f4 [64, 128]
00000000: 57f2 a83d 4058 a9ba 6d90 bfbc 9d63 bd3e
00000010: 730e 123e 73ce 1a3e 1d33 9fbe 1a38 eabb
00000020: 4049 16bd 278e 2a3d 92f4 443d 5ac6 803d
00000030: e648 d43e 85d1 893e 3371 d73d 25e1 03be
00000040: 490f 9abb 823f 743d 61d9 773e bfab 833e
00000050: bb96 a63d c4f0 25bc a915 683d fbe5 c53d
00000060: c02f 33bc c054 9c3c ee92 163e 23b8 d9bd
00000070: 940c 023d 3235 e73d 504b 223d 8f4d 9e3d
00000080: 1048 3d3d 33c8 b23e 3cb5 c7bb b8f0 72bd
00000090: 334b 82bd 54c1 a5bc 7aa4 57be 0ea5 fbbd
000000a0: d006 103e 5707 1e3e 3e8c f6bc a7ad 2c3d
000000b0: f54e c5ba 2920 dbbd 3a94 003c 6bb8 b83d
000000c0: a9bb 373e 875e 6fbf 9a7e 18bd c8e7 70bd
000000d0: f08a f93c 9bca 123e 0821 853d c420 f93c
000000e0: 482f 633e 2cc8 7d3b 91c1 ea3c 548b 723d
000000f0: 10e1 abbd 12cc 65bd 97f7 86bc 87d5 033e
00000100: 8727 663d 6ee3 e0bd ea43 83bd 511b 1e3b
00000110: f83a f7bd 325d 3d3d 04a4 06be ecdb 8f3a
00000120: 378f b23d d27f 2c3d e236 533d 26ee 393d
00000130: f84f b23e 08af 4fbf 82f0 153d a043 a63d
00000140: a2ca 563d e38f cdbc 5060 cbbc 5943 8c3d
00000150: fafb 663d 81dc 963d a8d7 283e d85b 7abe
00000160: 901e adbd f438 7fbc 4c13 d53c 6698 32bd
00000170: a084 92be 5fe4 3bbf 23de 68bc 2ea7 89bd
00000180: e8c0 61bd 92cf 2abf 147c 243e b80d a5be
00000190: 4538 30bf 57e3 023d 8ab8 893e 2cbe 923c
000001a0: 0a14 85bf be64 8cbc b46d 78bd 1d5b 0a3e
000001b0: ad2e 8cbb 3ca0 053e 24e6 09bd 6d43 d53e
000001c0: 5e89 6dbe 7d76 e33d 15fb 283e f5d4 0b3d
000001d0: ef81 8d3e 3217 2dbd a066 2abb 4ad9 b13d
000001e0: 14c7 123e e269 36bd 9d32 f1be e190 1c3d
000001f0: c810 e03d fc65 d73d 376f 00bd ffcc 983d
00000200: c2cc 193d 7b79 a83d 2eb5 8bbd 8506 ba3e
00000210: 7e20 ac3d 3d2a d43d a30a adbe c917 4c3b
00000220: c1b8 40bd 8650 e8bd 5f2a a03d 13ab d63d
00000230: f822 913e 231f 0a3e 1abb af3d 1ba7 9bbd
00000240: 3f18 8dbc 4f6f a33c 4899 9c3e 6903 1e3e
00000250: 721f 833d 351a 4fbd 33cd 543e cdc7 c83d
00000260: 53b6 953d b7cd a8bd f4e0 ec3d 0e10 29be
00000270: 6bcc 8f3d 0023 1b3e b604 b63b d643 eb3d
00000280: ce04 71bd 6251 963e 2143 43bd 7883 693d
00000290: fa4c 703d 9b25 15bd 57f9 85be cd60 06bd
000002a0: 0777 5f3e 81e2 113e 0613 2abd d109 48bc
000002b0: f324 68bd 0ab6 333c a8f0 b83c ef8a 1c3e
000002c0: e984 443e 3ebb 52bf a8b9 893d 1794 8fbd
000002d0: 166f 723d 36b9 4a3e d9a1 a3bc 3811 6dbd
000002e0: 5b02 2f3e fd80 bc3c b047 053e c510 853d
000002f0: 130d 923b 6a02 853d d74f 8ebd b460 143e
00000300: 08f2 ac3d 5bab c2bd 5c13 a4bd a5bd cc3c
00000310: 82d0 09be 4e1e 953d a97c 123d d6a2 d33d
00000320: 15aa aa3d 5d7c 0e3b 55fe db3d 803d e83c
00000330: 3b8c da3e 38bd 34bf 2925 933d 7451 b5bc
00000340: def3 063d 339c 743b 00db dd39 ac26 b0bc
00000350: 27a0 a73c b6b1 79bd 534c ef3d f5f4 bdbe
00000360: 33d2 a5bd b9df a53d fc4b 5abd 67c4 a53d
00000370: c869 aabe 404f 42bf 2d48 23bd 1054 e63b
00000380: 2c60 f33c b31e 31bf 7c26 293e c442 b1be
00000390: fb8c 26bf eac7 003d abcf 953e 8b44 4dbd
000003a0: 2886 7cbf 053c 313c feeb 023c 9f2b 2c3d
000003b0: cb5f 2fbc 42ef 5d3e a751 81bd 3d6d d53e
000003c0: 4ba2 81be f22d 9e3d dd9d 013e e70e fe3d
000003d0: 8505 463e 5170 b0bb 183e 723c e35f 853d
000003e0: acb8 043e 61f0 5fbd a6bd 1bbf 76f3 0e3e
000003f0: 5015 053e bc08 f83c 43df b53c a358 2a3e
0.08249348 -0.0012919977 -0.023384297 0.3699006 0.14263324 0.15117817 -0.31093684 -0.007147801
-0.03669095 0.041639473 0.048084803 0.062878326 0.41461867 0.26917663 0.10519638 -0.12878855
-0.004701529 0.05963088 0.24204017 0.2571697 0.08134218 -0.010128204 0.05666128 0.09663006
-0.010936677 0.01908338 0.14704487 -0.106308244 0.031750277 0.11289443 0.039622605 0.07729637
0.046211302 0.34918365 -0.006094603 -0.0593116 -0.06361999 -0.020233788 -0.21058837 -0.12287341
0.14065099 0.15432487 -0.03009617 0.042157795 -0.0015053438 -0.106994934 0.00784784 0.0901955
0.1794268 -0.9350361 -0.03723011 -0.058814794 0.030461758 0.143351 0.06500441 0.030411132
0.22186005 0.0038724048 0.028656753 0.059214905 -0.08392537 -0.05610282 -0.016475482 0.12874423
0.05619004 -0.10980879 -0.06409438 0.0024125169 -0.12071794 0.046231456 -0.13148504 0.0010975576
0.08718722 0.042114086 0.051566012 0.04539313 0.34826636 -0.8112645 0.03660632 0.08118367
0.05243934 -0.025093025 -0.024826199 0.06848783 0.056392647 0.073662765 0.16488516 -0.24449098
-0.08453095 -0.0155775435 0.026010178 -0.04360237 -0.2861681 -0.7339534 -0.014213118 -0.0672134
-0.05511561 -0.6672298 0.16062957 -0.3223703 -0.6883586 0.03195509 0.26898605 0.017912947
-1.039674 -0.017137881 -0.060651496 0.1351132 -0.004278025 0.13049406 -0.033666745 0.41653004
-0.23196933 0.11106584 0.1650203 0.03413864 0.27638194 -0.04225845 -0.002600111 0.08684023
0.14333755 -0.04453457 -0.47108927 0.038224105 0.10940701 0.10517499 -0.031356063 0.07460975
0.037548788 0.082262956 -0.06821667 0.363331 0.08404635 0.10359619 -0.33797178 0.0031142107
-0.047051195 -0.113434836 0.07820582 0.104818486 0.28346992 0.1348844 0.08580609 -0.07600232
-0.017223476 0.019950537 0.30585694 0.15430988 0.06402482 -0.050562102 0.20781402 0.09803734
0.07310166 -0.08242362 0.11566344 -0.1651003 0.070214115 0.1515007 0.005554761 0.11487548
-0.058842473 0.29358965 -0.04767144 0.057010144 0.05866716 -0.036412816 -0.26166794 -0.03280716
0.21822749 0.1424656 -0.04152205 -0.012209372 -0.056675863 0.010968694 0.022575691 0.15287374
0.19191326 -0.8231696 0.06724864 -0.07010668 0.05918797 0.19797215 -0.019974636 -0.05787775
0.17090742 0.023010725 0.13015628 0.06497339 0.004457125 0.06494601 -0.06948822 0.14490014
0.08444601 -0.0950534 -0.08011505 0.024992773 -0.13458446 0.07281171 0.035763416 0.10333793
0.08333222 0.0021741607 0.10741869 0.028349638 0.42685112 -0.70601225 0.07184822 -0.022133566
0.032947414 0.0037324547 0.00042315573 -0.021502815 0.020462109 -0.060960494 0.116844796 -0.3710095
-0.08096733 0.08099312 -0.05329512 0.080941014 -0.3328383 -0.75902176 -0.039863754 0.007029064
0.029708944 -0.6918747 0.16518587 -0.3462125 -0.6505887 0.031440653 0.2926 -0.050114196
-0.98642206 0.010817532 0.007990835 0.042033788 -0.010703991 0.21673301 -0.06314402 0.41684905
-0.25319132 0.07723607 0.12657876 0.12405186 0.19338043 -0.005384483 0.014785312 0.065124296
0.12961072 -0.054672603 -0.60836256 0.1396006 0.12996411 0.030277602 0.022201186 0.16635375

layers.4.bias f4 [64]
00000000: 2d9d fb3c e5d9 4cbd 0183 083d 0e23 853d
00000010: 4aa4 cf3b 767a 413c 404b 25bc 714b da3d
00000020: 441d d0bc 383d 88bb 4024 32bd c7b1 983d
00000030: 27a4 863d 18fa 58bc 481f 9e3c f6b9 e33c
00000040: e7f3 77bd 1eb9 593c a153 8fbd 7964 73bd
00000050: 6460 833d 9845 123d ea0e a83d 72f3 d43d
00000060: bd14 ba3c 071b 1fbd 6259 89bd d99a b0bd
00000070: cea8 09bd 20ed b93c fce2 a63d 5be0 8bbd
00000080: 3c5c 26bd d557 9ebd f03b 15bd 40e0 a5ba
00000090: 1ced 7cbd fef3 103c 00a1 2ebd 2702 be3d
000000a0: ee30 09bd 951c 053c 5600 913d 8e54 c83d
000000b0: 611a 933d 6827 a8bc 3454 01bd ba93 8ebd
000000c0: d55c fb3c ee42 983d 4e69 303d 0daf 573d
000000d0: 7536 cf3c ba3b 8bba 41fb 2d3b ef91 3ebc
000000e0: 9077 e6bc 65e8 b9bb d66c 6a3d 131c e63d
000000f0: fe1c 95bd 5b1b 57bc f83f 633d 9378 4d3d
0.030714596 -0.050012488 0.03332806 0.06500827 0.0063367235 0.011808982 -0.010088742 0.106589206
-0.02540458 -0.0041576885 -0.043491602 0.07455783 0.06574278 -0.013243221 0.019302025 0.027798634
-0.060535338 0.013288764 -0.06998373 -0.05942199 0.064148694 0.0357109 0.0820597 0.10397996
0.022714967 -0.038844135 -0.067065015 -0.08623285 -0.03360825 0.022696078 0.081487626 -0.06829902
-0.040615305 -0.077315964 -0.036434114 -0.0012655333 -0.061749563 0.008847235 -0.04263401 0.09277754
-0.03349393 0.00812449 0.07080142 0.097817525 0.07182766 -0.020526603 -0.031574443 -0.0696177
0.030683914 0.07434641 0.043069176 0.052657176 0.025294522 -0.0010622658 0.0026547464 -0.011631473
-0.028133184 -0.0056734555 0.0572327 0.112358235 -0.072809204 -0.013129081 0.055480927 0.050163817

layers.6.weight f4 [1, 64]
00000000: 1cb5 8fbe 332e a6be ac78 4d3e bfbb 1c3e
00000010: 5821 80be bcf1 7cbe 7891 b5bd 9a6c 8bbe
00000020: 409d 6bbd 9a8e 463e 3be5 cbbd d98b 5c3e
00000030: 5eaf ab3d 4f8e 7b3e b04d cfbc d992 a4be
00000040: 64b7 b83d f4cb 803e 7338 663e d2c5 32be
00000050: d69a 923e 4318 80be 9645 c83e f10e 97be
00000060: 8c6b 97be 22d3 81be 88ab 113e 9a37 be3d
00000070: a41e 8f3e 6833 713e 05d5 353e d4e6 133d
00000080: 11f5 a5be 3a90 96bc d9b9 65bd 003c 37bb
00000090: dcc5 aa3e 21cc 63bd d613 a43e 97ec 69be
000000a0: 5f8d da3c 2b71 8f3e 725b 413e f2e1 50be
000000b0: 8726 9cbe 7c67 f73d de4e 183e 1d9b 723e
000000c0: 6bde af3e f58f 8cbe 6c85 7b3e d506 9a3e
000000d0: 8d09 823e b125 783e 392b 76be 4b4f 9cbe
000000e0: 9a45 383e 7065 0abf 25de 3a3e ba38 7abe
000000f0: e0b6 283e e865 9c3e e9bb 4abe 82c1 903e
-0.28067863 -0.32457122 0.20065564 0.15305994 -0.2502544 -0.2470159 -0.088656366 -0.27231294
-0.057523012 0.19390336 -0.099558316 0.21537723 0.08383058 0.24566005 -0.025305599 -0.32143286
0.09019354 0.25155604 0.22482471 -0.17458275 0.28633755 -0.2501851 0.3911559 -0.29503587
-0.2957424 -0.25356394 0.1422559 0.09287949 0.27953064 0.23554766 0.17757042 0.036108807
-0.32413533 -0.01837932 -0.05608544 -0.0027959347 0.3335408 -0.055614594 0.32046384 -0.22844158
0.02667874 0.28016028 0.1888254 -0.20398691 -0.30498144 0.12080285 0.14873835 0.23691984
0.3434938 -0.2745358 0.24562615 0.30083337 0.25397912 0.24233128 -0.24039926 -0.30529246
0.17995301 -0.5406103 0.18248804 -0.24435702 0.16476011 0.30546498 -0.19798245 0.28272635
