best_model.pth (torch, 186724 bytes, 7 tensors)

layers.0.weight f4 [256, 17]
00000000: 2711 483e b404 b53d d913 ef3c 56dd 903c
00000010: 06f3 d3bc eaae 603e dfd8 4a3e 8898 4c3e
00000020: 48d9 09be 3b4f 5dbe b6c7 6b3e 60fa f5bd
00000030: 5fbc f73d 6c82 53bc 4864 1c3d 3255 0b3e
00000040: 17a8 7a3d abf6 ba3d 5426 163e bffa 173d
00000050: 8053 8c3e 5e7f 3abe 96cc c43d fd3c 1c3d
00000060: 8ad7 b63d d327 353e 7d64 573e ab96 a33b
00000070: d089 23bb e679 783d ce23 31be 5fcb 3cbe
00000080: bfa0 3ebe f6a7 7abd a9c1 813d ab06 13bd
00000090: 4b78 0cbe 5dbb 283e af88 143e 0978 023e
000000a0: 1736 0dbe 180f b73d 61fd 46be ef87 8b3d
000000b0: cbc0 0c3e f639 d1bd ebe0 223e 09e4 c5bd
000000c0: 4f52 21bd 688d 96bb c9a4 853e 245a 9ebd
000000d0: 5509 62be a69e e4bd eb15 773e e45d aabd
000000e0: b835 a43d 56ed e33d 4e95 0b3e f862 cebd
000000f0: 4b16 21be ef76 013e f8d3 d2bd 3db5 17bd
00000100: e95d da3d 20ab 42bd e217 953c 9bb6 903e
00000110: 4ee7 f23d e51e a1bd 4e1e 943d bf2f 483d
00000120: 9a56 163e 903a 17be ee75 753e a2d6 663e
00000130: ab23 f03c 123d 24be 9a2c 86bd c35d 32be
00000140: 22c1 203e dc39 ee3d 5eeb ebbd aaba 01be
00000150: b678 60be c965 ccbd 0f33 5e3e 4d88 4dbe
00000160: fa09 dfbd e796 9abc 93ed 743e 9640 183e
00000170: 16aa 1b3e 7458 8c3d ec51 163d 35cb c9bd
00000180: 49a6 72bb b71c 0c3e 7592 58be 5527 0d3e
00000190: 8bae 21be 0561 e03c d859 033d 56f3 6fbe
000001a0: ee42 543e 2ca0 643e f01f 44bd 806a 80bb
000001b0: f8cf 7f3d 7a09 4b3e 5232 193e c69c 563e
000001c0: 1c43 de3d 526a 123e 40ec f6bc 343d e6bd
000001d0: d853 1bbe e10a 3abe 08a5 ffbc b517 c2bd
000001e0: 8954 6a3e ec34 a2bb 1413 473e ccfd 17be
000001f0: 49df 26be b2b6 253e 4175 ff3d 0389 6b3d
00000200: 8194 523e 6177 893d c7fa 53bd 919b 17be
00000210: ee9c 903c d327 fa3d fabb 523e 6c8d 70be
00000220: faa2 9cbd f506 8dbd 6f3d f53d c635 36be
00000230: 8baa d73d 974a ae3d e305 05be 4581 5fbe
00000240: df64 683e 86b5 e53d ac8f ec3d 94a4 61be
00000250: 7856 b03d 9fbc 5ebb 3679 093e e251 4c3e
00000260: 4736 063e 50fa 0a3d 50be dabc 340a d8bd
00000270: f0ff 33bc 14cc cfbd 9250 a2bd 3cec 77bd
00000280: 8031 4c3d 9c68 c53d 185f 28bd 7ed5 613e
00000290: b35d 14be 9ee7 bdbd 38b2 13bd 348a 253e
000002a0: 185d c3bc 7fbe 43be f0f9 f9bc 906a 34bc
000002b0: a59b 76be d071 81bc ec3b 44bd 2066 c6bb
000002c0: 10cf 363d f0ff 17be 9e0f 0cbe f4a5 5abe
000002d0: a842 80bc e05b 243d b8a7 1c3d d5b2 03be
000002e0: 48ae 5d3d 1072 e5bc 9c54 08be ca5d 0b3c
000002f0: 4da1 ff3d 0feb a9bd d716 ab3d 52eb 883e
00000300: 50d1 053e a843 1abd cf23 d93d 5e0c eabd
00000310: b476 f8bd df12 56be 883f b4bd 17da 5ebe
00000320: da59 8a3d 117a 02be e661 0b3e ad05 8b3e
00000330: d73b 8b3e 1842 a63b ccd5 003e f831 edbd
00000340: 2b4f 96bc ce90 38bd 1bd8 603e c80b 01be
00000350: 5d6f 033e 4309 c43d 46fe 47be a0c0 573e
00000360: 5997 5dbe 9389 25be 7433 173e 80c6 593d
00000370: 3ec1 623e d70f 183d 0393 4e3e 80ae 173c
00000380: 6dcb 1f3e db68 033e c55f 123d c856 24be
00000390: f9c6 fabd b84a 753e f362 0abe f7de 6c3e
000003a0: 1d62 5abe fdaa 223d aa46 5c39 400b 81be
000003b0: 7fce e0bd 156b 663e 982d d2bd 98d1 64be
000003c0: 55e9 d93d 0217 74be fb3c 043e ea47 2f3e
000003d0: 6437 25be ddbb 31bd 1306 5abd 9d32 ca3d
000003e0: d10e 05bd 5c2e c23d 64dd 933d 9544 4abe
000003f0: d1e8 fcbc 59ac 23be 4f7e b13d 00c2 253e
0.19537793 0.08838788 0.029184269 0.017683666 -0.025872719 0.21941724 0.19809292 0.19980061
-0.13461792 -0.21612255 0.23025402 -0.12010646 0.12096476 -0.012909513 0.038181573 0.13606718
0.06119546 0.091290794 0.14663059 0.037104364 0.27407455 -0.18212649 0.09609334 0.0381441
0.089278296 0.17690973 0.21034427 0.0049923263 -0.0024953969 0.060663126 -0.17298815 -0.18436955
-0.18616007 -0.061195336 0.06335766 -0.03589503 -0.13717763 0.16477723 0.14505266 0.12741102
-0.13790165 0.08938426 -0.19432594 0.06813037 0.1374542 -0.10216133 0.15906112 -0.09662635
-0.039385136 -0.0045944937 0.26102284 -0.07732037 -0.22073872 -0.11163072 0.24129455 -0.083186895
0.080180585 0.111292526 0.13631174 -0.100774705 -0.1573116 0.12643026 -0.10294336 -0.037038077
0.10662443 -0.04752648 0.018199865 0.28264317 0.11860524 -0.07867221 0.07232343 0.04887366
0.14681473 -0.14768434 0.23970768 0.22542813 0.029313883 -0.16038921 -0.06551476 -0.1741858
0.15698674 0.116321295 -0.11519502 -0.12668863 -0.21921048 -0.099803515 0.21699165 -0.20071526
-0.10890575 -0.018870784 0.23918752 0.14868388 0.15201601 0.068528086 0.03669922 -0.09853212
-0.0037025383 0.13682829 -0.21149619 0.13784535 -0.15789239 0.027390013 0.032068104 -0.23432669
0.20728657 0.22326726 -0.04788202 -0.003918946 0.062454194 0.19827834 0.14960602 0.20958242
0.10852644 0.1429837 -0.03014195 -0.11242142 -0.15168703 -0.18168212 -0.031206623 -0.09477178
0.2288381 -0.0049501564 0.19440871 -0.1484291 -0.16296114 0.16182974 0.12473536 0.05750371
0.20564462 0.06712223 -0.05175283 -0.14805438 0.017652955 0.12214627 0.2057952 -0.23491448
-0.07648273 -0.068860926 0.11974608 -0.1779395 0.10530575 0.08510321 -0.12990527 -0.21826656
0.2269473 0.112162635 0.11550841 -0.22035438 0.086102426 -0.0033986939 0.13425145 0.19953111
0.13106643 0.033930123 -0.026702076 -0.10548821 -0.010986313 -0.10146347 -0.07925524 -0.060528025
0.049851894 0.09639093 -0.041106313 0.22054097 -0.14488868 -0.09272693 -0.036058635 0.16166002
-0.023848101 -0.19115637 -0.030514687 -0.011011735 -0.24082811 -0.01580134 -0.04790871 -0.0060546547
0.044631064 -0.14843726 -0.13677832 -0.21352369 -0.015656784 0.04012668 0.038245887 -0.12861188
0.054121286 -0.02800849 -0.13313526 0.008506248 0.124819376 -0.08296787 0.08353966 0.26742035
0.13068128 -0.03766218 0.10602533 -0.1142814 -0.12132016 -0.20905636 -0.0880118 -0.21762882
0.06755419 -0.12741877 0.13611564 0.27152768 0.27194092 0.005073797 0.12581557 -0.115817964
-0.018348297 -0.04505997 0.21957438 -0.1260215 0.1283545 0.09572079 -0.19530591 0.21069574
-0.21639766 -0.16165762 0.14765722 0.05316782 0.22144029 0.03712448 0.20173268 0.009257913
0.15604945 0.12832968 0.035735864 -0.1604873 -0.12244982 0.23954284 -0.13514309 0.2313193
-0.2132649 0.03971385 0.0002100716 -0.25203896 -0.10976886 0.22501786 -0.102626026 -0.22345579
0.10640208 -0.23836902 0.12913887 0.17117277 -0.16134411 -0.04339205 -0.05322845 0.09872935
-0.032484833 0.094814986 0.07219961 -0.19752724 -0.030872734 -0.15983714 0.086666696 0.16187286

layers.0.bias f4 [256]
00000000: f560 c9bc 3fa6 873d a9cf fd3d 363f e43c
00000010: 73d4 a33d f5b6 02be 0d36 42be 38c8 593e
00000020: 5eff 30be 68d2 f7bd 6821 d1bd 0730 b93d
00000030: cedf 3ebd 2dac 78bc 32c3 1f3e e624 1d3e
00000040: a0f4 0f3c f7ed 483e 2536 613d 0df3 43be
00000050: b074 c4bd 6fdf 47bd f2bb debd ceeb 0fbe
00000060: e27d 18be 31e8 123e aa22 213d f474 5d3e
00000070: bc56 1c3e 902e 0ebd 31f0 2d3e 47ae 5d3d
00000080: 277f 563e 5485 763e 77f0 90bb b700 c03d
00000090: 2f22 54be 518f 933c baf3 833d 4405 44be
000000a0: 37d1 66be 3fc2 3cbd 4a6c 53be 90d4 2b3e
000000b0: 95cb cb3d 27a5 193e 2a37 a53d c5b4 62bd
000000c0: 5578 b83b 6a9f 773b 31e4 8fbd 8634 d53d
000000d0: 0b3d d43d ddeb 07bd 4c91 2b3e 226a 293e
000000e0: fee7 1f3d 3049 b6bd 12cf 60be 7a92 ccbc
000000f0: 5898 4cbd b08d 093e 81a5 6abe 00ea 533e
00000100: 4585 9bbb 812f 633d 0efe 28be 08cb ccbd
00000110: 58a0 1e3e bc9b 54be cc9e 373e d5e9 bf3b
00000120: 1703 47be 9f08 58be 394b f1bd 9ee5 523e
00000130: 03a3 393e a8e6 aebd af9d 65be 3a50 9c3d
00000140: 9abb b83b 5844 0ebe 3ef5 88bd 07ef 1d3e
00000150: 3a16 c43d 1104 f23d 4117 ca3d 8439 783e
00000160: 8683 84bd aa66 29be a906 c43c 5e9e 0fbe
00000170: 85a7 693e 832a 3c3b bc13 2d3e ae0e 8d3d
00000180: 61e4 96bd e2d0 403e ea44 8abd f2a7 fc3d
00000190: ceb5 153e bc5b 0bbe 0e64 44be 08e8 a63d
000001a0: 50d2 0a3e ac00 0abe e44b 653e 9eb9 47be
000001b0: 6834 783e 1076 f13d 3b77 05be 42ba 0abc
000001c0: 496d 28be 3eb0 613c 95fd b7bb dcf7 16be
000001d0: 2f5f de3c f435 d9bc 9bb1 62be a673 fc3c
000001e0: de9e a63d 4722 2ebe cbcf 5cbe 49f0 683e
000001f0: e230 30be 5fef debd 8824 49be 0b6b 4c3e
00000200: f5f9 32be 7c8a 81bd 5fe4 6ebe b6fc f63c
00000210: 9a44 b73d bf04 75be 8af2 453d 3550 703a
00000220: fb9d 39be 9ba8 bb3d bc71 14bd 3a79 ed3d
00000230: 1a80 5c3e a11a d4bb 1072 f6bd da3d 6dbe
00000240: 9d5a 39be 103c 4fbd 79fd 40be 7f08 2ebd
00000250: f115 05be f0a1 2abe de63 413d b0ed 543d
00000260: baba 623e 7ae1 093e 687a dd3d 43cf 07bd
00000270: f3a1 503e 7a12 54be e26a c2bd a693 bb3d
00000280: 485a 5bbe 411a 32bb b3a2 863d 4a4f 49be
00000290: 4dd3 0fbe 2581 743e a3ea 67be 101d ed3d
000002a0: c4f0 13be 5aa4 3f3e cde8 26b9 dcba d9bd
000002b0: 0d18 31bd cd35 33be 51a6 1bbc 2fe9 0f3d
000002c0: b95e 70be 20dd 6d3e 2c4a 71be 9966 a03d
000002d0: b348 d33d cd51 50be e259 01bc 0449 063e
000002e0: bea2 31be 1897 22be db48 ebbd 962b 32be
000002f0: a1a7 68bd 4d03 3ebe 8970 703e a4d5 63be
00000300: b55f 543e 3cce 14be 2124 20be 08a6 993d
00000310: 0cc7 ffbd 08ff 123e 1d68 f9bd e42d 8dbd
00000320: da80 a1bd d7a2 fb3c bff9 aebc 1c70 af3c
00000330: 6add 32be c307 073e 2547 7d3e 50ff 52be
00000340: 399c 753e 473d da3d fbf0 563e 6c56 a8bd
00000350: 54f5 78bd a679 ce3d 3eb9 efbd 72d5 1dbe
00000360: d8c8 493e c60c 3abe 7030 be3d 6659 a8bd
00000370: 2815 e3bc 7828 a73d bb60 6dbe 4923 023e
00000380: b78a 01be dd7a 24be 7d89 71be 3ba8 3bbe
00000390: 13a3 ca3c 3fb5 65be 16ce f53d 3916 733e
000003a0: dd20 97bd 1364 ddbd 47ba cc3d 6c5c 07bd
000003b0: 4862 803d f55d 1bbe 1abe a13b 751d f23d
000003c0: 7b86 0cbd 7995 8e3c 8568 6f3c 8d51 99bc
000003d0: 169f 363c 7615 e2bd 17b3 e13c 8518 acbd
000003e0: bc39 fe3d defd 343e cfa9 303e 2991 5fbe
000003f0: dc88 41be d2a2 693e 8f7e 1cbe 6854 36bb
-0.024582366 0.06623506 0.12393124 0.027862173 0.07999506 -0.12765105 -0.18965931 0.21267784
-0.17284915 -0.12100679 -0.1021145 0.090423636 -0.046600156 -0.015177769 0.15601805 0.15346107
0.0087863505 0.19622026 0.054983277 -0.19135685 -0.09592569 -0.048797067 -0.108756915 -0.14054796
-0.1489177 0.14346386 0.0393397 0.21626645 0.15267462 -0.034712374 0.16986157 0.054121282
0.20946942 0.24074298 -0.004423197 0.09375136 -0.20716165 0.018012675 0.064429715 -0.19142634
-0.22540747 -0.046083685 -0.20646778 0.16780305 0.099509396 0.15004407 0.08067162 -0.055348177
0.005629579 0.0037784227 -0.07025946 0.10410409 0.103632055 -0.03318392 0.16754645 0.16544393
0.039039604 -0.08900678 -0.21953991 -0.02497219 -0.049949974 0.13432956 -0.22914697 0.20694733
-0.0047461116 0.055465225 -0.16503164 -0.09999663 0.15490854 -0.20762533 0.1793167 0.0058567324
-0.19434772 -0.21097039 -0.11781926 0.20595405 0.1812859 -0.08540088 -0.22423433 0.076324895
0.005637598 -0.13893259 -0.06687401 0.15423213 0.09574552 0.11817182 0.098677166 0.2424069
-0.064703986 -0.1654307 0.023928957 -0.14025256 0.2281781 0.0028711862 0.1690206 0.068875656
-0.073677786 0.18829682 -0.067514256 0.123367205 0.14620134 -0.13609213 -0.19178793 0.08149725
0.1355679 -0.13476819 0.22392231 -0.19504401 0.24238741 0.11790097 -0.13033764 -0.008467259
-0.16447939 0.01377493 -0.005614946 -0.14742988 0.027144996 -0.026514985 -0.22138064 0.030816864
0.0813577 -0.17005263 -0.21563642 0.22747912 -0.17206147 -0.108855 -0.19642842 0.19962709
-0.17478164 -0.06325242 -0.23329304 0.030149799 0.089486316 -0.23927592 0.048327006 0.0009167225
-0.18126671 0.09163018 -0.036241278 0.11595388 0.21533242 -0.006472901 -0.120334744 -0.23168126
-0.18100972 -0.05059439 -0.18846692 -0.04248857 -0.12996651 -0.16663337 0.04721438 0.05198449
0.22141543 0.13464919 0.10814363 -0.033156645 0.20374279 -0.20710173 -0.094930425 0.09159021
-0.21421158 -0.0027176293 0.06574001 -0.19659153 -0.14045449 0.2387739 -0.226481 0.11577809
-0.14447314 0.18715039 -0.00015917719 -0.10631344 -0.043235827 -0.17500992 -0.009500102 0.03513449
-0.23473634 0.23228884 -0.2356345 0.07832069 0.10316601 -0.20343705 -0.007894965 0.13113791
-0.17347237 -0.1587795 -0.114885055 -0.17399439 -0.05680049 -0.18555947 0.23480429 -0.22249466
0.20739634 -0.14531797 -0.15638782 0.07502371 -0.12489137 0.14355099 -0.12178061 -0.068935186
-0.078859046 0.030717297 -0.021359323 0.021415763 -0.17467275 0.13186555 0.2473417 -0.20605206
0.23985375 0.10656219 0.20990364 -0.08219609 -0.060780838 0.10081796 -0.11705254 -0.15413454
0.19705522 -0.18168935 0.092865825 -0.082201764 -0.027720049 0.08162016 -0.23181431 0.12708773
-0.12650572 -0.16062494 -0.23587604 -0.18325894 0.024735963 -0.22432421 0.120021984 0.23738946
-0.07379315 -0.10810103 0.09996467 -0.033047125 0.06268746 -0.1517256 0.004935992 0.11822025
-0.034307938 0.017405258 0.014612322 -0.018715644 0.0111463275 -0.110392496 0.027551217 -0.08403114
0.12413356 0.17674968 0.17252277 -0.21832718 -0.18899864 0.22816017 -0.15282653 -0.0027821306

layers.2.weight f4 [128, 256]
00000000: c03f 98bc 603b c73b b2fe 4e3d c8c7 02bd
00000010: f0f2 863c e081 063d 74e1 fd3c 50ee 2dbc
00000020: 80ff a9bc 7efe 713d 589b 653c 2882 373c
00000030: 88e0 5b3c 10d4 58bc f466 30bd 8099 bbbb
00000040: 2cb8 113d ace3 b2bc f06e c83c 70f7 7dbd
00000050: 928e 393d b626 7c3d 74c2 39bd 4693 32bd
00000060: 30ed 8ebc e821 c13c cceb d53c 3207 4f3d
00000070: 462a 32bd 8058 16bb c0a7 baba dc45 a03c
00000080: 780d 233c b4ac 84bc 6038 28bd 7c4c 7abd
00000090: cc43 dfbc c835 bf3c e04f 6ebc 0cc1 ee3c
000000a0: f4a5 a2bc cc65 94bc 8e61 313d 509a 72bc
000000b0: 345d edbc 20d8 c0bc 7870 523d 1029 82bc
000000c0: 6851 3c3c 94f0 803c e22b 143d 6064 263b
000000d0: 00b9 2b3a 1426 f1bc f868 45bc 8e13 3abd
000000e0: f06d a23c c0b5 763b 70b4 c6bb 6e35 17bd
000000f0: 8036 a23c e099 cb3b 44f3 f43c 20d9 b63c
00000100: 4056 78bc 4046 ec3b 0021 b13a c0da 0d3c
00000110: c81b 2bbd 603c eb3c dc53 223d a2fc 553d
00000120: ea59 43bd b8ee 1f3c c47e 13bd 0057 bbba
00000130: c8e2 7e3c 38a1 11bd 7cab c7bc 00ce 483d
00000140: a0c3 ff3b 6856 48bd 7cde d2bc cae4 013d
00000150: a218 133d f0e4 6abc c882 f9bc 7631 68bd
00000160: 846a cf3c c01c 5c3d 1007 043d 747f 64bd
00000170: 0494 59bd 6e5e 5bbd acb6 db3c 40a5 4e3b
00000180: 3c80 da3c 08f0 0fbc 0485 d8bc e42e 68bd
00000190: d828 88bc dcc8 8b3c b47d 2a3d 8636 3abd
000001a0: 2095 7f3c 32e8 33bd 781a 9abc f013 12bc
000001b0: 34c8 a23c c4ba 84bc dad2 6d3d e092 54bb
000001c0: ec8f 8b3c e0d5 933c b8a5 3fbc 20d7 5bbc
000001d0: 8280 5d3d 184a 5d3d 0087 79bd d080 613d
000001e0: f0e7 4bbd 08d0 07bc 68ce 39bc a056 353d
000001f0: f460 6a3d c412 b73c 6ef9 04bd f2b5 053d
00000200: 9419 4ebd c097 f93b a0d3 bebc e86b 6d3d
00000210: 00c9 0cbc b8c1 5bbc d439 3ebd 92ff 22bd
00000220: b815 36bd a69c 66bd c018 8f3a 505c 96bc
00000230: e8d2 6fbd e0f8 cd3c d47c 553d 501e 533d
00000240: ac07 78bd f290 5c3d b8d1 203c 74ec 573d
00000250: aa01 56bd 30af f4bb 4696 633d d0b4 e8bb
00000260: 7845 1c3d 5216 0d3d 04ff 703d b4ed a9bc
00000270: c00b 41bd 04ce 4ebd 80d9 a4bc c6ea 6f3d
00000280: 4004 473d 8835 c23c 8823 60bc 7024 5b3d
00000290: e043 27bc e85d 0dbc 1423 51bd 1a10 59bd
000002a0: e67c 62bd 4aa0 70bd 8cd7 9f3c a076 e1bc
000002b0: f25f 5fbd f880 c33c 10b5 de3c 0839 6fbc
000002c0: 2c68 e1bc 30dd 663d 2829 2abd f21d 023d
000002d0: 881f 6dbd 9829 d63c b0ab 673d f2f6 583d
000002e0: dce5 9abc 50e6 52bc 8c78 1d3d 90c6 38bd
000002f0: 2cee 863c 8aa4 2ebd 003f c33c 744d 573d
00000300: 681e 7f3d 2043 90bb 76f1 13bd 00fa 8cba
00000310: ac9f 303d 48b3 09bc 80af 073a 48e4 7f3d
00000320: bae4 02bd 68eb 753c 0026 7fbb 38ab 01bc
00000330: d4be 233d 6671 3cbd bccc 7fbd 5863 17bd
00000340: 9853 483c 5873 273c d07e 00bc 12f2 42bd
00000350: e09f b73c 58e0 dc3c 307c 183d ce41 47bd
00000360: 10ac dabc c0b4 31bd 36da 0f3d 5072 d43b
00000370: 90fe 9b3b 3a25 41bd f4c8 43bd 387b 39bd
00000380: b892 17bc e0dc 1e3b acfb 34bd b0c8 f03b
00000390: b6c9 43bd d8cf 5ebd 7ec2 4d3d aa88 19bd
000003a0: 84c7 853c 8a2c 043d 1865 5dbc fabd 64bd
000003b0: 90d0 43bd 2acd 76bd 5864 423c a0c7 07bb
000003c0: a01e 743b 5258 3d3d 7e12 2bbd 80a2 7a3a
000003d0: f037 443c e00a fb3c 1838 49bd 3c2b 8e3c
000003e0: ac24 bdbc f8b8 123d 18cc d8bc e89e b23c
000003f0: 80e9 db3b 2caa 073d 84c2 093d f6f8 263d
-0.018585086 0.006080076 0.050535865 -0.031928807 0.016473264 0.032838702 0.030991293 -0.0106159
-0.020751715 0.059080593 0.014014088 0.011200465 0.013420232 -0.013234153 -0.043066934 -0.0057250857
0.03557603 -0.021837078 0.024466962 -0.062003553 0.04530198 0.061560355 -0.04535146 -0.043597482
-0.017447084 0.023575738 0.026113413 0.05054397 -0.043497346 -0.0022940934 -0.0014240667 0.019564562
0.009951942 -0.016195633 -0.04106939 -0.061108097 -0.027254008 0.023341075 -0.014545411 0.029144786
-0.019854523 -0.018114947 0.043305926 -0.014807299 -0.028975107 -0.023540556 0.05137679 -0.01588872
0.011494018 0.015739717 0.036174662 0.0025389418 0.00065506995 -0.029437102 -0.012048952 -0.045428805
0.019827813 0.0037644953 -0.0060639903 -0.03691619 0.019801378 0.0062134117 0.029901154 0.02232033
-0.015157282 0.007210523 0.0013513863 0.008658111 -0.04177454 0.028715312 0.039630756 0.052242883
-0.04769317 0.009761505 -0.036009565 -0.0014292896 0.015556999 -0.03555414 -0.024373762 0.049024582
0.0078053027 -0.04891053 -0.025740854 0.03171233 0.035912164 -0.0143368095 -0.03045787 -0.056687795
0.025319345 0.053738356 0.032233298 -0.05578561 -0.053119674 -0.053556852 0.026820503 0.0031531602
0.026672475 -0.008785255 -0.026430614 -0.056685343 -0.016621038 0.01706355 0.041623786 -0.045462154
0.015599519 -0.04392261 -0.01881145 -0.008915886 0.019870855 -0.016202338 0.05806241 -0.0032436177
0.0170364 0.01804632 -0.011697225 -0.013417989 0.054077633 0.05402574 -0.06091976 0.055054486
-0.04978174 -0.008289345 -0.011340715 0.044272065 0.057221368 0.022347815 -0.032464437 0.03264422
-0.050317362 0.007616967 -0.02329427 0.057964236 -0.008592844 -0.013412885 -0.046441868 -0.039794512
-0.044454306 -0.056301735 0.001091741 -0.018354565 -0.058550745 0.025143087 0.052121 0.05154258
-0.06055419 0.053849168 0.009815626 0.052715734 -0.05224768 -0.007467173 0.055563234 -0.0071016327
0.038152188 0.034445114 0.05883695 -0.020743228 -0.047130346 -0.05048944 -0.020123243 0.058573507
0.048588037 0.023707166 -0.013680346 0.053501546 -0.010209054 -0.008628346 -0.051058844 -0.05299387
-0.055294894 -0.058746614 0.01951196 -0.027522385 -0.05453486 0.023865208 0.027185947 -0.014601
-0.027515493 0.056363285 -0.041543156 0.03176684 -0.0578914 0.02614288 0.05656022 0.05296988
-0.018908434 -0.012872294 0.03844504 -0.04511124 0.016470991 -0.042637385 0.023833752 0.0525641
0.062284857 -0.004402533 -0.036118947 -0.0010755658 0.043121025 -0.00840456 0.0005175993 0.062473565
-0.031956412 0.0150097385 -0.0038932562 -0.007914357 0.03997691 -0.046006583 -0.06245111 -0.036959976
0.012226962 0.010220371 -0.007842734 -0.047594137 0.022415102 0.026962444 0.03722781 -0.04864674
-0.026693374 -0.043385267 0.03512021 0.0064833537 0.004760571 -0.047154643 -0.047799066 -0.045283526
-0.009251289 0.0024240538 -0.044185326 0.0073481426 -0.04779979 -0.054397434 0.05023431 -0.03748385
0.016330488 0.03226904 -0.013512872 -0.05584524 -0.047806323 -0.060254253 0.011864744 -0.002071835
0.00372497 0.046226807 -0.041765682 0.00095609576 0.011976227 0.030644834 -0.04912576 0.0173546
-0.023088776 0.03582093 -0.026464507 0.021804288 0.006711185 0.033121273 0.03363277 0.04076477

layers.2.bias f4 [128]
00000000: c02a 90bb f6ad 43bd 6c77 56bd f47b 523c
00000010: cef5 223c 89ce 31bd 8696 533d 3a03 f7bc
00000020: fc09 2d3d f054 64bd 46bd 163d 6cbd cdbc
00000030: 437e 303c 74c6 5e3c 65ba c9bc 8270 ba3c
00000040: 928c 13bc 79fe ca3c 397a 6cbd d5a5 5bbd
00000050: c048 843d bd1f b33c cfca c13c 8ad1 403d
00000060: f89c 3e3c a960 423c 39d8 e33c 521e 323c
00000070: d8cc c2bc cb34 623d 036d 3e3b c13a f6bb
00000080: 84e7 d53c e5c4 0abc fdff 813d cdd8 543d
00000090: acc7 edbc 71b1 853c a984 8c3c e863 d93b
000000a0: ddd9 72bc 9587 5bbd 9d84 423d 404d 5b3d
000000b0: 198c 7b3d 0740 58bd 681d 393d 606e f33b
000000c0: 36f2 8cbc 2cfb b23c 62e7 52bd 340b 943c
000000d0: 34b3 a8bc 27f8 263d dbe1 2fbd ac6f 223d
000000e0: c238 b73c 37b3 d5bc d4c2 3f3d 09f1 5dbd
000000f0: ce2b 6bbc 3f91 a43c 619f 2dbd a1ab 5d3c
00000100: fdee 353d 5d38 023d 9083 3f3c 152e 3b3d
00000110: 5585 24bd d533 203d bab5 483b ef64 60bd
00000120: 5f32 883d e087 3ebd dd51 b13d b266 693d
00000130: 74b4 16bd 5f23 243d ec31 55bd 5d10 3dbc
00000140: 60bc 49bd 3ba5 b83c 38e7 3fbd 1017 a0bc
00000150: 04f9 183d 101c 9b3c 9e50 383d 0513 cfbc
00000160: 8c35 5fbc c29d 893c 906c 39bd f9f5 37bc
00000170: bf17 85bd 801d e73c be72 f6bc 581c 2cbd
00000180: 2610 39bd 1d27 96bc 9f7b 933c 5927 27bb
00000190: 61ef 4ebd 965f 13bc 53cb 6f3d 2ee5 f539
000001a0: cc98 4abd 52ad 61bd 981f 863c 0eaf 063d
000001b0: 8171 32bd 7863 ccbc 9bae 01bc a841 febc
000001c0: 2ff9 49bc 3f07 27bd 7f60 90bb 8929 b3bb
000001d0: 3aed a7bc bc20 fa3c 58de 29bd e472 db3c
000001e0: 628e 533d d7d9 c5bc fd57 05bd d619 7c3d
000001f0: eb15 743d 7282 11bc fe70 153b d227 61bd
-0.0043996274 -0.047773324 -0.052359983 0.012846936 0.0099463 -0.043409858 0.051657222 -0.030152906
0.04224585 -0.055745065 0.0368016 -0.025114737 0.010772291 0.01359712 -0.024625013 0.022758726
-0.009005683 0.024779545 -0.057733748 -0.053624947 0.064591885 0.02186572 0.023656277 0.047074832
0.011634104 0.011863866 0.027813064 0.010871487 -0.023779318 0.05522613 0.0029056675 -0.007514328
0.026111372 -0.008469795 0.06347654 0.05196457 -0.029025875 0.016319962 0.017153101 0.006634224
-0.0148224505 -0.053596098 0.04748975 0.05354047 0.061412904 -0.052795436 0.04519406 0.007428929
-0.017205339 0.021848284 -0.051490195 0.018071748 -0.020593263 0.040764 -0.042940002 0.03965728
0.022365931 -0.026086433 0.046816662 -0.054184947 -0.014353706 0.02008879 -0.042388324 0.013529689
0.04441737 0.031792033 0.011689082 0.045698244 -0.040166218 0.03911193 0.0030625896 -0.054783758
0.066502325 -0.0465163 0.08658192 0.056982704 -0.036793187 0.040072795 -0.052049562 -0.011539546
-0.049251914 0.022539726 -0.046851367 -0.019542247 0.037346855 0.01893428 0.044998758 -0.025277624
-0.013623606 0.016798858 -0.04526955 -0.011228078 -0.0649867 0.028212309 -0.03008401 -0.04201922
-0.045181416 -0.018329198 0.018003283 -0.002550563 -0.05052126 -0.008994957 0.058543514 0.00046900794
-0.049462125 -0.05509693 0.016372487 0.03288179 -0.043565277 -0.024949774 -0.007915164 -0.031037167
-0.012327476 -0.040778395 -0.0044060345 -0.005467598 -0.02049886 0.030533187 -0.04147181 0.026788183
0.05164946 -0.024151726 -0.032554615 0.061548077 0.059591215 -0.008881198 0.0022802944 -0.054969616

layers.4.weight f4 [64, 128]
00000000: 57f2 a83d 4058 a9ba 8da7 e3bc a513 f53d
00000010: cae8 bd3d 62d8 f43d 3d4f 6cbd 933e 6cbc
00000020: 5f9e 33bd 208f e93c 92f4 443d 4a7a aa3c
00000030: e9a5 ae3c 6526 163e 0284 a23d e03b b3bd
00000040: 82c2 8aba 9de1 6e3d 9ae9 bf3c b858 1a3e
00000050: eb1e 9b3d 6e42 8dbc 497e 02bc 22f9 b63d
00000060: c02f 33bc b196 8d3c e206 003e 4a94 7c3c
00000070: 940c 023d 7333 873d 504b 223d 8a7e 883c
00000080: f498 70bb 0754 183c 42d9 69bb 9d15 5cbd
00000090: d0c3 85bd a394 a9bc 3c57 823d 3cc3 dabd
000000a0: 88ef 3b3d 30b8 f53d 3e8c f6bc 1d65 2c3d
000000b0: cf45 debb 6ad1 d6bd c799 043a 5e3d a13d
000000c0: ab1a d73d f8f7 6dbe 6836 46bd a76f 71bd
000000d0: f08a f93c e307 a83d 0821 853d c420 f93c
000000e0: d1ac c63d e8d8 8e3c 9ff1 8e3c 4546 4d3d
000000f0: 640a a3bd 4337 75bd aa76 8abc 471c 6e3d
00000100: d233 503d fdd5 b1bd ea43 83bd fa81 6fbb
00000110: 04bd e5bd 69e7 203d 0b8c fcbd 089b 49bd
00000120: f6f2 bd3d d0e1 99bc 4876 463d 26ee 393d
00000130: 24f3 853c 4ee2 30be 82f0 153d cc73 aa3d
00000140: a2ca 563d f4d0 b8bc 5060 cbbc 5943 8c3d
00000150: 831a 493d 81dc 963d 5e3e a13d 7bb6 083d
00000160: 901e adbd f438 7fbc 4c13 d53c 6698 32bd
00000170: ef52 45bd 1490 a5bd 9f80 53bc 2ea7 89bd
00000180: e8c0 61bd 772c 90bd 7b4f 80bc 7813 27bd
00000190: c0bd 13be 925e 023d 9da4 c73d 3ef4 6b3b
000001a0: c0e7 97be e561 c0bc aecf 2cbd 9b9d f03d
000001b0: c8cf 62bd 8d2f 0d3d 3d2f 10bd f3dc 543d
000001c0: 3cd5 25bd fbfb d73d 1327 ae3c ecbf 9cbb
000001d0: ab33 ab3d c5e9 35bd a066 2abb eced f9b9
000001e0: 303d 033e e269 36bd ac51 d2bb b20e 2bbc
000001f0: 793d cf3d 1cb3 993d ec96 1bbd 8781 0fbc
00000200: c2cc 193d 7b79 a83d 2032 99bd 32c7 e43d
00000210: 8d23 f83c c9fc 873d 10ee c9bd c720 61bb
00000220: 34a2 64bd a27b 02be 5f2a a03d c1e3 7c3d
00000230: a009 8cbd 77d9 463c e036 753d b3bd 06bd
00000240: 6b1e 7abc 258e 893c 82a2 a53d 57a8 3b3d
00000250: 1901 633d c645 72bd 1967 153e b545 b33d
00000260: 53b6 953d cd2b aabd 6564 c03d dbc1 42bd
00000270: 6bcc 8f3d 36b3 d13d b604 b63b 03fd 4d3d
00000280: 2a40 dbbd 7ea2 39bd aa27 50bd 8be6 783d
00000290: c0e7 6c3d 0ac0 2abd d837 243c 01c3 89bc
000002a0: 4968 f53d 9698 db3d 0613 2abd 474e 49bc
000002b0: d12e 87bd 2cfe 283c 9b23 563c 952b 0b3e
000002c0: db8d ef3d 7381 13be 2ab5 5f3d 75db 8fbd
000002d0: 166f 723d 8059 093e d9a1 a3bc 3811 6dbd
000002e0: b0ff 2d3d b92a e53c 0b04 ea3d e30d 663d
000002f0: a460 c23b 83b4 823d 9033 8fbd a205 923d
00000300: 2c58 9f3d c395 8dbd 5c13 a4bd 895b 843c
00000310: 1443 fabd 0f0a 783d d2c6 303d ecd8 7e3d
00000320: d931 ae3d 53e9 5fbd 2767 d03d 803d e83c
00000330: 3898 a73d 23ed bbbd 2925 933d f7e0 cabc
00000340: def3 063d af88 013c 00db dd39 ac26 b0bc
00000350: fe28 263c b6b1 79bd 6da2 da3c 7bcf bcbd
00000360: 33d2 a5bd b9df a53d fc4b 5abd 67c4 a53d
00000370: 3364 cebd 175e 06be 1695 37bd 1054 e63b
00000380: 2c60 f33c 1e56 eebd 7ff8 59bc 8d0c 85bd
00000390: 6984 f9bd 743b 003d 7dda f13d 1c7c 88bd
000003a0: ce94 8abe ce57 123b d888 f43c 71a2 b13c
000003b0: 3c6b 93bc 4e8d e33d 9cfe 89bd f844 583d
000003c0: 766f 87bd 09f4 853d 2107 86bc 5978 b33d
000003d0: fe3e c8ba 94c2 39bc 183e 723c 293d c2bc
000003e0: aef0 ee3d 61f0 5fbd d2c7 1fbe 44b0 ad3d
000003f0: e639 f33d 538a 44bb bb20 473c 05d0 a33d
0.08249348 -0.0012919977 -0.027789855 0.119666375 0.092729166 0.11955334 -0.057692755 -0.014419216
-0.043852206 0.02851063 0.048084803 0.020810265 0.021319347 0.14663084 0.07935335 -0.087516546
-0.0010586532 0.05832063 0.02342682 0.15072906 0.075742565 -0.01724359 -0.007964679 0.08934237
-0.010936677 0.01728377 0.12502626 0.015416214 0.031750277 0.0660161 0.039622605 0.016661901
-0.003671226 0.009297377 -0.0035682474 -0.05373155 -0.06531489 -0.020700758 0.06364295 -0.10681769
0.04588273 0.119980216 -0.03009617 0.042088617 -0.006783224 -0.10489161 0.0005058315 0.07873033
0.105031334 -0.23239124 -0.04839173 -0.05894437 0.030461758 0.08204629 0.06500441 0.030411132
0.09700931 0.017437413 0.017449198 0.050115842 -0.07960966 -0.059867155 -0.016902287 0.058132436
0.05083067 -0.08683393 -0.06409438 -0.0036545978 -0.112176925 0.03928319 -0.123313986 -0.049220115
0.09274857 -0.018784434 0.048452646 0.04539313 0.01635129 -0.17273828 0.03660632 0.08322868
0.05243934 -0.022560574 -0.024826199 0.06848783 0.04909755 0.073662765 0.07873224 0.033377152
-0.08453095 -0.0155775435 0.026010178 -0.04360237 -0.048174795 -0.08084121 -0.012909084 -0.0672134
-0.05511561 -0.07039731 -0.0156629 -0.04079005 -0.14427853 0.03182847 0.09748194 0.0036003734
-0.29669 -0.02348418 -0.042190246 0.11748811 -0.055373937 0.034469176 -0.0352013 0.051968526
-0.04048656 0.10546108 0.021258866 -0.004783621 0.08359464 -0.044412393 -0.002600111 -0.00047670247
0.1281631 -0.04453457 -0.0064184275 -0.010440515 0.10119147 0.075048655 -0.037985727 -0.008758909
0.037548788 0.082262956 -0.07480264 0.11170806 0.03029039 0.06640012 -0.0985986 -0.0034351812
-0.05581875 -0.12742475 0.07820582 0.06174064 -0.06837773 0.012136809 0.059866786 -0.032895755
-0.015266041 0.016791413 0.080876365 0.04581484 0.05542097 -0.059148572 0.1459011 0.0875353
0.07310166 -0.083091356 0.09394149 -0.047548156 0.070214115 0.1023926 0.005554761 0.05029012
-0.10705598 -0.04532098 -0.050819077 0.060766738 0.0578382 -0.04168705 0.01002308 -0.016816618
0.119827814 0.10722463 -0.04152205 -0.012286729 -0.066007264 0.010314506 0.013070012 0.13590844
0.11696979 -0.1440485 0.05461613 -0.0702428 0.05918797 0.13413048 -0.019974636 -0.05787775
0.04248017 0.027974473 0.114265524 0.056165587 0.0059319306 0.06382086 -0.06992257 0.071299806
0.07780489 -0.069133304 -0.08011505 0.016156929 -0.122198254 0.060556468 0.04315836 0.06221859
0.085056014 -0.054665875 0.10175925 0.028349638 0.0818333 -0.091760896 0.07184822 -0.024765475
0.032947414 0.007906123 0.00042315573 -0.021502815 0.010141609 -0.060960494 0.026688779 -0.09219261
-0.08096733 0.08099312 -0.05329512 0.080941014 -0.10077705 -0.1312183 -0.044819914 0.007029064
0.029708944 -0.11637519 -0.013303875 -0.064965345 -0.12183458 0.0313067 0.118092515 -0.06664297
-0.27066654 0.0022330168 0.029850408 0.021683903 -0.01799547 0.11110936 -0.06738016 0.05280015
-0.06613056 0.06540687 -0.016360821 0.08763189 -0.0015277562 -0.011337895 0.014785312 -0.023710804
0.11667 -0.054672603 -0.15603569 0.084808856 0.118762776 -0.0029989674 0.0121538 0.07998661

layers.4.bias f4 [64]
00000000: 0754 d93c 778f 6dbd 668a 2d3d 6ff0 753d
00000010: a599 c53a 43eb e33b 404b 25bc 9b25 c53d
00000020: 441d d0bc 908b 55bc 8ed5 29bd 2bc2 a63d
00000030: c4e7 473d 0841 15bc 481f 9e3c 3175 943c
00000040: e7f3 77bd c6d9 643c c448 9cbd d112 92bd
00000050: 1d8d 8d3d c94a ce3c ed83 a83d 9bb4 cd3d
00000060: 6f05 9f3c 3071 44bd e63d 8ebd d99a b0bd
00000070: d15a e4bc cbca 813c f0bc 943d 5be0 8bbd
00000080: 224a 54bd d557 9ebd e6a8 13bd 40e0 a5ba
00000090: 10d5 64bd fef3 103c 635c 31bd 0e90 a83d
000000a0: ee30 09bd 8cfc 053c 4174 813d ab6a b13d
000000b0: 783d 923d 6827 a8bc 1f03 0abd 9282 7fbd
000000c0: 6a7e d33c 51c0 823d 96f1 473d 3389 5f3d
000000d0: 6dff ca3c 2e76 92ba bbf6 82bc 3202 11bd
000000e0: bb27 babc 003d f6bb 60eb 853d 6960 d13d
000000f0: 040d a3bd 5df4 09bc bac1 413d e791 693d
0.026529325 -0.057998147 0.042368315 0.06004375 0.0015075697 0.0069555356 -0.010088742 0.09626313
-0.02540458 -0.013033763 -0.041463427 0.08142503 0.048805013 -0.009109743 0.019302025 0.018122287
-0.060535338 0.013967937 -0.076310664 -0.07132495 0.06911681 0.025182145 0.08228288 0.100442134
0.01941177 -0.047959507 -0.069454 -0.08623285 -0.027875336 0.01584377 0.072625995 -0.06829902
-0.05182851 -0.077315964 -0.036049746 -0.0012655333 -0.055867255 0.008847235 -0.043300997 0.08230601
-0.03349393 0.008177888 0.06321002 0.086629234 0.071406305 -0.020526603 -0.033694383 -0.06238038
0.025817115 0.06384338 0.04881438 0.054574203 0.02478 -0.0011174136 -0.01598679 -0.035402484
-0.022724023 -0.007514596 0.06539035 0.10223467 -0.07961467 -0.008420077 0.047303893 0.05702391

layers.6.weight f4 [1, 64]
00000000: 8564 0bbe 1596 3fbe 9fb3 bb3d f96c a63d
00000010: e523 d3bd 9cd4 d5bd 7891 b5bd cc3e 0cbe
00000020: 409d 6bbd 7ac7 033e 1a0d cfbd 09a0 643d
00000030: 6e79 383d 17f5 243e b04d cfbc c519 40be
00000040: 64b7 b83d 3dae 813d f782 2a3e 85ed 93bd
00000050: 28f4 213e b14a d6bd 3c7d 2d3e 99a3 1bbe
00000060: 4db9 1ebe 479c e3bd 3650 853d 9a37 be3d
00000070: e9e1 293e 0728 363e bf9f ed3d d4e6 133d
00000080: 9fab 16bc 3a90 96bc f03e 68bd 003c 37bb
00000090: 4f7c 403e 21cc 63bd ac55 e23c 0230 b0bd
000000a0: 5f8d da3c d975 133e e55d 0e3e 93b6 86bd
000000b0: a799 2abe 7c67 f73d 2b8f ae3d 5d99 0d3e
000000c0: 8da2 c43d bca7 0abe 9319 8f3d 9f98 983c
000000d0: 6bbc c03d 3cfc 263e 3ae2 4dbd 15b0 e8bd
000000e0: 510e b13d b6f9 ebbd ddac 9b3d 6654 d8bd
000000f0: 22c9 d53d 6ed5 023e b7d5 81bd 4073 203e
-0.13612564 -0.18709596 0.091651194 0.08126254 -0.10309581 -0.10440943 -0.088656366 -0.1369583
-0.057523012 0.12869063 -0.10109921 0.055816684 0.04503768 0.1610912 -0.025305599 -0.1875983
0.09019354 0.063320614 0.16651522 -0.07223038 0.15815794 -0.10463465 0.16942304 -0.15199126
-0.15500374 -0.11113792 0.0650944 0.09287949 0.16590084 0.17788707 0.11602735 0.036108807
-0.009196191 -0.01837932 -0.056700647 -0.0027959347 0.1879742 -0.055614594 0.027628742 -0.08602907
0.02667874 0.14400424 0.13903005 -0.06577792 -0.16660176 0.12080285 0.08523401 0.13828035
0.096013166 -0.13540548 0.069873 0.018627463 0.09410938 0.16307157 -0.050264575 -0.1136171
0.08645309 -0.11522238 0.076013304 -0.10562973 0.10438754 0.1277673 -0.06339591 0.15668964
