best_model.pth (torch, 186724 bytes, 7 tensors)

layers.0.weight f4 [256, 17]
-0.3441683 0.21967816 0.21767889 -0.20702842 -0.16850398 -0.39355212 -0.30615908 0.31374583
-0.17326693 0.0030816284 0.24998699 0.07327198 -0.009747503 -0.04745659 -0.027939983 -0.09249971
0.05186919 -0.24080914 -0.22687416 0.26325953 -0.088543 0.3545372 0.07658617 -0.017698117
0.044868324 0.13063249 0.048006855 0.17684045 -0.7085356 -0.14745753 -0.20345785 0.18758301
0.33487654 -0.5763899 0.074701525 -0.16276397 -0.057143282 0.26486167 0.11042115 -0.16817379
0.11342024 -0.20625299 -0.50087476 0.24381918 0.016553804 -0.39987633 0.103710875 -0.008216414
0.06408564 0.16041233 -0.2298085 -0.25756478 0.21115322 -0.15055937 -0.37005576 0.17739555
0.13315292 -0.34502903 -0.14128835 0.20228764 0.099716246 -0.21423207 0.12979509 0.04170313
0.09093654 -0.0012163448 0.21753079 -0.95083636 -0.057408206 0.26230928 0.17040768 0.22769497
0.20255002 0.3179063 0.25173923 0.008066499 -0.14517997 0.04382036 -0.24854092 -0.23642913
0.020443771 0.05224575 -0.000728567 -0.23678213 -0.09569522 0.16897735 -0.31161505 0.051037584
-0.35920966 0.085166454 -0.27769196 0.14912757 0.15997398 0.23347035 -0.14579926 0.2358058
-0.1008337 -0.048665684 -0.006645526 0.016624196 -0.049157865 -0.055901136 -0.30012858 0.14413436
0.21655357 -0.046959728 0.5849192 0.29996306 0.10862518 0.1850875 0.16286913 0.3517368
0.20947339 -0.5311325 -0.13919581 -0.23203063 -0.27260256 -0.08721531 -1.1663378 0.20701928
0.13754965 0.16656637 -0.13745767 -0.32448086 0.16243741 0.13769399 -0.08566371 -0.19971065
-0.15916125 -0.3522482 -0.42257205 0.053718563 -0.035530765 -0.09462155 0.098382585 0.25282496
-0.03576672 -0.2192195 0.15455422 -0.16225307 0.15724942 0.035342842 0.18545148 0.039548725
0.03173545 -0.022858888 -0.16776799 0.037050664 -0.02704382 -0.023073763 -0.1865703 0.012056023
-0.10071227 -0.4224959 0.33719063 -0.29865345 0.22416468 -0.32406068 -0.031742018 0.18807861
0.05097185 -0.0901245 0.061185546 0.232 -0.08978412 0.07126801 0.09807581 -0.24851777
-0.32457092 -0.6274229 0.1316514 0.13038382 -0.04359264 -0.8873413 -0.033927303 -0.11887351
0.085132904 -0.31906587 -0.22922215 0.1956997 0.01355546 -0.38179332 0.13300282 -0.1198661
0.020260118 0.26217246 0.42452526 -0.03634995 0.24778011 -0.030762685 -0.45190653 -0.37964526
-0.39115074 0.22273639 -0.2218698 0.40793505 0.36422104 0.020095434 0.32594395 0.104205355
0.08145967 0.06490547 -0.20163016 0.11559515 -0.4564024 0.0482217 -0.28362152 0.37881663
-0.08327483 0.08638918 0.1093659 -0.2339288 -0.28795472 0.1593334 -0.06606581 -0.045936886
-0.097667396 0.020009609 0.0002392928 0.1084132 -0.124345325 0.06592636 0.2775858 0.199456
-0.15178466 -0.037177574 0.15444426 -0.30140606 0.045187484 0.34450832 0.22225873 0.22697721
0.13727641 0.060810633 0.043038663 0.045522172 -0.26805544 -0.09575784 0.17480406 -0.12744635
-0.2176812 -0.17065787 0.115496844 -0.077275395 -0.20615534 -0.008699313 -0.0898826 -0.12093425
0.20078212 -0.038978934 0.06826061 0.21821782 -0.016416058 -0.14211363 -0.1673556 -0.24794081
00000000: d436 b0be 50f3 603e 37e7 5e3e 42ff 53be
00000010: 4f8c 2cbe aa7f c9be e2c0 9cbe 4ba3 a03e
00000020: e36c 31be 25f5 493b 97fc 7f3e 9f0f 963d
00000030: feb3 1fbc d761 42bd 64e2 e4bc 7d70 bdbd
00000040: ca74 543d ac96 76be b351 68be f4c9 863e
00000050: 0856 b5bd e685 b53e 36d9 9c3d a4fb 90bc
00000060: d9c7 373d 86c4 053e d6a2 443d aa15 353e
00000070: 9762 35bf 1bff 16be 4157 50be c315 403e
00000080: f074 ab3e 4a8e 13bf 1dfd 983d 99ab 26be
00000090: 130f 6abd f39b 873e 7c24 e23d c035 2cbe
000000a0: df48 e83d fc33 53be 5439 00bf bcab 793e
000000b0: d89b 873c 97bc ccbe 5e66 d43d 239e 06bc
000000c0: 553f 833d 2143 243e eb52 6bbe 88df 83be
000000d0: 8d38 583e 3c2c 1abe f377 bdbe 2ea7 353e
000000e0: 3d59 083e a5a7 b0be e5ad 10be 7e24 4f3e
000000f0: 0838 cc3d a75f 5bbe 01e9 043e e7d0 2a3d
00000100: f03c ba3d c26d 9fba 64c0 5e3e 036a 73bf
00000110: de24 6bbd 674d 863e 5a7f 2e3e df28 693e
00000120: 4669 4f3e 9dc4 a23e f7e3 803e 5929 043c
00000130: 0faa 14be fa7c 333d 8381 7ebe 7a1a 72be
00000140: b279 a73c a4ff 553d 4efd 3eba 0477 72be
00000150: dbfb c3bd 6608 2d3e 028c 9fbe c90c 513d
00000160: 54ea b7be c06b ae3d a42d 8ebe e6b4 183e
00000170: 38d0 233e da12 6f3e 674c 15be 1377 713e
00000180: e681 cebd ab55 47bd b6c2 d9bb 772f 883c
00000190: c259 49bd 97f8 64bd 74aa 99be f597 133e
000001a0: 38c0 5d3e d858 40bd 44bd 153f c294 993e
000001b0: e176 de3d 9487 3d3e 2ac7 263e d916 b43e
000001c0: 3180 563e 4df8 07bf 5989 0ebe 7099 6dbe
000001d0: 9092 8bbe f19d b2bd 8f4a 95bf ddfc 533e
000001e0: d1d9 0c3e 6090 2a3e b4c1 0cbe 5b22 a6be
000001f0: fe55 263e a7ff 0c3e 7570 afbd f380 4cbe
00000200: 2bfb 22be e059 b4be 5d5b d8be ff07 5c3d
00000210: b588 11bd f1c8 c1bd cf7c c93d 4672 813e
00000220: 2080 12bd 147b 60be 7643 1e3e ab25 26be
00000230: fe05 213e a8c3 103d fee6 3d3e d8fd 213d
00000240: 08fd 013d 9042 bbbc 5fcb 2bbe 70c2 173d
00000250: 008b ddbc 3005 bdbc 490c 3fbe a086 453c
00000260: 3c42 cebd 6251 d8be 40a4 ac3e 1be9 98be
00000270: 6d8b 653e 48eb a5be eb03 02bd ae97 403e
00000280: dcc7 503d 3293 b8bd b29d 7a3d 6891 6d3e
00000290: bde0 b7bd f6f4 913d f8db c83d 717b 7ebe
000002a0: 292e a6be ca9e 20bf a0cf 063e 5683 053e
000002b0: 328e 32bd cd28 63bf 5bf7 0abd f473 f3bd
000002c0: 295a ae3d 9a5c a3be 36b9 6abe 8165 483e
000002d0: b817 5e3c 6a7a c3be e431 083e 5c7c f5bd
000002e0: 8cf8 a53c 783b 863e 605b d93e afe3 14bd
000002f0: 12ba 7d3e 0702 fcbc 4b60 e7be dd60 c2be
00000300: e944 c8be 0215 643e d631 63be dddc d03e
00000310: 2e7b ba3e 2e9f a43c 20e2 a63e 9e69 d53d
00000320: 54d4 a63d 29ed 843d 2378 4ebe 26bd ec3d
00000330: 93ad e9be 1e84 453d d736 91be 41f4 c13e
00000340: fe8b aabd cfec b03d 3bfb df3d 088b 6fbe
00000350: cd6e 93be 4b28 233e 834d 87bd 5128 3cbd
00000360: d805 c8bd 31eb a33c acea 7a39 bd07 de3d
00000370: c3a8 febd 6604 873d ba1f 8e3e 323e 4c3e
00000380: 706d 1bbe 8347 18bd a326 1e3e e551 9abe
00000390: 8316 393d 6563 b03e cb97 633e b76c 683e
000003a0: 3092 0c3e 9214 793d 4f49 303d 7575 3a3d
000003b0: 903e 89be b01c c4bd d6ff 323e 4c81 02be
000003c0: d2e7 5ebe f0c0 2ebe 9c89 ec3d 9042 9ebd
000003d0: 631a 53be 9087 0ebc 5e14 b8bd 60ac f7bd
000003e0: d499 4d3e 60a8 1fbd 38cc 8b3d 7e74 5f3e
000003f0: f87a 86bc 3c86 11be 445f 2bbe 32e4 7dbe

layers.0.bias f4 [256]
0.23629501 -0.25922653 -0.12185289 0.04569356 -0.2456952 0.21098651 -0.038655307 0.029859422
-0.14283556 -0.0021958398 -0.0797986 -0.07171293 0.117588796 -0.1282827 -0.22432667 -0.05780128
-0.16026516 0.02267672 -0.17169628 0.067667305 -0.10817292 -0.24330683 0.25636232 0.03337393
0.08884596 -0.13913974 -0.04458453 -0.22397666 0.19576593 -0.18396309 0.12551063 0.078541666
-0.23500168 0.057919443 0.0047802236 0.31903782 0.025867961 0.2550809 0.042147413 -0.03831959
-0.23127817 0.10554758 0.083598495 -0.31678954 0.04929474 -0.0089132665 -0.10436576 0.08167824
-0.17709504 -0.093669295 0.1029586 -0.17548694 0.0784862 -0.020468056 -0.20517099 0.21933168
0.11230573 -0.083981685 -0.2130552 -0.31036028 -0.38258278 -0.29553226 0.14130381 0.019328563
0.3286791 0.19565727 0.18991154 0.009839789 -0.1786829 0.06081176 0.1443075 -0.15367001
-0.14775398 0.26326922 0.14352073 0.13455339 0.06459996 0.12197948 0.008743142 0.018027555
-0.100832455 0.048450846 -0.0966095 -0.13746239 0.07071176 0.049810365 0.20472406 -0.05940425
-0.14707878 -0.13410228 0.08705617 0.20768838 0.08674109 0.14944385 -0.107943036 -0.30754194
0.07697165 -0.12499545 0.2562482 -0.27755806 0.03650121 0.06811818 -0.05415713 -0.30563846
-0.002962437 -0.08537432 -0.07574922 -0.20947926 0.116658345 0.2655143 0.028209811 0.27657896
-0.054666508 0.18441038 -0.15508339 0.10132649 -0.0550047 -0.18787281 -0.14041288 -0.044292312
-0.14676508 0.1302278 0.26333505 -0.02391941 -0.27385044 -0.017269993 0.17272788 -0.19966997
0.12930913 0.14695978 0.03642757 -0.16200446 -0.046515364 0.3026907 -0.0005155987 -0.30180156
0.024914803 0.20083147 0.18848486 -0.020951115 -0.12625803 -0.14892465 0.07668596 0.15943539
-0.0105998665 0.06834312 0.19322912 0.03857381 0.040713627 -0.13913614 0.23864451 -0.23673572
0.08362437 0.25764272 -0.07698534 -0.0779174 -0.12157047 0.040758833 0.12745696 0.21598278
-0.12784131 0.1692802 0.01844638 0.04368491 -0.22810774 0.03223902 0.04268831 0.13049683
-0.22952318 -0.26484156 0.22109096 0.14620176 0.17338905 0.08747546 -0.27155364 0.18558013
0.02795334 -0.019097209 0.123818785 -0.00047203567 -0.12530562 -0.04747511 -0.18630657 -0.13801537
0.24180393 -0.004010513 -0.04250879 0.10964111 0.012490266 -0.18617857 0.06771713 -0.1515549
0.047567576 0.23836604 0.10245383 -0.19495912 0.08014139 0.07069784 -0.024478003 -0.15852043
0.17232737 -0.1981163 -0.1982678 -0.16177563 -0.17722104 -0.052704204 0.20410655 -0.35007182
0.018481664 0.11100772 -0.17010134 0.05213548 -0.02606181 -0.118589446 0.038124453 0.30046096
-0.11532372 0.018646773 0.13828535 -0.1268425 -0.16617022 0.027326524 0.14475311 -0.18401557
0.1968771 -0.22482286 -0.22481431 -0.16040143 0.050764963 -0.010298856 -0.14516677 0.13288306
0.15353666 -0.23530562 0.21074893 -0.2810755 0.008152282 -0.11414326 0.17372972 -0.031134684
-0.25874746 0.06712754 0.020928703 0.09941795 0.05675272 0.14205472 0.14414951 -0.14593232
0.2607213 0.24441575 -0.2556639 0.19376698 -0.11875968 0.18367045 0.2034439 0.17384724
00000000: 52f7 713e 57b9 84be 028e f9bd 2c29 3b3d
00000010: 8697 7bbe d90c 583e 0755 1ebd bf9b f43c
00000020: 7c43 12be 14e8 0fbb 736d a3bd 3bde 92bd
00000030: 65d2 f03d 8a5c 03be e4b5 65be 09c1 6cbd
00000040: 8d1c 24be 87c4 b93c 26d1 2fbe 2895 8a3d
00000050: c489 ddbd 6d25 79be ec41 833e 1ab3 083d
00000060: dff4 b53d a67a 0ebe 459e 36bd 235a 65be
00000070: dd76 483e d260 3cbe dc85 003e 74da a03d
00000080: 48a4 70be f03c 6d3d 6ca3 9c3b ed58 a33e
00000090: 0ce9 d33c f799 823e c4a2 2c3d 01f5 1cbd
000000a0: 2fd4 6cbe 5429 d83d b035 ab3d 3d32 a2be
000000b0: 48e9 493d f308 12bc b7bd d5bd ec46 a73d
000000c0: 6758 35be b0d5 bfbd f5db d23d d9b2 33be
000000d0: 5fbd a03d a0ac a7bc 5818 52be 7c98 603e
000000e0: 8c00 e63d 97fe abbd 242b 5abe 8be7 9ebe
000000f0: e4e1 c3be 0150 97be f2b1 103e ef56 9e3c
00000100: a148 a83e 615a 483e 2c78 423e 1137 213c
00000110: a6f8 36be c115 793d 58c5 133e ac5b 1dbe
00000120: d24c 17be 39cb 863e 19f7 123e 5dc8 093e
00000130: fc4c 843d 61d0 f93d 653f 0f3c 86ae 933c
00000140: 3f81 cebd 6574 463d 34db c5bd f1c2 0cbe
00000150: 54d1 903d f405 4c3d 2fa3 513e df51 73bd
00000160: d29b 16be 1c52 09be 814a b23d 43ac 543e
00000170: 50a5 b13d cf07 193e 3d11 ddbd 2376 9dbe
00000180: 50a3 9d3d 9dfd ffbd f732 833e 171c 8ebe
00000190: 4b82 153d 8b81 8b3d ded3 5dbd a57c 9cbe
000001a0: 7225 42bb bbd8 aebd 6822 9bbd bb81 56be
000001b0: 92ea ee3d 7ef1 873e 4318 e73c c29b 8d3e
000001c0: fde9 5fbd 13d6 3c3e 2ece 1ebe 4384 cf3d
000001d0: 9c4c 61bd bb61 40be 65c8 0fbe db6b 35bd
000001e0: 9649 16be 705a 053e dad3 863e a3f2 c3bc
000001f0: 2036 8cbe cd79 8dbc 94df 303e 4976 4cbe
00000200: 9d69 043e a07c 163e 1335 153d 7fe4 25be
00000210: e586 3ebd 47fa 9a3e 3e29 07ba bc85 9abe
00000220: 211a cc3c c4a6 4d3e 2d02 413e aca1 abbc
00000230: c949 01be b47f 18be 870d 9d3d 0843 233e
00000240: 10ab 2dbc 7af7 8b3d dbdd 453e 92ff 1d3d
00000250: 55c3 263d b479 0ebe 3a5f 743e d96a 72be
00000260: 4143 ab3d bfe9 833e 7daa 9dbd 2893 9fbd
00000270: f0f9 f8bd bcf2 263d 1484 023e 972a 5d3e
00000280: d5e8 02be ca57 2d3e dd1c 973c f3ee 323d
00000290: 1395 69be 100d 043d f0d9 2e3d f6a0 053e
000002a0: 2008 6bbe 5099 87be ab65 623e eab5 153e
000002b0: e68c 313e 5526 b33d 1409 8bbe b808 3e3e
000002c0: 67fe e43c c071 9cbc b494 fd3d 8e7b f7b9
000002d0: 1e50 00be 4375 42bd 26c7 3ebe e753 0dbe
000002e0: 739b 773e 9f6a 83bb b21d 2ebd 858b e03d
000002f0: f9a3 4c3c 98a5 3ebe 47af 8a3d 3531 1bbe
00000300: 38d6 423d 3a16 743e 50d3 d13d 5da3 47be
00000310: 2b21 a43d 07ca 903d 1886 c8bc 2e53 22be
00000320: 9676 303e 00df 4abe b706 4bbe 83a8 25be
00000330: 6f79 35be 5de0 57bd 4f01 513e 9d3c b3be
00000340: dc66 973c 0458 e33d 0c2f 2ebe 038c 553d
00000350: 947f d5bc 06df f2bd 6328 1c3d 05d6 993e
00000360: d82e ecbd 1ec1 983c ad9a 0d3e 00e3 01be
00000370: 8728 2abe e0db df3c 293a 143e 946e 3cbe
00000380: 279a 493e f737 66be b935 66be 4640 24be
00000390: ecee 4f3d 88bc 28bc 99a6 14be 7f12 083e
000003a0: b738 1d3e f5f3 70be 91ce 573e 21e9 8fbe
000003b0: 2691 053c f1c3 e9bd 34e6 313e 2a0e ffbc
000003c0: 8c7a 84be 2a7a 893d ac72 ab3c a39b cb3d
000003d0: 8a75 683d cb76 113e ee9b 133e 486f 15be
000003e0: 437d 853e 1f48 7a3e 61e6 82be da6a 463e
000003f0: 4638 f3bd 1b14 3c3e 9953 503e 0305 323e

layers.2.weight f4 [128, 256]
0.009780322 -0.35113558 -0.1711879 -0.29632184 0.023745209 0.44714388 0.03131528 0.20673046
-0.01780516 -0.40325725 -0.023401342 -1.7489616 -0.81669384 0.6615855 0.0125869885 0.0105379475
-0.0121688545 1.9169139 0.0016551625 0.15140378 0.15679121 0.7777381 -0.21193424 0.076028846
-0.37241483 -0.23050301 0.027411265 -0.060385317 0.15499313 -0.055578448 -0.55578846 -0.1876457
0.05557327 -0.020172708 0.21460666 -0.11518231 0.24738742 -0.7630759 1.0600928 0.42659676
0.040666625 0.03661663 -0.010876149 0.17896181 0.049825244 0.2292518 2.1656077 0.023308542
1.4668483 0.03017988 0.14994474 0.3295721 0.27781078 0.090180956 0.036175802 0.04250993
0.8477967 -0.2813835 0.032871407 -0.53472966 -0.67910063 0.68508536 0.47924688 0.06917124
0.060535528 0.056131914 0.13865507 -0.11980198 0.15897608 -0.051355913 -0.01220893 0.57131505
-0.16726926 0.06412178 -0.21398902 0.32212403 -0.04912442 0.17013076 -0.15643692 1.4616967
0.02261085 -0.6433092 -0.26374906 0.069986194 0.027788712 -0.2728576 0.16800176 0.02468433
-0.21537817 -0.036051318 -0.7652496 0.023946721 0.36791348 0.23894076 0.8502339 -0.15723982
0.10798712 0.062153213 -0.2808331 0.03441005 0.20194471 -0.039674412 -0.009001276 -0.66129404
-0.148769 0.72560114 -0.12496676 0.062467936 0.05530319 -0.3519872 1.3973807 -0.14393875
2.6125114 -0.020108191 2.744667 0.08966042 -0.009685971 0.15239026 -0.22660898 0.018224528
-0.02429621 -0.0043236883 0.066898145 -0.047838338 -0.1690631 -0.16233666 -0.102336116 0.097465195
-0.0277954 1.2214127 0.6429214 -0.4325159 0.1659996 1.9097514 0.1588504 -0.47039372
-0.20699365 -0.41706586 -0.7822881 -0.59949684 1.1843117 0.05596149 0.063468836 -0.1295218
-0.055554524 0.7875029 -0.54837435 0.05365129 -0.35753936 0.25620922 -0.18681195 0.027550548
0.023619678 -0.1507966 0.09753951 -0.60017437 0.024893016 -0.61080277 -0.410249 -0.13604404
-0.1769146 -0.40418023 -0.4402482 -0.45094377 -0.04329764 0.019804403 1.1206679 -0.34874436
-0.1031944 -0.01804701 -1.2213932 -0.31830865 1.0932746 -0.05143694 1.4529529 0.20610026
0.048535876 0.008606426 -0.17124243 1.0710906 0.18999125 -0.16350193 -0.36680567 0.015884576
-0.0024330635 -0.1342371 -0.036521845 0.03954994 -0.06108765 0.012714438 0.0866688 0.32184038
-0.051040635 -0.003279239 -0.10800156 0.027265146 -0.029123116 -0.2551132 -0.03937206 0.022190958
0.041851297 0.019125737 -0.09742894 -0.37484014 -0.01267167 -0.26456076 0.733297 0.087960824
-0.033695035 -0.057623845 -0.005349666 -0.27794257 0.36691135 0.013617088 0.8996362 0.6935855
0.015298039 0.23298326 0.237959 0.45501485 0.052955948 -0.032596163 0.16026159 0.39754632
-0.23082939 0.03156481 -0.020690598 0.03869967 -0.407264 -0.17490421 -0.039174356 -0.14711185
0.0757096 0.0015295371 0.08086837 0.10151992 -0.16602595 -0.27804002 -0.17646292 -0.4000671
0.57311684 0.06509189 -0.01699303 0.07140843 0.008820316 -0.28107232 0.0255166 0.46145785
0.09664999 0.12055697 0.00022600716 -0.79199123 -0.018003635 0.100599185 -0.031958714 0.1269592
00000000: a53d 203c 0bc8 b3be e14b 2fbe 7fb7 97be
00000010: 5085 c23c 0bf0 e43e 7344 003d 26b1 533e
00000020: 20dc 91bc bc77 cebe 2cb4 bfbc f9dd dfbf
00000030: d912 51bf ab5d 293f a839 4e3c 5ba7 2c3c
00000040: e05f 47bc 6f5d f53f 0af2 d83a 9809 1b3e
00000050: e08d 203e d819 473f 4a05 59be 03b5 9b3d
00000060: 28ad bebe fb08 6cbe 978d e03c 9856 77bd
00000070: 85b6 1e3e 3aa6 63bd 2748 0ebf 3226 40be
00000080: cca0 633d 3c41 a5bc d9c1 5b3e b4e4 ebbd
00000090: 2153 7d3e f158 43bf 1fb1 873f e46a da3e
000000a0: 0c92 263d 52fb 153d e031 32bc c441 373e
000000b0: 8e15 4c3d fcc0 6a3e 5199 0a40 8ef1 be3c
000000c0: afc1 bb3f cc3b f73c 1d8b 193e adbd a83e
000000d0: 373d 8e3e cbb0 b83d 142d 143d e41e 2e3d
000000e0: 3409 593f 8011 90be 2ba4 063d 0be4 08bf
000000f0: 8ad9 2dbf c161 2f3f d95f f53e a7a9 8d3d
00000100: 1af4 773d 94ea 653d 98fb 0d3e be5a f5bd
00000110: a0ca 223e 945a 52bd f707 48bc b441 123f
00000120: a248 2bbe 4852 833d f01f 5bbe 71ed a43e
00000130: b036 49bd c236 2e3e 0031 20be e118 bb3f
00000140: 643a b93c e9af 24bf 1e0a 87be ec54 8f3d
00000150: 27a5 e33c feb3 8bbe a708 2c3e cb36 ca3c
00000160: 188c 5cbe 8caa 13bd 66e7 43bf ea2b c43c
00000170: 285f bc3e e3ac 743e eea8 593f 7a03 21be
00000180: 5a28 dd3d 5e94 7e3d 5bc9 8fbe 8df1 0c3d
00000190: 98ca 4e3e a381 22bd 177a 13bc 914a 29bf
000001a0: e756 18be ffc0 393f 93ee ffbd 61de 7f3d
000001b0: 9985 623d ab37 b4be 5fdd b23f ae64 13be
000001c0: 6333 2740 efb9 a4bc a0a8 2f40 e29f b73d
000001d0: e8b1 1ebc 310c 1c3e 2f0c 68be 9b4b 953c
000001e0: d808 c7bc baad 8dbb e501 893d 22f2 43bd
000001f0: e11e 2dbe 953b 26be 9995 d1bd d59b c73d
00000200: 2eb3 e3bc 4057 9c3f 7f96 243f b972 ddbe
00000210: cdfb 293e bc72 f43f aea9 223e 72d7 f0be
00000220: 25f6 53be a889 d5be 0844 48bf a078 19bf
00000230: 8797 973f e037 653d f3fb 813d 5da1 04be
00000240: 248d 63bd ca99 493f 4362 0cbf 74c1 5b3d
00000250: 660f b7be db2d 833e a24b 3fbe b0b1 e13c
00000260: 0e7e c13c 6d6a 1abe cbc2 c73d 07a5 19bf
00000270: 70ec cb3c 925d 1cbf 280c d2be 214f 0bbe
00000280: 1a29 35be b6f0 cebe 3668 e1be 1ae2 e6be
00000290: de58 31bd d83c a23c 0c72 8f3f 9f8e b2be
000002a0: 9657 d3bd 53d7 93bc 9d56 9cbf 5af9 a2be
000002b0: 6cf0 8b3f 8aaf 52bd 5cfa b93f f20b 533e
000002c0: 8ecd 463d f801 0d3c 2d5a 2fbe 7f19 893f
000002d0: 118d 423e 0d6d 27be f4cd bbbe 5f20 823c
000002e0: 0874 1fbb 7375 09be ee97 15bd 1eff 213d
000002f0: 0b37 7abd 3850 503c 697f b13d 43c8 a43e
00000300: fc0f 51bd 80e8 56bb ec2f ddbd 285b df3c
00000310: 9a93 eebc 339e 82be 9944 21bd d0c9 b53c
00000320: 446c 2b3d 94ad 9c3c d388 c7bd 0ceb bfbe
00000330: d69c 4fbc 8274 87be 5ab9 3b3f ce24 b43d
00000340: ce03 0abd fb06 6cbd 404c afbb 7d4e 8ebe
00000350: cedb bb3e 351a 5f3c 8f4e 663f d28e 313f
00000360: a0a4 7a3c 2a93 6e3e 86ab 733e b5f7 e83e
00000370: 56e8 583d 8e83 05bd 9d1b 243e 318b cb3e
00000380: 8a5e 6cbe 1a4a 013d 547f a9bc 8c83 1e3d
00000390: e884 d0be 171a 33be 4a75 20bd 7da4 16be
000003a0: a20d 9b3d c07a c83a 519e a53d ade9 cf3d
000003b0: b502 2abe 435b 8ebe b2b2 34be 98d5 ccbe
000003c0: c9b7 123f e64e 853d f834 8bbc 953e 923d
000003d0: 1683 103c b6e8 8fbe 3008 d13c 3444 ec3e
000003e0: 6ef0 c53d 93e6 f63d 56fc 6c39 f0bf 4abf
000003f0: 5c7c 93bc f206 ce3d 24e7 02bd 9801 023e

layers.2.bias f4 [128]
0.006410904 0.046894442 0.0063246675 0.0052559283 0.0075031416 0.056745782 -0.028073132 0.034486998
-0.05885276 0.07491304 -0.037757874 0.0122583145 -0.025232492 -0.040474605 0.03232729 0.04881279
-0.017246837 -0.23876438 -0.0140841 0.21528642 -0.0039667822 0.045987196 -0.013640335 0.09483681
0.045285065 -0.0937593 -0.0044090613 0.011145014 -0.02007686 -0.020766653 0.0687207 -0.051907945
0.12063606 0.027788518 0.026741102 0.03146238 0.0972625 -0.05566241 0.01976838 0.03929043
0.03811282 -0.00062397984 0.042517684 0.008680964 -0.0386265 0.049445003 0.066266395 0.058007542
0.029058073 -0.036636315 -0.011441033 0.03735077 -0.006815228 -0.07531401 -0.041481163 0.07306631
0.09162952 0.041005127 -0.07631306 0.017497266 -0.007840844 -0.029501148 0.097586975 0.12061682
0.05951382 0.0005065219 -0.035778686 -0.09470289 0.102150306 0.06958252 -0.046040908 0.010323608
-0.08565377 0.021762153 0.0052753882 -0.10254039 0.011009453 0.024917215 0.047540843 -0.061260864
0.07508873 0.013321568 0.021359483 -0.032933537 0.04318542 0.006348049 0.07072963 0.056589782
0.0042210575 0.075592466 0.052833576 0.046764363 -0.054877225 0.05724771 0.06898707 0.00025903308
-0.032240145 0.048068114 0.12692307 -0.003805044 -0.106511645 -0.0823516 -0.030514557 0.0037777235
-0.082087435 -0.15265079 -0.054163653 0.056094646 -0.19584762 -0.05423532 0.002712743 -0.013197556
0.0745538 0.028748874 -0.052639812 0.10052411 -0.1262852 0.07584965 -0.012806912 0.10103218
-0.0016955605 -0.129899 0.0007162257 0.033251677 0.013060551 -0.031330023 0.018886507 -0.014847005
00000000: 9012 d23b 6314 403d 283f cf3b ec39 ac3b
00000010: eadc f53b 446e 683d a0f9 e5bc 3d42 0d3d
00000020: 970f 71bd 026c 993d 00a8 1abd 19d7 483c
00000030: 5fb4 cebc b3c8 25bd 9f69 043d ecef 473d
00000040: 3d49 8dbc a67e 74be ffc0 66bc 0b74 5c3e
00000050: c8fb 81bb 125d 3c3d b67b 5fbc cd39 c23d
00000060: d57c 393d e004 c0bd e379 90bb 9499 363c
00000070: 3a78 a4bc d41e aabc 70bd 8c3d 6d9d 54bd
00000080: 0a10 f73d bfa4 e33c 2810 db3c b2de 003d
00000090: 9031 c73d 44fe 63bd 4cf1 a13c 00ef 203d
000000a0: 301c 1c3d 9492 23ba 0627 2e3d 9a3a 0e3c
000000b0: d236 1ebd d886 4a3d adb6 873d 5199 6d3d
000000c0: 320b ee3c f60f 16bd 2c73 3bbc 1ffd 183d
000000d0: 4752 dfbb 3b3e 9abd 27e8 29bd caa3 953d
000000e0: 42a8 bb3d fef4 273d 064a 9cbd 6d56 8f3c
000000f0: e276 00bc 64ac f1bc aedb c73d f405 f73d
00000100: c3c4 733d 1cc8 043a ac8c 12bd 97f3 c1bd
00000110: 2e34 d13d 4881 8e3d 6495 3cbd 5a24 293c
00000120: 3e6b afbd 8b46 b23c 2add ac3b b200 d2bd
00000130: fe60 343c 301f cc3c 30ba 423d acec 7abd
00000140: 1fc8 993d b542 5a3c 15fa ae3c 51e5 06bd
00000150: 32e3 303d 4b03 d03b b2da 903d b0ca 673d
00000160: cc50 8a3b 39d0 9a3d 0568 583d fd8b 3f3d
00000170: f1c6 60bd 937c 6a3d 1849 8d3d d5ce 8739
00000180: 3e0e 04bd 12e3 443d 1ff8 013e 0c5e 79bb
00000190: c722 dabd f5a7 a8bd aaf9 f9bc af93 773b
000001a0: 751d a8bd 7d50 1cbe b5da 5dbd 80c3 653d
000001b0: 478c 48be db25 5ebd 46c8 313b 903a 58bc
000001c0: aaaf 983d c282 eb3c d89c 57bd 96df cd3d
000001d0: e850 01be 1057 9b3d 15d4 51bc f6e9 ce3d
000001e0: 923d deba 3e04 05be 18c1 3b3a e932 083d
000001f0: ecfb 553c e953 00bd e0b7 9a3c da40 73bc

layers.4.weight f4 [64, 128]
0.5789269 -0.06544014 -1.5676194 0.65641737 0.025056548 0.007356474 -0.052646432 0.104428194
-2.3118613 0.0109924385 -0.06887117 0.52314734 -0.03222514 0.61062306 -0.022691164 0.0949921
0.29306567 0.12580584 -0.374932 0.03883439 -0.1545666 0.09855254 0.22505595 0.06457118
0.32509145 -0.15218228 0.47573188 -0.3666574 0.21129845 -0.228535 0.024806779 -0.018946199
0.16957764 -0.12225429 0.44329083 -0.1684594 0.07586857 0.050707735 0.41082105 -0.20908791
0.16885175 0.718761 0.3300336 0.033581156 -0.63976634 0.116865076 0.22799923 0.14673592
-0.20700262 -0.10498765 0.41425842 -0.01909334 0.6963908 -1.2286527 -0.042006314 -0.17345369
-0.031624176 0.33527833 -0.04705338 0.33280054 -0.40116957 0.19979617 -0.64300936 0.22302045
0.013506751 -0.5932798 -0.02119626 -0.2434658 0.0063468814 -0.15996118 -0.30041093 0.25434133
-0.44258475 -0.97363627 0.18411678 -1.280629 0.22658324 0.25454563 0.1962648 -0.35645244
0.24250133 0.21983202 -0.06600979 0.5315249 0.21027464 -0.08206934 -0.4099175 -0.6618499
0.107307 -0.3201767 -0.08592243 -0.2695493 -1.501753 0.33666307 0.35107702 0.47343245
0.16223611 -0.17096345 0.105816394 0.33653277 -1.3106542 -0.33966118 0.116948016 -0.17781863
-0.047069915 -1.2351059 -0.56841075 -0.18745264 -2.7925744 -0.025521293 -0.12930392 -1.4051205
0.36824206 0.56202006 -0.07204481 0.2695098 -0.008009089 -0.2577542 0.18723126 0.27538842
-0.3821998 0.56703055 0.119203046 0.25697663 -0.38685635 0.25488862 0.25516203 0.27564466
0.6051977 -0.019382494 -1.476144 0.7312749 0.007085151 0.07267013 0.031484935 -0.013403532
-2.3515365 0.16444798 -0.03228892 0.51915914 -0.054514427 0.5934915 0.06779765 0.010776121
0.23349375 0.24397217 -0.28246602 0.113494426 -0.024717914 0.122403145 0.2178598 -0.07279611
0.19751297 -0.10260808 0.46376464 -0.3129467 0.10999206 -0.40381756 -0.028685268 -0.023339212
0.14742227 -0.30613092 0.47853538 -0.19288959 0.11494006 0.08368301 0.51882786 -0.3170742
0.16684736 0.57205135 0.21523605 -0.06942467 -0.60056555 0.058305647 0.06502982 0.11229436
-0.22617178 -0.06314223 0.5435031 0.014507031 0.6960884 -1.25269 -0.032544386 -0.21486437
-0.08018086 0.40052247 -0.1624256 0.28394273 -0.3421224 0.21137 -0.62695324 0.16691676
0.017102363 -0.55245686 0.034590315 -0.3276692 -0.08091867 -0.052969236 -0.36843026 0.36257407
-0.52064735 -0.9995848 0.1817834 -1.1560693 0.16863821 0.24020332 0.13556805 -0.3220533
0.15686238 0.36351737 -0.050755892 0.53178835 0.11772925 -0.1214483 -0.49249318 -0.6756243
0.10153406 -0.33286333 -0.080526404 -0.3970607 -1.5485924 0.23985198 0.3426306 0.5069254
0.20465755 -0.07763303 -0.0029022791 0.4291556 -1.297619 -0.3213518 0.17802712 -0.20641166
-0.120670214 -1.2607989 -0.6633987 -0.16769087 -2.7386668 -0.02469753 -0.10537867 -1.1043228
0.25481114 0.5466165 0.074838355 0.24822178 0.033900414 -0.23847492 0.2792296 0.11868347
-0.35730103 0.50706834 0.061794143 0.16782284 -0.45331812 0.19012286 0.18206804 0.32642326
00000000: 8e34 143f 7b05 86bd c1a7 c8bf f80a 283f
00000010: 6443 cd3c 940e f13b c9a3 57bd 73de d53d
00000020: 89f5 13c0 a119 343c 540c 8dbd fcec 053f
00000030: 82fe 03bd cb51 1c3f d2e2 b9bc 388b c23d
00000040: b40c 963e 3fd3 003e 16f7 bfbe cf10 1f3d
00000050: b546 1ebe ead5 c93d 1175 663e e53d 843d
00000060: 6372 a63e acd5 1bbe 2193 f33e 85ba bbbe
00000070: 9f5e 583e 1405 6abe 9637 cb3c 0f35 9bbc
00000080: c3a5 2d3e 7560 fabd 04f7 e23e 9f80 2cbe
00000090: fb60 9b3d eab2 4f3d 2357 d23e 241b 56be
000000a0: 79e7 2c3e b900 383f 2afa a83e 658c 093d
000000b0: bac7 23bf f556 ef3d a178 693e f141 163e
000000c0: 7ff8 53be c403 d7bd ae19 d43e a369 9cbc
000000d0: ab46 323f 7e44 9dbf d00e 2cbd d89d 31be
000000e0: 5a88 01bd 9aa9 ab3e 0cbb 40bd d564 aa3e
000000f0: 1966 cdbe 5e97 4c3e 439c 24bf 795f 643e
00000100: 6b4b 5d3c 2fe1 17bf c7a3 adbc 194f 79be
00000110: 80f9 cf3b ddcc 23be 76cf 99be 0739 823e
00000120: 789a e2be 3a40 79bf 1c89 3c3e a7eb a3bf
00000130: 7005 683e ce53 823e a4f9 483e ef80 b6be
00000140: 4552 783e a51b 613e 2430 87bd 0412 083f
00000150: 3c52 573e f813 a8bd b5e0 d1be ff6e 29bf
00000160: c6c3 db3d 33ee a3be 19f8 afbd 5e02 8abe
00000170: 7139 c0bf 1a5f ac3e 5ec0 b33e bd65 f23e
00000180: 3921 263e 0b11 2fbe 44b6 d83d 064e ac3e
00000190: 84c3 a7bf 12e8 adbe 7182 ef3d 1616 36be
000001a0: 62cc 40bd f317 9ebf 5e83 11bf 96f3 3fbe
000001b0: 8ab9 32c0 0812 d1bc 3f68 04be fdda b3bf
000001c0: 398a bc3e 8ce0 0f3f 3b8c 93bd 30fd 893e
000001d0: 8e38 03bc 5cf8 83be 8db9 3f3e b6ff 8c3e
000001e0: b1af c3be ea28 113f ba20 f43d 7192 833e
000001f0: 0912 c6be c380 823e 99a4 823e 4c21 8d3e
00000200: 3dee 1a3f 09c8 9ebc 49f2 bcbf d534 3b3f
00000210: 8e2a e83b 14d4 943d 59f6 003d 7d9a 5bbc
00000220: 937f 16c0 0d65 283e 6341 04bd 9de7 043f
00000230: 854a 5fbd 0fef 173f 7fd9 8a3d 548e 303c
00000240: fc18 6f3e d7d3 793e 639f 90be c46f e83d
00000250: 397d cabc 80ae fa3d a416 5f3e 2016 95bd
00000260: d740 4a3e 2f24 d2bd 8f72 ed3e 8d3a a0be
00000270: 8443 e13d 2dc1 cebe 5efd eabc e031 bfbc
00000280: ddf5 163e 31bd 9cbe 9702 f53e d984 45be
00000290: b265 eb3d ff61 ab3d e7d1 043f 8d57 a2be
000002a0: 09da 2a3e f571 123f d766 5c3e 852e 8ebd
000002b0: aabe 19bf e7d1 6e3d 5b2e 853d 96fa e53d
000002c0: 9399 67be b750 81bd 0523 0b3f e6ae 6d3c
000002d0: d932 323f 2558 a0bf 434d 05bd 6805 5cbe
000002e0: dd35 a4bd 4811 cd3e e652 26be f160 913e
000002f0: ab2a afbe 6171 583e 0280 20bf 3aec 2a3e
00000300: 411a 8c3c d06d 0dbf 93ae 0d3d 42c4 a7be
00000310: b0b8 a5bd 45f6 58bd e4a2 bcbe 4fa3 b93e
00000320: 2549 05bf cae4 7fbf 6d25 3a3e 14fa 93bf
00000330: 7faf 2c3e dcf7 753e 5ad2 0a3e 2ce4 a4be
00000340: 88a0 203e f31e ba3e 69e5 4fbd 4823 083f
00000350: 081c f13d e3b9 f8bd 1128 fcbe b7f5 2cbf
00000360: 17f1 cf3d 106d aabe 07eb a4bd 8a4b cbbe
00000370: 4738 c6bf c29b 753e 476d af3e ddc5 013f
00000380: c091 513e 11fe 9ebd 2a34 3ebb 48ba db3e
00000390: 6118 a6bf 3988 a4be be4c 363e 945d 53be
000003a0: f221 f7bd dc61 a1bf 7fd4 29bf 28b7 2bbe
000003b0: 5146 2fc0 7952 cabc c6d0 d7bd 735a 8dbf
000003c0: 9b76 823e 0fef 0b3f da44 993d da2d 7e3e
000003d0: 29db 0a3d c532 74be 2ff7 8e3e 5210 f33d
000003e0: 29f0 b6be 3bcf 013f db1b 7d3d c0d9 2b3e
000003f0: 5019 e8be 91af 423e 0b70 3a3e f320 a73e

layers.4.bias f4 [64]
0.04062742 0.08686276 0.12265235 -0.021361724 0.038955472 0.06056251 0.100668214 -0.028660657
0.09132347 0.06175542 0.078683205 0.052875407 -0.027236922 0.018347908 0.13719346 -0.079585806
-0.14279422 -0.0056610033 0.104975805 0.09596645 -0.060218923 0.07093202 -0.12434274 0.004495395
0.13098076 0.1007645 -0.122165926 -0.18850292 -0.14355013 -0.35306716 0.049191304 0.08255588
-0.07505822 -0.06889047 0.10535212 -0.4069013 -0.049133126 0.050563004 -0.0050863293 0.06697219
-0.023319343 -0.09581471 0.102521844 0.035249263 0.12184538 0.11583359 0.004129118 0.16334789
0.080905706 0.036382798 0.012678889 0.11722364 0.011027586 -0.0128490785 -0.010088297 -0.06083111
0.09569499 0.12789309 0.030084454 0.06579818 0.0026707326 0.09072038 -0.09338576 -0.10227042
00000000: f068 263d 1ae5 b13d 2831 fb3d c8fe aebc
00000010: c68f 1f3d 6510 783d 232b ce3d c1c9 eabc
00000020: cd07 bb3d 40f3 7c3d a924 a13d e293 583d
00000030: f71f dfbc 5a4e 963c 717c 0c3e e2fd a2bd
00000040: a638 12be f07f b9bb 8efd d63d 0f8a c43d
00000050: 1ea8 76bd cf44 913d 68a7 febd 1b4e 933b
00000060: d21f 063e 9e5d ce3d 2132 fabd e906 41be
00000070: cefe 12be 38c5 b4be d27c 493d 0f13 a93d
00000080: 20b8 99bd 7216 8dbd dac2 d73d 5e55 d0be
00000090: d13f 49bd 271b 4f3d 39ab a6bb b728 893d
000000a0: 3508 bfbc 813a c4bd f9f6 d13d 8861 103d
000000b0: 128a f93d 293a ed3d 8d4d 873b ab44 273e
000000c0: e4b1 a53d 2106 153d 1dbb 4f3c f312 f03d
000000d0: 0cad 343c f184 52bc 6249 25bc 0b2a 79bd
000000e0: bcfb c33d 68f6 023e ac73 f63c 32c1 863d
000000f0: 7507 2f3b 9bcb b93d 0941 bfbd 2773 d1bd

layers.6.weight f4 [1, 64]
0.8675847 0.7245642 -1.5176258 0.7044312 -11.075902 0.7218377 -2.1485956 0.6571482
0.8266619 0.8563173 -2.0194001 -8.722145 -3.1849003 0.9892884 -1.4552494 -4.157736
-6.140081 -10.407829 0.7849114 -4.6382375 -6.749132 -10.059297 -9.012433 0.88817513
0.8354673 0.72370815 -9.814606 -7.9368052 -13.295456 5.375964 -4.946972 0.8710682
-1.8388256 -2.3884807 -1.8323544 5.0038767 -6.2298717 0.09412967 -2.7641048 0.85582274
0.7976899 3.103219 -3.113288 -4.1900206 -2.4096012 -1.4836575 0.7056547 -6.4849586
0.8478363 0.8019345 0.79886365 0.721221 -1.8524225 0.6201121 -2.8943768 0.11380465
-3.8930128 -1.4609826 0.8105554 -2.1575048 -2.5339115 0.9227153 0.048443176 -9.978764
00000000: 081a 5e3f 0a7d 393f 9041 c2bf 9a55 343f
00000010: e536 31c1 5bca 383f 9782 09c0 dd3a 283f
00000020: 1da0 533f 9c37 5b3f da3d 01c0 e88d 0bc1
00000030: 68d5 4bc0 0142 7d3f 9d45 babf 2c0c 85c0
00000040: 8b7b c4c0 7886 26c1 f4ef 483f 716c 94c0
00000050: e4f8 d7c0 e1f2 20c1 ed32 10c1 725f 633f
00000060: 2fe1 553f f044 393f a008 1dc1 4ffa fdc0
00000070: 30ba 54c1 e607 ac40 984d 9ec0 53fe 5e3f
00000080: a35e ebbf dedc 18c0 978a eabf c21f a040
00000090: 1c5b c7c0 0ec7 c03d 18e7 30c0 3317 5b3f
000000a0: 6835 4c3f 249b 4640 1c40 47c0 a614 86c0
000000b0: e836 1ac0 7de8 bdbf c9a5 343f c884 cfc0
000000c0: cd0b 593f 944b 4d3f 5482 4c3f f1a1 383f
000000d0: 2e1c edbf abbf 1e3f 783d 39c0 6a12 e93d
000000e0: 1f27 79c0 7a01 bbbf 8f80 4f3f 8f14 0ac0
000000f0: 9b2b 22c0 1237 6c3f 5a6c 463d 04a9 1fc1
