best_model.pth (torch, 186596 bytes, 7 tensors)

layers.0.weight f4 [256, 17]
0	0x3da98fdd	0.08279393
1	0x3e3a79e4	0.1821056
2	0xbbe5f183	-0.007017316
3	0xbe65a241	-0.22425176
4	0xbdd27c9e	-0.10277675
5	0xbdc691e5	-0.09695796
6	0x3e6a5aed	0.22886248
7	0x3e256ce0	0.16154814
8	0xbe42b08c	-0.1901266
9	0x3e25f095	0.16205056
10	0xbe32f698	-0.1747688
11	0xbcbb75ee	-0.022883382
12	0xbe3b7ab2	-0.18308523
13	0x3e6587d3	0.22415094
14	0xbb9f5483	-0.0048623695
15	0x3d8fb024	0.07016018
16	0xbd055b16	-0.03255757
17	0xbd5f9af4	-0.054591134
18	0xbe4eb40b	-0.20185868
19	0xbd9bd9bf	-0.07609891
20	0x3b47894e	0.003044683
21	0x3ddc6d71	0.10763062
22	0x3dd5642f	0.10419499
23	0x3e1892c4	0.14899737
24	0xbe4ebc18	-0.2018894
25	0x3e3cae56	0.18425879
26	0xbdd9c555	-0.10633341
27	0xbe422c71	-0.18962266
28	0xbd6016ba	-0.054709174
29	0xbe4e41b3	-0.2014225
30	0x3e02ea9f	0.12784813
31	0x3e724c7d	0.2366199
32	0x3d6af687	0.057364013
33	0x3d9afb08	0.07567412
34	0x3d658fd8	0.056045383
35	0xbe0f9871	-0.14022996
36	0xbe0ee258	-0.13953531
37	0xbddb0b34	-0.10695496
38	0xbe18f7e6	-0.14938316
39	0x3d88f0b0	0.066865325
40	0xbc81f4f8	-0.01586388
41	0x3d909e14	0.07061401
42	0xbd923cf6	-0.071405336
43	0xbd579a70	-0.052637517
44	0x3dbb9a74	0.09160319
45	0x3e219a86	0.15781602
46	0xbe2a4002	-0.1662598
47	0xbe1568ac	-0.1459071
48	0x3dab2638	0.08356899
49	0xbdaa7adc	-0.08324215
50	0xbe26448c	-0.16237086
51	0xbe19dc29	-0.1502539
52	0xbcf461f8	-0.029831871
53	0x3d4a7089	0.04942373
54	0x3e792882	0.24331859
55	0x3d9b27ab	0.075759254
56	0x3d05a55e	0.03262841
57	0xbdcabcd1	-0.09899295
58	0x3e38970f	0.18026374
59	0xbe1dacd2	-0.15397957
60	0xbd294628	-0.04132667
61	0x3e78dab2	0.24302176
62	0xbd6ec4b8	-0.058293074
63	0x3dcac17c	0.099001855
64	0x3e30b5e3	0.17256884
65	0xbe2d3733	-0.16915588
66	0x3e1576d9	0.14596118
67	0xbe0b84e5	-0.13624914
68	0xbdcc427c	-0.099736184
69	0x3e635797	0.22201382
70	0x3dcaf6e5	0.09910373
71	0xbcb5473b	-0.022128692
72	0x3d1455f3	0.03621478
73	0x3e305dd8	0.17223299
74	0x3e02d3de	0.12776133
75	0x3e62c082	0.22143748
76	0xbd997cca	-0.07494505
77	0x3e084446	0.13307294
78	0x3e36de4a	0.17858234
79	0x3ca1bb69	0.019742684
80	0x3e0bf25c	0.13666672
81	0x3e3c51c5	0.18390568
82	0xbe37ef7a	-0.17962447
83	0xbe00a9f1	-0.12564828
84	0x3e41f585	0.18941315
85	0xbdb9e765	-0.09077338
86	0x3d0d5e6d	0.03451388
87	0xbe14aca5	-0.14518984
88	0x3e1eeaed	0.15519305
89	0x3e78bbf6	0.24290451
90	0xbd9aff6a	-0.075682476
91	0x3df7ab0e	0.12093173
92	0x3df739f6	0.12071602
93	0x3e021a12	0.12705258
94	0xbdcabf0b	-0.0989972
95	0x3cf5d90f	0.030010728
96	0xbe42274f	-0.18960308
97	0xbde784f7	-0.11304658
98	0xbe4acfc0	-0.19805813
99	0x3e818f42	0.2530461
100	0xbd952d54	-0.07284036
101	0xbe5a1cca	-0.21300045
102	0xbd9d3ed1	-0.07677997
103	0xbdb79c8c	-0.08965406
104	0x3e3755bf	0.17903803
105	0xbd7a9b93	-0.061183523
106	0xbcbbc32a	-0.02292021
107	0x3e192f4a	0.14959446
108	0x3e5164b0	0.20448565
109	0xbd9e7ec1	-0.0773902
110	0x3ca5a5c8	0.020220652
111	0xbdb6cf38	-0.089262426
112	0x3e12a15e	0.14319369
113	0x3e661ca8	0.22471869
114	0x3e386dcc	0.18010634
115	0xbe3c3811	-0.18380763
116	0x3e583319	0.21113242
117	0x3e58a41e	0.21156356
118	0x3e89f01f	0.2694101
119	0xbde5dfb4	-0.112243086
120	0xbe5fb443	-0.21846108
121	0x3c98d4b0	0.018656105
122	0x3c844550	0.016146332
123	0xbe0cb38e	-0.1374037
124	0x3d5a0518	0.053227514
125	0x3cfea600	0.031085014
126	0x3e055fd0	0.13024831
127	0xbc276c50	-0.010218695
128	0xbc339100	-0.010959864
129	0xbc5eb8e0	-0.013593882
130	0xbd9ae436	-0.07563059
131	0xbdd72f5c	-0.1050708
132	0x3e32b6d0	0.1745255
133	0x3c8de360	0.017320335
134	0xbd877f1c	-0.06616041
135	0xbbbcda60	-0.005763337
136	0xbe5bb357	-0.21455131
137	0x3e1ecbf1	0.15507485
138	0x3e138d5a	0.1440939
139	0x3e297a58	0.16550577
140	0xbe401dc7	-0.18761359
141	0xbd9079ad	-0.07054458
142	0x3c82f21b	0.015984586
143	0x3dfcf973	0.12352266
144	0x3d8dfa43	0.06932499
145	0xbe0def5b	-0.13860838
146	0x3e7b35a5	0.24532183
147	0xbd56aa8f	-0.05240875
148	0x3d10c382	0.0353427
149	0xbd0a5460	-0.033771873
150	0xbd996262	-0.07489468
151	0x3de12087	0.10992532
152	0x3cab6399	0.020921515
153	0xbe050f1d	-0.12994047
154	0xbd505118	-0.050858587
155	0xbe640e69	-0.22271122
156	0x3e767072	0.24066332
157	0x3e1c237c	0.15247911
158	0x3cd521a0	0.02601701
159	0x3d17b1c0	0.03703475
160	0xbd0705c8	-0.032964498
161	0xbd82b4b0	-0.0638212
162	0x3e574e64	0.21025997
163	0x3e13bff0	0.14428687
164	0xbcd94670	-0.026522845
165	0xbd4f2560	-0.050572753
166	0xbe1018e0	-0.14071989
167	0xbe1d2d80	-0.15349388
168	0xbdbce6c4	-0.092237025
169	0xbe085a24	-0.13315636
170	0x3d9910a6	0.074738786
171	0x3e531d87	0.20616733
172	0xbcac9aa3	-0.02106983
173	0xbe460b7c	-0.19340318
174	0x3e41b6e6	0.18917426
175	0x3e89dc69	0.26925972
176	0x3e41b9c3	0.18918519
177	0x3c5a441c	0.013321903
178	0x3e060de9	0.13091244
179	0xbe28d051	-0.16485716
180	0xbe41f2f8	-0.18940341
181	0xbde28cae	-0.11061989
182	0x3e568ab4	0.20951349
183	0xbdba6684	-0.091015846
184	0xbe027309	-0.12739195
185	0xbbaa288d	-0.0051928223
186	0x3e4a2e48	0.19744217
187	0xbe4d48fd	-0.20047374
188	0xbe55ece7	-0.20891152
189	0x3e489aaf	0.19590257
190	0x3c6a03ba	0.014283115
191	0xbe00c830	-0.12576365
192	0x3d75d077	0.06001326
193	0x3e6065e7	0.21913873
194	0x3d5573a5	0.05211224
195	0x3e81ce1f	0.2535257
196	0x3daa19a2	0.0830567
197	0xbd3ccdc2	-0.046094663
198	0xbe2b9220	-0.16754961
199	0xbd201303	-0.03908063
200	0x3ddb0dc7	0.10695987
201	0x3e151d8b	0.14562051
202	0x3e216d97	0.15764461
203	0x3e1ad4d7	0.15120254
204	0xbe38c225	-0.1804281
205	0xbd4402e0	-0.047854304
206	0xbd8c06e2	-0.0683725
207	0x3e42f64b	0.19039266
208	0xbe07161d	-0.1319203
209	0xbcf95784	-0.030437239
210	0x3e818cf9	0.25302866
211	0xbc95d95e	-0.018292125
212	0x3e45f20b	0.19330613
213	0xbc97eda4	-0.018545933
214	0x3dd7a046	0.105286166
215	0x3e6d4971	0.23172547
216	0x3db7b3d4	0.08969846
217	0xbd7ca453	-0.06168015
218	0xbc458ebe	-0.012057958
219	0x3d6bf99e	0.0576111
220	0xbcb9e1bd	-0.022690648
221	0xbbbd1a35	-0.0057709464
222	0xbd544d3e	-0.051831476
223	0x3e1ac184	0.15112883
224	0xbe58800b	-0.21142595
225	0xbe12f898	-0.14352643
226	0xbe3734ed	-0.17891283
227	0xbe3edc72	-0.1863878
228	0x3e232120	0.15930605
229	0x3dfcab3b	0.12337347
230	0x3e1dfc81	0.15428354
231	0xbd753b3a	-0.059870936
232	0xbe0ce695	-0.13759835
233	0x3e4eb2f7	0.20185457
234	0xbc4e1475	-0.0125781195
235	0xbd6369ad	-0.055520702
236	0x3e775ccd	0.24156494
237	0xbe0b6d8f	-0.13616012
238	0xbe61e3c5	-0.22059543
239	0x3e4ebf24	0.20190102
240	0x3d1044b2	0.035221763
241	0x3e82e6e5	0.25566784
242	0x3d6d6918	0.057961553
243	0x3ceae5b1	0.028673979
244	0x3b37f1e6	0.0028067767
245	0x3e0b4911	0.13602091
246	0xbe05066d	-0.12990732
247	0x3dac041d	0.08399222
248	0x3e28a156	0.16467795
249	0xbe01b425	-0.12666376
250	0x3e0446b0	0.1291759
251	0xbe0b963e	-0.13631532
252	0x3e24fc95	0.16111977
253	0x3c992606	0.018694889
254	0x3bfaecec	0.007657638
255	0xbe34d465	-0.17659147

layers.0.bias f4 [256]
0	0x3e352fae	0.1769397
1	0x3d5a7d00	0.053341866
2	0xbe65d691	-0.22445132
3	0xbe3c1834	-0.18368608
4	0x3e44131c	0.19147915
5	0xbd91d04c	-0.071198076
6	0x3e839247	0.25697538
7	0xbe156faa	-0.14593378
8	0x3e253d8f	0.16136764
9	0xbda21848	-0.079147875
10	0xbe3e1ec2	-0.1856642
11	0xbd390dc5	-0.045179147
12	0xbdb05d8f	-0.08611595
13	0x3dda99bc	0.10673854
14	0xbc4bade3	-0.012431595
15	0xbe7681c5	-0.2407294
16	0xbb481a0b	-0.00305331
17	0x3cf42807	0.029804243
18	0x3ba0e552	0.0049101496
19	0x3e5cfd33	0.21580963
20	0xbb29d180	-0.0025912225
21	0x3dc6f51e	0.09714721
22	0xbda43ed0	-0.08019793
23	0x3e109642	0.14119819
24	0xbe715c2c	-0.23570317
25	0x3d1fc5e8	0.039007097
26	0x3e23b053	0.15985231
27	0x3e58414b	0.21118657
28	0x3bdec238	0.006798055
29	0xbd5f0f07	-0.05445769
30	0x3de815a8	0.113322556
31	0xbe2c1ec1	-0.16808607
32	0xbddafffd	-0.10693357
33	0xbe0b4441	-0.13600256
34	0x3e4e1271	0.20124222
35	0xbda6c500	-0.081430435
36	0x3e587a52	0.21140411
37	0xbe099184	-0.13434416
38	0x3e618967	0.22025071
39	0xbe71b77e	-0.23605153
40	0xbe781132	-0.2422531
41	0xbbb6f600	-0.0055835247
42	0x3dde7096	0.10861318
43	0x3b210114	0.0024567293
44	0x3db0cfa5	0.08633355
45	0xbe281999	-0.16416015
46	0x3e03090c	0.1279642
47	0x3dd92fb3	0.10604801
48	0x3c8bf5e8	0.01708503
49	0xbda9a81d	-0.08284018
50	0x3dfc49f4	0.12318793
51	0x3d22423b	0.039613944
52	0x3d3199f9	0.04335973
53	0x3e5df8db	0.21676962
54	0xbe053a19	-0.13010444
55	0xbe01e501	-0.12685014
56	0x3e4c1d2e	0.19933006
57	0xbe2aa6fb	-0.1666526
58	0x3e2696bf	0.16268443
59	0xbe295302	-0.16535571
60	0xbe1357f4	-0.1438902
61	0xbd08e901	-0.033425335
62	0xbd88b0e4	-0.06674364
63	0xbdf4ff16	-0.11962716
64	0x3d71d826	0.059044026
65	0x3d239a2b	0.039941948
66	0xbe022bed	-0.12712069
67	0xbd7caef4	-0.061690286
68	0xbd0cf3e2	-0.034412272
69	0x3d512e10	0.05106932
70	0xbe62718f	-0.22113632
71	0x3da53a79	0.080677934
72	0xbc6e0604	-0.014527801
73	0xbda9f648	-0.082989275
74	0x3d2902a7	0.041262295
75	0x3d5cf912	0.05394847
76	0x3e5ba84e	0.21450922
77	0x3d44143c	0.04787086
78	0xbcea8375	-0.028627137
79	0xbde12df8	-0.10995096
80	0x3daa72e4	0.08322695
81	0x3de0dc38	0.109795034
82	0x3d7c671f	0.06162178
83	0x3d98c985	0.07460312
84	0x3e08c347	0.13355742
85	0xbbb6cb81	-0.005578459
86	0xbe534e2e	-0.20635292
87	0xbe3fca51	-0.18729521
88	0x3c096120	0.008384973
89	0x3de38941	0.111101635
90	0x3df8218d	0.12115774
91	0x3e5f55cd	0.21810074
92	0x3d3d80e2	0.04626549
93	0xbd987ec5	-0.07446054
94	0x3e40e2e8	0.18836558
95	0xbe5645e2	-0.20925096
96	0x3e81388e	0.2523846
97	0xbe3c8e99	-0.18413772
98	0x3dab99c4	0.08378938
99	0x3d771771	0.06032509
100	0xbdc79817	-0.09745806
101	0x3e7b722c	0.24555272
102	0xbe4e3af5	-0.20139678
103	0xbd595212	-0.053056784
104	0x3e8100ce	0.25195926
105	0xbd815eb6	-0.06316893
106	0xbd71eaea	-0.059061922
107	0x3e304ca0	0.1721673
108	0x3cd531a7	0.026024653
109	0x3d9ce7af	0.07661378
110	0x3e783b6c	0.24241418
111	0xbe45738e	-0.19282362
112	0x3d2ff695	0.04295977
113	0x3e34313a	0.17596903
114	0xbe086e28	-0.13323271
115	0x3dae854a	0.085215166
116	0xbe30090f	-0.17190956
117	0xbe13858e	-0.14406416
118	0x3dd9ca0f	0.10634243
119	0xbd21c702	-0.03949643
120	0x3e3573eb	0.1772
121	0x3e17f07c	0.14837831
122	0xbe5aa313	-0.2135127
123	0x3e377ca6	0.17918643
124	0x3df03cd1	0.1173035
125	0xbe6aa617	-0.22914921
126	0xbe5ff68b	-0.21871392
127	0x3da1e623	0.07905223
128	0xbde1e78a	-0.11030491
129	0x3e00b9ab	0.12570827
130	0xbdb8219a	-0.08990784
131	0xbcad0018	-0.021118209
132	0xbdfc1a05	-0.1230965
133	0x3e5b1a2d	0.21396704
134	0xbe77df3f	-0.24206255
135	0xbbe7eef5	-0.0070780464
136	0x3ccb0324	0.024781771
137	0xbd73a722	-0.059485562
138	0x3db55656	0.08854358
139	0xbe546acc	-0.20743865
140	0xbdad47d8	-0.08460969
141	0xbe1e50a6	-0.15460452
142	0xbca66e8c	-0.020316385
143	0x3d7a49d3	0.06110556
144	0xbd13c251	-0.036073986
145	0x3cfa6cf1	0.030569525
146	0x3df2ad5d	0.11849473
147	0xbc031fbe	-0.008003173
148	0x3e26cf4a	0.16290012
149	0xbe274743	-0.16335778
150	0x3da8d991	0.082446225
151	0xbdd9d2d8	-0.106359184
152	0x3e1c679c	0.15273899
153	0xbe20e1b4	-0.15711099
154	0x3d8361ff	0.06415176
155	0xbe4bf365	-0.19917066
156	0xbcf9e15f	-0.030502973
157	0x3e016a2e	0.1263816
158	0x3c9536e4	0.01821465
159	0xbe73ef3f	-0.23821734
160	0xbd02dd04	-0.03194906
161	0x3e51aff4	0.20477277
162	0xbe214764	-0.1574989
163	0xbe5df37b	-0.21674912
164	0xbe3ddb7e	-0.18540761
165	0x3bf909c6	0.007600042
166	0x3dce2ef1	0.10067547
167	0xbd62d684	-0.05538036
168	0x3e076605	0.13222511
169	0x3daebb55	0.085318245
170	0xbe602f3d	-0.2189302
171	0xbe622da7	-0.22087727
172	0xbd2888fd	-0.041146267
173	0xbe63d980	-0.22250938
174	0xbe298cdd	-0.16557641
175	0x3d3e09c1	0.04639602
176	0xbcb60223	-0.022217816
177	0xbdd38f28	-0.10330039
178	0xbe31b10e	-0.17352697
179	0xbdd4778c	-0.10374364
180	0xbe028fd9	-0.12750186
181	0x3cf75170	0.0301902
182	0xbbe7bf02	-0.0070723305
183	0xbe2300ea	-0.15918317
184	0xbd87c1e9	-0.06628782
185	0xbe25ccda	-0.16191426
186	0x3e0883a5	0.13331468
187	0xbe10042d	-0.14064093
188	0x3dcc7feb	0.09985336
189	0xbd437060	-0.04771459
190	0x3e7ddff6	0.24792466
191	0x3e4a2ffc	0.19744867
192	0xbe0a9050	-0.13531613
193	0x3e1cf3ee	0.15327427
194	0x3de9f5d0	0.11423838
195	0x3e19fbe1	0.1503749
196	0xbdc45b40	-0.09587717
197	0x3de9a422	0.11408259
198	0x3e05cf02	0.13067248
199	0xbe24c20b	-0.16089647
200	0xbdad5400	-0.08463287
201	0xbd2928a0	-0.04129851
202	0x3d9c77ae	0.076400146
203	0x3e635af4	0.22202665
204	0x3da78670	0.08179939
205	0x3e353c90	0.17698884
206	0xbda348a3	-0.07972839
207	0xbe436529	-0.19081558
208	0xbcba06c0	-0.022708297
209	0xbe5fabb7	-0.21842848
210	0x3e83dd5f	0.2575483
211	0x3da843f6	0.082160875
212	0xbdf7da23	-0.12102153
213	0xbe3d937b	-0.1851329
214	0x3d461149	0.04835633
215	0xbe192756	-0.14956412
216	0x3e502fcc	0.20330733
217	0xbe78148c	-0.24226588
218	0x3dc7cd66	0.097559735
219	0xbd9a5ceb	-0.07537254
220	0x3e448db7	0.19194685
221	0x3e168bd8	0.14701784
222	0xbdfe9804	-0.124313384
223	0x3e69a5da	0.22817174
224	0x3e1cf490	0.15327668
225	0xbe62b6d0	-0.2214005
226	0xbb6ddce5	-0.0036294993
227	0xbd8e6e7e	-0.069546685
228	0x3bcb90e7	0.006212342
229	0x3e900368	0.281276
230	0xbe3064c0	-0.17225933
231	0xbdb75a86	-0.08952813
232	0x3e83c13d	0.25733367
233	0x3e181e51	0.14855315
234	0xbcb05e08	-0.021529213
235	0x3e18a1b6	0.14905438
236	0x3e4a1e5e	0.19738147
237	0x3dd2a5c8	0.102855265
238	0x3c191f13	0.009345788
239	0xbe0d69ac	-0.13809842
240	0x3db1ce29	0.086819
241	0xbdcbba58	-0.099476516
242	0x3dd672c9	0.10471112
243	0xbe5e608f	-0.21716522
244	0xbe20a266	-0.1568695
245	0xbe5be5f0	-0.21474433
246	0x3e72339f	0.23652504
247	0x3dcb9797	0.09941023
248	0xbe334e60	-0.17510366
249	0x3da0095d	0.07814286
250	0xbe07a439	-0.1324624
251	0xbd5db0e2	-0.054123767
252	0xbde294b6	-0.110635206
253	0x3e1b3790	0.15157914
254	0x3e5c9d4f	0.21544383
255	0x3d8dfdb6	0.06933157

layers.2.weight f4 [128, 256]
0	0xbd2b429e	-0.041811578
1	0xbccf2862	-0.02528781
2	0xbcaf851c	-0.021425776
3	0xbcdf72ed	-0.02727648
4	0x3d19bc40	0.037533045
5	0xbd36c2c4	-0.044619337
6	0xbd0d4557	-0.034489956
7	0x3c306638	0.010766558
8	0x3d6e48e2	0.058174975
9	0xbd3136f6	-0.043265305
10	0x3c4f0058	0.012634359
11	0x3d73d12c	0.059525654
12	0x3db4cb5a	0.08827849
13	0xbca9a1df	-0.020707069
14	0x3d22c006	0.03973391
15	0xbc863654	-0.016383328
16	0xbb42669f	-0.0029663218
17	0x3c76dcad	0.015067262
18	0x3d22570b	0.039633792
19	0xbcafd2ad	-0.021462763
20	0xbcdc14f4	-0.02686546
21	0x3c004640	0.007829249
22	0x3c74374f	0.014905765
23	0xbc917d41	-0.017759921
24	0xbcfa6208	-0.030564323
25	0xbcde9774	-0.027171828
26	0x3d950485	0.07276253
27	0xbcb94f17	-0.02262072
28	0x3d5ed589	0.05440286
29	0xbc2a8cfb	-0.010409589
30	0x3d99be8d	0.07507048
31	0x3d3567c4	0.04428841
32	0x3d5bae84	0.053633228
33	0x3ce7049a	0.028200436
34	0x3cffd1dd	0.031228
35	0xbb701160	-0.003663145
36	0x3d78214c	0.06057863
37	0xbb65cf00	-0.0035066009
38	0x3c647aee	0.013945324
39	0x3d1b4cf8	0.0379152
40	0x3d0556f0	0.032553613
41	0x3cc0d93c	0.023541085
42	0xbce81afd	-0.028333182
43	0xbd2d941d	-0.04237758
44	0x3cf8bb68	0.0303628
45	0xbb97f49e	-0.004637315
46	0x3cea3d6b	0.02859374
47	0xbc96e80c	-0.018421195
48	0x3cd92431	0.026506515
49	0x3adbf0b6	0.0016780111
50	0x3d52f21a	0.051500417
51	0x3c783cbf	0.015151202
52	0x3d908b3a	0.07057805
53	0x3d86b473	0.06577387
54	0x3cd56fa6	0.026054215
55	0xbca11b2f	-0.019666282
56	0x3c96c1c6	0.018402945
57	0xbd25dc67	-0.040493395
58	0xbbc77530	-0.006086968
59	0x3c525d92	0.012839692
60	0x3db775e3	0.08958032
61	0x3cc00d6f	0.023443906
62	0x3d1ce13e	0.038300745
63	0xbcfe9c3b	-0.031080356
64	0x3da94c47	0.08266502
65	0x3d0d28f1	0.034462873
66	0xbc61cf3a	-0.013782317
67	0xbd3dd3dc	-0.046344623
68	0x3d8df724	0.06931904
69	0x3d902a53	0.07039323
70	0xbd45aede	-0.04826247
71	0x3d6e3cc4	0.05816342
72	0xbd1d6c14	-0.03843315
73	0xbca9a737	-0.020709617
74	0xbd3da35e	-0.046298377
75	0xbd0f5ee9	-0.035002623
76	0x3c59d31f	0.013294964
77	0x3cf76b15	0.030202428
78	0x3d834b94	0.064109
79	0xbcca8064	-0.024719425
80	0xbcdf28be	-0.027241107
81	0x3d326ba2	0.043559678
82	0xbb13777c	-0.0022501638
83	0x3d45fc81	0.04833651
84	0x3d9145c2	0.07093383
85	0x3cfdf7d4	0.031001963
86	0x3ce7e42b	0.028307041
87	0x3daa0aae	0.08302818
88	0x3cea7634	0.028620817
89	0x3bf3ed12	0.0074440325
90	0x3d015d40	0.03158307
91	0x3b3be225	0.0028668728
92	0x3cdc0303	0.026856905
93	0x3d5dcbc6	0.05414941
94	0xbce37e7b	-0.027770272
95	0xbd3b2049	-0.045685086
96	0xbd57c3ad	-0.052676845
97	0x3c23439d	0.009964851
98	0xbd3d46d0	-0.04621011
99	0xbb388c21	-0.0028159695
100	0x3caefaee	0.021359887
101	0x3d3ab472	0.045582242
102	0xbd5ea8d3	-0.054360222
103	0x3c825328	0.015908793
104	0x3cae9966	0.02131338
105	0xbcab90f0	-0.020943135
106	0x3c080767	0.008302546
107	0xbbfa1833	-0.0076322793
108	0xbd7a9cd6	-0.061184727
109	0xbd2e07a9	-0.042487774
110	0x3caa4842	0.020786408
111	0x3c9a8867	0.01886387
112	0x3d79e32e	0.06100767
113	0x3bba6e17	0.0056893933
114	0xbd00fe23	-0.031492364
115	0x3df55e04	0.11980823
116	0x3db07f3c	0.08618018
117	0xbd2370ac	-0.039902374
118	0x3cf73372	0.030175898
119	0x3c1803de	0.009278266
120	0x3c4a7509	0.012357005
121	0x3d882e0a	0.06649406
122	0x3d47e36c	0.04880087
123	0x3cc4c4bb	0.02401959
124	0x3d7ed043	0.062210333
125	0x3d013bce	0.031551175
126	0xbc73b9cf	-0.014875843
127	0x3d901e81	0.07037068
128	0x3d8761d3	0.06610455
129	0x3d1a96d8	0.037741512
130	0xbd5bc70a	-0.053656615
131	0xbd782b2e	-0.060588054
132	0x3a985351	0.001162151
133	0xbcfe421e	-0.031037387
134	0x3cb179bc	0.021664493
135	0x3d92e87f	0.07173251
136	0xbb18aae6	-0.0023295223
137	0x3c180402	0.009278299
138	0x3d77fd9b	0.06054459
139	0x3d4e449c	0.0503584
140	0xbcecc2d8	-0.028901502
141	0x3c9072c8	0.017632857
142	0xbc9ec9d5	-0.01938335
143	0x3d967877	0.073471956
144	0x3d55d79a	0.052207567
145	0x3d2fb05c	0.0428928
146	0x3d9b8012	0.07592787
147	0x3d54ace4	0.051922694
148	0xbaf62780	-0.0018780082
149	0x3d1f382b	0.038871925
150	0x3ba1149f	0.0049157883
151	0xbd4e371d	-0.05034553
152	0xbd0de878	-0.034645528
153	0x3b6d6b40	0.0036227256
154	0x3c2e44f2	0.010636555
155	0xbbd80e76	-0.0065935208
156	0x3d4106ee	0.04712575
157	0xbb8a413d	-0.004219203
158	0x3d721862	0.059105285
159	0xbc4b8bf4	-0.012423504
160	0xbd6c06fc	-0.05762385
161	0x3dad98ab	0.08476385
162	0xbcb04bb0	-0.021520466
163	0xbc1c5186	-0.009540921
164	0x3c7f4ef0	0.015582785
165	0xbd2c99f4	-0.04213901
166	0xbc4ef82f	-0.012632414
167	0xbd5b9ad4	-0.053614452
168	0x3d8d9671	0.0691346
169	0x3cd3b9ba	0.025845397
170	0xbc1e8c1a	-0.0096769575
171	0xbaa25342	-0.0012384432
172	0x3d4d5f4c	0.05013971
173	0xbd7be78f	-0.06150013
174	0x3d6e15cc	0.058126256
175	0x3c4530cb	0.012035559
176	0x3d90b2cd	0.070653535
177	0xbd0c5056	-0.0342563
178	0xbd72cc0c	-0.059276626
179	0x3d65eb4b	0.056132596
180	0xbca8516a	-0.020546634
181	0xbd4e6e3c	-0.050398096
182	0x3c66c529	0.014085093
183	0x3d56f673	0.052481126
184	0x3cc1b027	0.023643566
185	0x3c2e8d15	0.010653754
186	0x3ccc435b	0.024934461
187	0x3c978ee4	0.018500753
188	0x3d1b657b	0.037938576
189	0xbc29a990	-0.010355368
190	0xbccc2935	-0.024921993
191	0xbd45f9b3	-0.048333835
192	0x3d4a974f	0.049460705
193	0x3d8d861d	0.06910346
194	0xbc119f28	-0.008888043
195	0x3d72ffb5	0.059325892
196	0xbd72aee4	-0.05924882
197	0x3c25f4e9	0.010129192
198	0xbce80251	-0.028321417
199	0xbbce1470	-0.0062890574
200	0x3ca89374	0.020578124
201	0xbca6d639	-0.020365821
202	0x3d7de0bf	0.061981913
203	0x3d6271a1	0.055284146
204	0x3cf1eed9	0.029532837
205	0x3d8df472	0.0693139
206	0x3df4324a	0.119236544
207	0x3d1a9a3f	0.037744757
208	0x3d410408	0.047122985
209	0xbc696a6f	-0.014246567
210	0xbd4a171e	-0.049338453
211	0xbcc9bcdc	-0.024626188
212	0xbc636190	-0.013878241
213	0x3c099d51	0.008399324
214	0xbd3af974	-0.045648053
215	0xbd231b00	-0.03982067
216	0x3ced29fe	0.028950687
217	0xbd06fcaa	-0.032955803
218	0x3cac4d21	0.021032872
219	0xbd5fd6a9	-0.054648075
220	0x3c4ecf44	0.012622658
221	0xbd1554aa	-0.036457695
222	0xbd513377	-0.05107447
223	0x3cd81597	0.026377482
224	0x3d002bbe	0.031291716
225	0x3d753512	0.059865065
226	0xbd808f8b	-0.06277379
227	0x3db20a3a	0.08693357
228	0x3dea1d2a	0.11431344
229	0x3dcc8b78	0.09987539
230	0x3c91f600	0.017817497
231	0xbccafce8	-0.024778798
232	0xbc940229	-0.018067436
233	0x3d71338f	0.05888706
234	0xbc11ae21	-0.008891613
235	0xbaefa7da	-0.0018284277
236	0x3d1263d7	0.035739746
237	0x3d70a6d1	0.05875284
238	0x3dd51af2	0.1040553
239	0x3d1f6d14	0.038922384
240	0xbd43490e	-0.047677092
241	0x3d69530c	0.056963965
242	0xbd10862f	-0.035284217
243	0xbc9384c1	-0.018007638
244	0x3d49d8c2	0.049278982
245	0xbd1c4cb1	-0.038159076
246	0xbc31f896	-0.01086249
247	0x3cce4a2b	0.02518185
248	0xbd58b3aa	-0.052905716
249	0x3d685fe4	0.056732073
250	0x3c1211c1	0.008915366
251	0xbceb406e	-0.028717246
252	0xbcb25928	-0.021771029
253	0x39dd82d6	0.00042249885
254	0x3d89f93e	0.06736992
255	0x3d63350e	0.05547052

layers.2.bias f4 [128]
0	0x3d1028c6	0.035195135
1	0x3b1fb959	0.002437195
2	0xbca92479	-0.020647274
3	0xbc47f922	-0.012205394
4	0x3d194d44	0.037427202
5	0x3caabbf4	0.020841576
6	0xbc7d9589	-0.0154775465
7	0xbd3d1085	-0.046158332
8	0x3d8c9fb5	0.06866399
9	0xbc36d554	-0.01115926
10	0xbc4e5b63	-0.0125950305
11	0x3aa840c2	0.0012836682
12	0x3d353971	0.044244234
13	0x3c1cce6f	0.009570702
14	0x3cb72b44	0.022359498
15	0x3d4d713f	0.050156828
16	0x3cb269b5	0.02177892
17	0x3d0d5be5	0.034511466
18	0x3ca24a5c	0.019810848
19	0x3baaae30	0.005208753
20	0x3d6efdf8	0.058347672
21	0xbd381192	-0.04493863
22	0x3d2da5be	0.042394392
23	0x3d30f18b	0.043199103
24	0x3d7aa75c	0.061194763
25	0x3c0dc745	0.008653467
26	0x3dc4ad38	0.09603351
27	0x3d36b388	0.044604808
28	0x3dbb96c1	0.091596134
29	0x3dc601b2	0.09668292
30	0xbcb1caa2	-0.021703068
31	0x3c41d97a	0.011831636
32	0xbd58a26a	-0.052889265
33	0xbcc8a792	-0.024493966
34	0xbd48d04d	-0.049026776
35	0x3cdb7eb2	0.026793811
36	0x3cb95884	0.022625215
37	0x3d198fc9	0.03749064
38	0x3ac24172	0.001482053
39	0xbd0228ff	-0.03177738
40	0x3c6b3fc0	0.014358461
41	0xbd72a226	-0.059236668
42	0xbce527a6	-0.027973007
43	0xbd4460de	-0.047943942
44	0x3d0d11ee	0.034440927
45	0x3d038d5d	0.032117236
46	0x3d066e00	0.032819748
47	0x3d19e6e5	0.037573714
48	0xbb809777	-0.003924306
49	0x3d87c7d4	0.06629911
50	0x3d38138d	0.04494052
51	0xbcb4c485	-0.022066364
52	0xbcfd468e	-0.030917432
53	0x3da4e49f	0.080514185
54	0x3d65f5fd	0.056142796
55	0xbd20723e	-0.03917145
56	0x3d0479e4	0.032342806
57	0xbd6a7b1a	-0.057246305
58	0x3d786ddd	0.06065165
59	0x3d8e3fdb	0.06945773
60	0x3d624477	0.055241074
61	0x3d6e0f29	0.058119927
62	0xbc67bddb	-0.014144386
63	0x3d47bd03	0.04876424
64	0xba29d100	-0.0006477982
65	0xbcf5a50e	-0.02998593
66	0x3d682a15	0.056680758
67	0xbd48118f	-0.04884487
68	0x3b4fb370	0.0031692646
69	0xbce8de6e	-0.028426375
70	0xbd5a400e	-0.053283744
71	0xbbc80f1d	-0.0061053173
72	0x3c847d6b	0.016173085
73	0x3d9ed0b4	0.07754651
74	0xbc0bbfa0	-0.008529574
75	0x3d3f6e8d	0.04673629
76	0xbd020412	-0.031742163
77	0x3c9c3044	0.019065984
78	0xbd41a587	-0.047277
79	0x3d26aee2	0.040694125
80	0x3d40242d	0.0469095
81	0x3c0a4bd4	0.00844093
82	0x3dcb702d	0.09933505
83	0xbcfa95ec	-0.030589066
84	0xba9e8840	-0.0012095049
85	0xbbbb1ac0	-0.005709976
86	0x3d479629	0.04872719
87	0x3c9db2a9	0.01925023
88	0x3da87355	0.08225123
89	0x3ce93bc5	0.028470883
90	0xbc403a94	-0.011732716
91	0xbd69c9c1	-0.057077173
92	0xbcc8738b	-0.024469158
93	0xbd1da91d	-0.038491357
94	0xbd436775	-0.047706086
95	0x3d0fef82	0.03514052
96	0x3bcdb600	0.0062777996
97	0xbd64b3cc	-0.05583553
98	0x3cc11590	0.023569852
99	0xbc53c249	-0.012924739
100	0xbc199f63	-0.00937638
101	0x3ccf885b	0.025333574
102	0x3ddacc10	0.10683453
103	0xbcc97e1e	-0.02459627
104	0xbc3f94e8	-0.011693217
105	0x3d749b48	0.0597184
106	0x3cbf6c12	0.023366962
107	0x3c3b3de1	0.011428327
108	0xbd25bbb0	-0.040462196
109	0xbcbac704	-0.022799976
110	0x3bcf8a54	0.0063336287
111	0xbccc5f68	-0.024947837
112	0xbb605270	-0.0034228824
113	0x3c7c20ad	0.01538865
114	0x3d5e21ef	0.05423158
115	0x3cf7289e	0.030170735
116	0x3d4a2914	0.04935558
117	0xbd61a10e	-0.055085234
118	0xbd2b0b26	-0.04175868
119	0x3c6928f0	0.014230952
120	0xbb52d47d	-0.003217011
121	0x3cda0c33	0.026617145
122	0x3d0396b7	0.032126155
123	0x3d73ec66	0.05955162
124	0x3d4ddcd5	0.05025943
125	0x3c6f91d3	0.01462217
126	0x3d80e3c2	0.06293441
127	0x3d27e30c	0.040988013

layers.4.weight f4 [64, 128]
0	0xbd07196f	-0.03298324
1	0x3c7ee9c0	0.01555866
2	0x3d3cb29e	0.04606878
3	0xbb802d70	-0.0039116666
4	0x3d08cffc	0.033401474
5	0xbc93a044	-0.018020757
6	0x3d929303	0.071569465
7	0xbd030f8e	-0.031997256
8	0xbdb24110	-0.08703816
9	0xbdaffb1d	-0.08592818
10	0xbcdf5360	-0.027261436
11	0xbd923ef2	-0.07140912
12	0x3cfd6de8	0.030936196
13	0xbcada560	-0.021197021
14	0xbd0bb9ea	-0.03411285
15	0xbd9bd7c1	-0.07609511
16	0xbc4d4350	-0.012528256
17	0x3dacca27	0.08436995
18	0xbd339a9d	-0.043848623
19	0xbd8cb76e	-0.06870924
20	0xbd78e238	-0.060762614
21	0x3ccdb720	0.025111735
22	0x3a168880	0.0005742386
23	0x3d372a3a	0.044718005
24	0x3da0af37	0.078459196
25	0xbc19d448	-0.009388991
26	0xbd7f0c38	-0.062267512
27	0xbdb3fc2c	-0.08788332
28	0xbd43b6bc	-0.04778169
29	0xbd9a6461	-0.07538677
30	0xbce3bee0	-0.027800977
31	0xbbd64a50	-0.0065396205
32	0xbda1589d	-0.0787823
33	0xbd9fa134	-0.07794419
34	0x3d3f88c2	0.04676128
35	0xbd1465cc	-0.036229894
36	0x3d807a61	0.06273342
37	0x3cafa73c	0.021442048
38	0x3dac8fe1	0.0842588
39	0x3d3f2832	0.046669193
40	0xbd79666a	-0.060888685
41	0x3d60255e	0.054723136
42	0xbc1c6198	-0.009544753
43	0x3d896061	0.06707836
44	0xbdb33e46	-0.08752112
45	0xbd315bb9	-0.043300364
46	0xbda8c390	-0.082404256
47	0xbd8d1d47	-0.0689035
48	0x3ce0710c	0.027397655
49	0xbd675d84	-0.056485668
50	0xbcbb6a40	-0.022877812
51	0x3b547ae0	0.0032421872
52	0xbd8137e0	-0.063094854
53	0xbd95132d	-0.07279048
54	0xbcc814f0	-0.024424046
55	0xbb66d880	-0.003522426
56	0xbd9459d1	-0.072436936
57	0xbca954e4	-0.020670362
58	0xbc13bc68	-0.0090170875
59	0x3d6df6b6	0.05809661
60	0x3c948230	0.018128484
61	0x3d6b9372	0.05751366
62	0xbdaa9e8c	-0.08331022
63	0xb9229800	-0.00015506148
64	0x3dae3411	0.08506025
65	0xbd1bb27e	-0.03801202
66	0xbc15cd70	-0.009143218
67	0x3d9b51dd	0.075839736
68	0x3d09830e	0.03357225
69	0x3d779766	0.06044712
70	0x3a45f380	0.0007551238
71	0xbda245c8	-0.07923466
72	0x3d9699f9	0.07353587
73	0xbdaed83b	-0.085373364
74	0x3d445242	0.04793001
75	0x3d5babb6	0.053630553
76	0xbcc7eb30	-0.024404138
77	0xbd9a41a2	-0.0753205
78	0xbd093b54	-0.033503845
79	0xbda529eb	-0.08064636
80	0xbdab6f79	-0.08370871
81	0xbc880a78	-0.016606554
82	0x3da1b2ff	0.07895469
83	0x3d9ea11b	0.07745572
84	0x3c59aff0	0.013286576
85	0x3d041ee0	0.032256007
86	0xbd7db4c6	-0.061939977
87	0xbd8a2217	-0.06744783
88	0xbc3548a8	-0.011064686
89	0xbd35066e	-0.044195585
90	0x3d89d5ef	0.06730258
91	0xbd0d4dfb	-0.034498196
92	0x3d6c128e	0.057634883
93	0xbbd4b090	-0.0064907745
94	0x3aff9e40	0.0019502118
95	0x3d1da216	0.038484655
96	0x3d774c4e	0.060375504
97	0xbd1232c6	-0.035692953
98	0xbc5b7030	-0.013393447
99	0x3bed6080	0.0072441697
100	0xbbc6fb40	-0.006072432
101	0x3d86fcf9	0.065912195
102	0xbc1698b0	-0.009191677
103	0x3d666da6	0.056256913
104	0xbd9c10ac	-0.076203674
105	0xbd081fef	-0.03323358
106	0xbdadf452	-0.08493866
107	0x3cda0c18	0.026617095
108	0x3d87d895	0.066331066
109	0xbd9ebbfc	-0.07750699
110	0xbd004769	-0.031318102
111	0x3cc70a6c	0.024296962
112	0x3d703e76	0.058653317
113	0x3d10f47a	0.0353894
114	0x3da77697	0.08176916
115	0x3c4c3180	0.012462974
116	0x3d1113f2	0.035419412
117	0xb999f300	-0.00029363483
118	0xbd9baabe	-0.07600926
119	0xbb1abde0	-0.002361171
120	0xbd86c2ef	-0.065801494
121	0x3d656d9a	0.056012727
122	0xbc82839c	-0.015931897
123	0xbd8fa6af	-0.07014214
124	0xb8fdb400	-0.00012097508
125	0x3d73a886	0.05948689
126	0x3bd1ade0	0.0063989013
127	0xbd3144b0	-0.043278396
128	0xbd8908e7	-0.06691151
129	0xbb18e2ea	-0.002332861
130	0x3d863df9	0.06554789
131	0xbcce418f	-0.025177745
132	0x3d5b4bbf	0.053539034
133	0x3d211ca8	0.03933397
134	0xbcd8692d	-0.02641734
135	0x3d81f18e	0.06344901
136	0xbda30eb4	-0.07961789
137	0xbdac9d14	-0.08428398
138	0xbcd9b9e8	-0.026577905
139	0x3d56c145	0.05243041
140	0xbd35970d	-0.044333506
141	0xbd813f2d	-0.06310878
142	0xbd9d9d1a	-0.0769598
143	0xbdcf905b	-0.101349555
144	0xbd6f28fe	-0.058388703
145	0x3d6b8c78	0.05750701
146	0x3ca38b2e	0.019963827
147	0x3d613396	0.054980837
148	0x3df9c24b	0.121952616
149	0x3d216a17	0.039407816
150	0x3d6d9979	0.05800769
151	0x3b915067	0.0044346335
152	0xbd8c25ff	-0.06843185
153	0x3c1ec6aa	0.00969092
154	0xbdb74349	-0.089483805
155	0x3c097546	0.008389777
156	0xbdac6b5c	-0.08418915
157	0xbd2235b6	-0.039602004
158	0x3cfd25b5	0.03090177
159	0xbd57ec45	-0.05271556
160	0x3d923183	0.0713835
161	0xbc821cae	-0.015882816
162	0x3cc007e7	0.023441268
163	0x3d82c375	0.06384937
164	0x3d0caa2e	0.034341983
165	0x3dbd2f36	0.092375204
166	0x3d8b57e8	0.06803876
167	0x3c9a1393	0.018808162
168	0x3d28df2e	0.041228466
169	0x3ca793c4	0.020456202
170	0x3b38a640	0.0028175265
171	0x3caca5cc	0.021075152
172	0xbc45d753	-0.012075263
173	0xbd09e955	-0.03366979
174	0x3da4d7f5	0.08049003
175	0x3c3b78de	0.011442391
176	0x3c6f8a05	0.014620309
177	0x3d5e8960	0.05433023
178	0x3d7865e0	0.06064403
179	0xbcfa119b	-0.030525973
180	0x3dab81e6	0.083743855
181	0x3d897bef	0.067130916
182	0xbbc608f6	-0.0060435487
183	0x3db1b355	0.08676783
184	0xbd22bca6	-0.03973069
185	0x3d204c5e	0.03913533
186	0xbd93cb36	-0.07216494
187	0x3da8072f	0.08204495
188	0xbd549e83	-0.05190898
189	0x3daed672	0.08536996
190	0x3d6e6fcc	0.058212087
191	0x3d79356b	0.06084196
192	0x3d71f1da	0.05906854
193	0x3d988790	0.074477315
194	0xbc97b35b	-0.01851814
195	0x3d6482e4	0.05578889
196	0xbd98c486	-0.07459359
197	0xbd8f9b72	-0.07012071
198	0xbd294ff4	-0.041336015
199	0xbd9fc982	-0.078021064
200	0xbdc10ea4	-0.094266206
201	0xbc1d911d	-0.009617117
202	0xbd18392f	-0.03716391
203	0xbd36de83	-0.044645797
204	0xbc9dcad3	-0.019261753
205	0x3d306e2f	0.04307383
206	0x3d897a16	0.06712739
207	0x3cd216a0	0.025645554
208	0x3d865bf0	0.065605044
209	0x3db7b2bd	0.089696385
210	0xbdb58fd4	-0.08865324
211	0x3d2d7eb6	0.04235717
212	0x3d60673e	0.05478596
213	0xbd7f3fb7	-0.062316623
214	0x3da43d17	0.080194645
215	0xbdaf3e1a	-0.08556767
216	0x3d736959	0.05942664
217	0x3c869467	0.016428186
218	0x3dbc83af	0.09204804
219	0x3c630b6a	0.013857702
220	0x3ddf874c	0.10914478
221	0xbbe6bc69	-0.007041503
222	0x3dc9b1d5	0.09848372
223	0xbd87c177	-0.06628697
224	0x3c9a7f60	0.018859565
225	0x3c573c48	0.013136931
226	0xbd6edfbe	-0.058318846
227	0x3daef331	0.08542479
228	0x3c09cd72	0.008410798
229	0xbd41c23a	-0.04730437
230	0xbd5068a3	-0.05088104
231	0xbd346380	-0.044040203
232	0x3d1291e8	0.03578368
233	0xbd97f629	-0.07419998
234	0x3d40db40	0.047084093
235	0x3d411849	0.0471423
236	0xbda97033	-0.082733534
237	0xbd59cbaf	-0.053172763
238	0x3c4b3fa6	0.012405312
239	0xbd249fc0	-0.040191412
240	0x3dbc1b98	0.091849506
241	0x3dc58570	0.09644592
242	0x3c44af28	0.012004651
243	0x3aa28d0c	0.0012401654
244	0x3d0cfea1	0.03442252
245	0x3bd5d1f0	0.0065252706
246	0xbd7c0804	-0.06153108
247	0x3d9d1127	0.07669287
248	0xbc9a2bda	-0.018819738
249	0xbd9f8842	-0.07789661
250	0x3da55de2	0.08074547
251	0xbc8605f6	-0.016360264
252	0xbc7352c1	-0.014851273
253	0x3d4e0ad5	0.0503033
254	0x3c12926b	0.008946042
255	0x3d914129	0.070925064

layers.4.bias f4 [64]
0	0xbd72645e	-0.05917775
1	0xbd4738ce	-0.048638158
2	0x3d84a5a6	0.064769074
3	0x3d991d63	0.07476308
4	0xbd0f9c5d	-0.03506123
5	0x3d1f6743	0.038916837
6	0xbd07f466	-0.03319206
7	0x3d86c188	0.06579882
8	0x3d5640c4	0.05230786
9	0xbd8e4936	-0.06947558
10	0x3d041a4f	0.032251652
11	0xbd5bdf6b	-0.053679865
12	0x3c312ef7	0.01081442
13	0xbd39d666	-0.045370482
14	0x3d8cc8fc	0.06874272
15	0x3d7b1033	0.061294746
16	0x3c8c56b2	0.017131183
17	0xbc32b8ec	-0.010908347
18	0xbd791558	-0.06081137
19	0xbd7f70b9	-0.06236336
20	0xbc77ac3f	-0.01511675
21	0x3c7d6c5e	0.015467731
22	0xbcddb7cb	-0.027065178
23	0x3d5f4a51	0.054514233
24	0x3b998b10	0.004685767
25	0xbda3b176	-0.07992832
26	0x3d23bf51	0.039977375
27	0xbc3dccae	-0.011584444
28	0x3d9bc052	0.076050416
29	0x3d7b4642	0.0613463
30	0x3da02be0	0.078208685
31	0x3d158527	0.036503937
32	0x3d98838a	0.07446964
33	0xbc879f5c	-0.01655548
34	0x3d6592bc	0.05604814
35	0x3da52815	0.08064286
36	0xbd15e9fb	-0.036600094
37	0x3af36cc5	0.0018571845
38	0xbca5396b	-0.02016898
39	0x3c556e79	0.013026827
40	0xbbece4ee	-0.007229439
41	0xbc97a18d	-0.01850965
42	0x3d8c86cc	0.06861648
43	0xbd9a419a	-0.07532044
44	0xbca2240b	-0.019792577
45	0xbdadd188	-0.084872305
46	0x3d41d2f5	0.047320325
47	0x3dd6d2d9	0.10489435
48	0x3dc5de34	0.096615225
49	0xbd2a53ef	-0.04158395
50	0x3c8ba420	0.017046034
51	0x3d6dfd87	0.05810311
52	0x3dceaa92	0.100911275
53	0xbbfc6dee	-0.0077035343
54	0xbd1bd2d6	-0.038042866
55	0x3ce921d3	0.028458511
56	0xbc1bb3c6	-0.009503311
57	0x3d879679	0.06620497
58	0xbcc6b4f0	-0.0242562
59	0xbdb4a5be	-0.08820675
60	0x3d798916	0.06092175
61	0x3d54f90e	0.05199533
62	0xbd813f06	-0.06310849
63	0x3cff7c8c	0.031187318

layers.6.weight f4 [1, 64]
0	0x3d5b0c20	0.05347836
1	0xbe0f1315	-0.13972123
2	0x3d1a7720	0.037711263
3	0xbdd42253	-0.10358109
4	0xbde79131	-0.1130699
5	0xbcb4a43d	-0.022050971
6	0xbcbfc54d	-0.02340951
7	0xbe04a9d8	-0.12955415
8	0x3da03cd8	0.07824105
9	0xbca79034	-0.020454504
10	0x3c80bd4c	0.015715264
11	0x3d1d569f	0.038412686
12	0xbdf06edd	-0.117398955
13	0x3dc8f535	0.098123945
14	0xbdee7e4b	-0.11645182
15	0x3c08830d	0.008332026
16	0xbc97fa9e	-0.01855212
17	0xbdd4167d	-0.10355852
18	0x3e1a7e71	0.15087296
19	0xbcd26730	-0.02568397
20	0xbdedf39d	-0.11618731
21	0xbd1e29ea	-0.03861419
22	0xbd88ec16	-0.06685655
23	0x3e0d0bfc	0.13774103
24	0x3d4163e8	0.04721442
25	0xbd2c6974	-0.042092755
26	0xbcc5bec1	-0.02413881
27	0xbdeae23c	-0.11468932
28	0xbe03c774	-0.12869054
29	0xbde00514	-0.109384686
30	0xbd90ba01	-0.070667274
31	0x3e275caf	0.1634395
32	0xbd3c0415	-0.04590233
33	0x3cdac368	0.026704505
34	0x3d32c2dd	0.043642867
35	0x3db410aa	0.08792241
36	0x3db657b0	0.08903444
37	0x3e321a2d	0.17392798
38	0xbd2ccee9	-0.042189512
39	0x3deb3361	0.11484409
40	0xbdbe4ecd	-0.09292374
41	0xbd42949f	-0.047505017
42	0x3c726839	0.014795356
43	0xbe0fd6fe	-0.14046857
44	0xbd9ec213	-0.077518605
45	0x3d912592	0.07087244
46	0xbc869cb3	-0.016432142
47	0x3d5e698e	0.054299884
48	0x3d882015	0.06646744
49	0x3deaec82	0.114708915
50	0x3da8a596	0.08234708
51	0xbc74cf07	-0.014941937
52	0x3e21fa35	0.15818103
53	0x3d88341e	0.066505656
54	0xbe07e07a	-0.13269225
55	0x3d992e74	0.07479563
56	0x3bc893fe	0.0061211577
57	0xbdb60180	-0.08887005
58	0xbdd0f27a	-0.10202499
59	0xbd7ad93a	-0.06124232
60	0x3d151d94	0.03640516
61	0x3de4fc6a	0.11180957
62	0xbd56cd34	-0.05244179
63	0xbd6887a4	-0.056769982
